model.pt (torch, 78135 bytes, 34 tensors)

weight_ih_l0 f4 [64, 13]
0.11145872 -0.17903976 0.13164808 0.046553347 0.114942774 -0.06054886 0.1974095 -0.05289406
-0.2681637 0.07653425 -0.019401388 -0.10979592 0.083659455 0.16448753 -0.13442549 -0.020814195
0.034809303 0.03640772 -0.14699703 0.028115295 -0.009346783 0.1164086 0.21898094 -0.18989547
0.20861036 0.041151077 -0.22949728 0.19206755 0.23205902 -0.16996624 -0.037028257 0.0058467383
-0.073860414 0.12469473 -0.2185001 0.06739624 0.13213697 0.15302412 -0.0072791376 -0.1001218
0.1211605 0.12257098 0.23261632 0.122031316 0.06384324 0.07975366 -0.2602946 0.11387422
0.20536958 -0.20575422 -0.09085105 0.04378847 0.021136913 -0.17085063 -0.0633782 0.15719725
0.110506 0.043770947 -0.16501492 -0.07987928 -0.06887977 -0.25584304 -0.10507801 -0.19186865
0.2767125 -0.24162823 -0.22610115 0.02022883 0.047745768 0.16044186 -0.17566824 -0.23096615
0.13401987 -0.23159418 0.22521901 0.061085876 -0.20250167 0.006884017 0.11727419 -0.19066764
-0.16915038 0.058528453 0.16056083 0.15292862 0.16871181 0.1461108 0.005098474 0.15190972
0.16065988 -0.2003618 -0.26989323 -0.20723598 0.10657195 -0.2278697 -0.25730294 -0.09879347
-0.2118044 -0.10731389 0.2039483 0.077618 -0.17504548 0.13001163 0.112645246 -0.12807225
-0.17702484 -0.17330667 0.08494521 -0.161487 -0.041370545 -0.20901929 -0.15507734 -0.02446223
-0.014399551 0.16392744 -0.10510895 -0.15262848 -0.11586459 0.15869454 0.20407337 -0.14037558
-0.13346854 0.022143412 0.20014574 -0.11847585 0.06986328 0.096017964 0.074534856 0.00086001406
0.17778634 -0.05492177 -0.10470456 -0.1695284 -0.2226529 0.01993977 0.15349723 0.017625997
0.25549883 -0.1198233 0.21247365 0.23141785 -0.01052171 0.21213086 -0.0057767653 -0.078406624
0.016616238 0.10912232 -0.007270656 0.095377654 0.15213826 -0.26236135 -0.0027190745 -0.14074889
-0.011656914 -0.07327641 0.11828053 0.019506102 0.17210971 -0.1816552 -0.1002134 0.13370216
-0.05286021 0.12719564 -0.13953424 -0.18235277 0.18164542 0.21377625 0.0343481 -0.099219784
-0.028284507 -0.014689977 -0.16415094 0.12462181 0.18303749 0.051552802 -0.0612607 -0.20977506
0.1317068 0.10709665 -0.24041115 0.03764749 -0.15367976 -0.029536916 -0.08038016 -0.16426373
0.20337568 -0.18862045 -0.17041758 0.19385287 0.038733136 0.11472326 -0.017361233 -0.08397833
-0.17743134 0.129422 -0.19965142 -0.13186237 0.05822578 -0.1685562 -0.040067688 -0.12039932
-0.16044289 0.17031002 -0.25029767 -0.13626394 0.00876 -0.16674186 -0.09651926 -0.124950886
0.12828289 -0.16857533 0.044130918 0.27148375 0.01584275 0.21387501 0.13835104 -0.013450266
-0.08856294 0.11887618 -0.10236989 0.016412156 0.12554733 -0.19492084 -0.0057224724 0.19184628
-0.126554 0.050905082 0.08652817 -0.10914012 -0.19644818 0.1100918 0.20660271 -0.018738462
-0.090428375 0.11537124 0.22671658 0.068407804 -0.23991823 -0.28223473 0.14582077 -0.038833447
-0.11528596 0.15604307 -0.13110077 0.2499614 0.09599384 -0.10504449 -0.24160536 0.10523885
-0.038806558 -0.20062552 -0.12717968 -0.097928815 0.13036302 -0.14157252 0.0099497875 -0.119832784
00000000: 7844 e43d 3356 37be c1ce 063e b9ae 3e3d
00000010: 1e67 eb3d 1502 78bd b725 4a3e 71a7 58bd
00000020: c14c 89be fdbd 9c3d a9ef 9ebc afdc e0bd
00000030: a655 ab3d 6b6f 283e d6a6 09be 8882 aabc
00000040: 3394 0e3d 4320 153d 6486 16be 0c52 e63c
00000050: 4023 19bc a267 ee3d 8a3c 603e f573 42be
00000060: f49d 553e 088e 283d 5601 6bbe 5bad 443e
00000070: e1a0 6d3e a10b 2ebe f1aa 17bd ff95 bf3b
00000080: 2144 97bd f35f ff3d 7dbe 5fbe 0a07 8a3d
00000090: ea4e 073e 5bb2 1c3e d585 eebb a90c cdbd
000000a0: ff22 f83d 7e06 fb3d f932 6e3e 8eeb f93d
000000b0: 3fc0 823d e355 a33d 5545 85be e336 e93d
000000c0: 674c 523e 3cb1 52be 1e10 babd 8a5b 333d
000000d0: 5227 ad3c 78f3 2ebe 6ecc 81bd 51f8 203e
000000e0: f850 e23d 2a49 333d acf9 28be bf97 a3bd
000000f0: d610 8dbd dcfd 82be 2433 d7bd 3779 44be
00000100: 43ad 8d3e 646d 77be 0f87 67be eeb6 a53c
00000110: 1191 433d df4a 243e 60e2 33be 6482 6cbe
00000120: 813c 093e 0627 6dbe d09f 663e 2f35 7a3d
00000130: 995c 4fbe 5293 e13b 732d f03d 613e 43be
00000140: c235 2dbe 88bb 6f3d 0f6a 243e 5299 1c3e
00000150: cac2 2c3e 129e 153e 1a11 a73b 398e 1b3e
00000160: 0684 243e a52b 4dbe 722f 8abe ab35 54be
00000170: 6542 da3d ad56 69be 36bd 83be 3b54 cabd
00000180: 41e3 58be 62c7 dbbd d3d7 503e 30f6 9e3d
00000190: 1f3f 33be c521 053e 8db2 e63d 5f25 03be
000001a0: 0046 35be 4e77 31be c1f7 ad3d d95c 25be
000001b0: 2974 29bd 2709 56be 98cc 1ebe 0465 c8bc
000001c0: 18ec 6bbc 98dc 273e 5c43 d7bd a44a 1cbe
000001d0: 6a4a edbd d280 223e 9cf8 503e 9ebe 0fbe
000001e0: faab 08be 1a66 b53c 01f3 4c3e 77a3 f2bd
000001f0: 7b14 8f3d 11a5 c43d bba5 983d 9172 613a
00000200: 9f0d 363e a6f5 60bd 586f d6bd da98 2dbe
00000210: 1fff 63be bb58 a33c 612e 1d3e 6564 903c
00000220: bed0 823e eb65 f5bd b192 593e cdf8 6c3e
00000230: 4063 2cbc d538 593e 054b bdbb a793 a0bd
00000240: c71e 883c 867b df3d af3e eebb 5c55 c33d
00000250: 22ca 1b3e 3a54 86be 8032 32bb 7a20 10be
00000260: a4fc 3ebc f111 96bd 103d f23d 43cb 9f3c
00000270: 873d 303e d203 3abe af3c cdbd 38e9 083e
00000280: f383 58bd 933f 023e 10e2 0ebe afba 3abe
00000290: 4201 3a3e 29e8 5a3e 98b0 0c3d be33 cbbd
000002a0: e9b4 e7bc 3bae 70bc 2f17 28be b839 ff3d
000002b0: 2e6e 3b3e 0829 533d 80ec 7abd 46cf 56be
000002c0: 26de 063e 7d55 db3d 572e 76be 4134 1a3d
000002d0: 3a5e 1dbe 67f7 f1bc 5a9e a4bd c034 28be
000002e0: b741 503e b825 41be f281 2ebe 5e81 463e
000002f0: a3a6 1e3d 07f4 ea3d 2539 8ebc d5fc abbd
00000300: 90b0 35be 3387 043e 6c71 4cbe ee06 07be
00000310: 287e 6e3d ff99 2cbe 041e 24bd eb93 f6bd
00000320: 244b 24be c065 2e3e 0427 80be c688 0bbe
00000330: 1a86 0f3c 61be 2abe e4ab c5bd 40e6 ffbd
00000340: 975c 033e 039f 2cbe 9fc2 343d ebff 8a3e
00000350: a8c8 813c 0d02 5b3e e5ab 0d3e 815e 5cbc
00000360: 7d60 b5bd 5b75 f33d 4ea7 d1bd c972 863c
00000370: 7b8f 003e 5499 47be 9483 bbbb 5a73 443e
00000380: 5f97 01be d981 503d ae35 b13d db84 dfbd
00000390: b629 49be cf77 e13d a98f 533e 6781 99bc
000003a0: 8332 b9bd c247 ec3d 6428 683e 6419 8c3d
000003b0: 20ad 75be 1281 90be 0a52 153e d20f 1fbd
000003c0: 0c1b ecbd c1c9 1f3e 483f 06be e2f5 7f3e
000003d0: 6b98 c43d 9121 d7bd 6567 77be 7787 d73d
000003e0: a0f3 1ebd c770 4dbe 643b 02be e78e c8bd
000003f0: e27d 053e 63f8 10be 6f04 233c e46a f5bd

weight_hh_l0 f4 [64, 16]
0.075266786 0.1987107 -0.09888759 -0.11991055 0.19188611 -0.15453312 0.19468647 0.01936237
-0.036048207 0.12464846 -0.2634195 0.007921286 0.14584689 0.018717825 -0.21879718 -0.13456874
0.13677414 -0.16405934 0.22290029 0.23383726 -0.080499515 -0.22932486 -0.18038255 -0.13124435
0.12389003 -0.16039433 -0.22909649 -0.15636079 0.12407419 -0.109907225 -0.030998938 0.045166817
0.19358155 0.29725522 0.098812014 0.036072217 -0.21628883 -0.11022154 -0.021355966 0.13290118
0.28509173 -0.08952958 -0.13582917 -0.0031155015 -0.2722802 -0.06260755 -0.20096837 -0.019084474
-0.21662326 -0.12524267 0.19456376 0.27199054 -0.0043556937 -0.25141776 0.24170467 0.14159557
0.2355604 0.028327433 -0.032140423 0.19736385 -0.23595248 -0.16107383 -0.031834707 -0.015216977
0.21561438 0.21299085 0.104624435 0.28146333 -0.17677623 0.053290844 -0.115732 0.06764171
-0.10173601 0.19790927 0.001083231 0.2821038 -0.007576341 -0.0781396 -0.19741157 -0.13943924
-0.15131228 -0.058655377 -0.11546968 -0.0085037 0.2418536 -0.04047112 -0.13217653 -0.065701604
-0.12624656 -0.162662 0.070046104 0.020553293 0.10330682 0.18116146 0.02842091 0.2146303
0.13574325 -0.3142789 0.075290784 -0.092146955 -0.17009424 0.11094523 0.039666783 0.015472769
0.3304224 -0.08399424 -0.046342697 -0.073724784 -0.13930482 -0.13702406 -0.14884228 -0.017356124
0.15551303 -0.22880663 0.019506652 -0.05448541 0.076408625 0.18526082 0.121056005 -0.0032384212
-0.23357986 -0.17187372 0.009009034 -0.0010226683 -0.13860399 0.23357633 0.020120934 -0.021636885
0.20063557 0.12823905 -0.22816113 -0.2082037 -0.18330295 -0.17395212 0.01524634 -0.04848219
-0.24434304 -0.075024426 0.0036353627 -0.14583567 -0.17956743 -0.024668885 -0.13489194 0.016306886
-0.06984775 -0.21530387 0.17183913 -0.280026 -0.049247086 -0.19738795 -0.20666897 -0.1627537
-0.13276102 -0.056818537 -0.14537832 -0.25502583 0.26242912 0.15958144 0.25789222 -0.023245519
0.029909017 0.24813774 -0.030559141 0.011029549 -0.033406038 0.1861341 0.06367461 -0.020757847
0.054147594 -0.25314996 -0.06395327 -0.12618789 0.09103018 0.17671078 0.022003213 0.21163751
0.24052037 -0.03919115 -0.22600242 0.11505752 -0.20381285 0.16777848 -0.18867972 -0.01119866
-0.1250815 0.153243 0.012748345 -0.10527069 -0.17936057 -0.21055162 0.13922435 -0.025438622
-0.1395648 0.20319949 -0.0599581 0.15425058 0.052967865 0.12061009 -0.053794757 -0.27334312
-0.12163698 0.09576009 -0.1055646 -0.12062278 -0.040733058 0.14153725 0.06134883 0.017643092
-0.121978864 0.07264997 -0.045693703 0.15383603 0.12186748 0.10347395 0.042209193 0.19685423
-0.36578956 -0.0960433 0.19719742 0.04345654 0.081536174 0.27903137 0.034342706 -0.053647727
-0.08253297 -0.058585573 0.1677291 -0.3091395 -0.15796462 -0.18485858 0.13625988 -0.13160604
-0.07906396 -0.18075633 0.2632978 -0.13383344 -0.14909561 0.045543022 0.04344084 -0.11580042
0.065757476 0.038991712 -0.028661085 -0.19908682 -0.29031986 -0.1385882 -0.013133991 -0.19651584
-0.17885263 -0.2055495 -0.03130762 -0.1799937 -0.15858954 -0.09317004 -0.016793478 -0.27065888
00000000: 7925 9a3d d17a 4b3e 9485 cabd aa93 f5bd
00000010: cb7d 443e ee3d 1ebe e45b 473e d59d 9e3c
00000020: 49a7 13bd b147 ff3d ecde 86be 48c8 013c
00000030: e358 153e 2056 993c 5e0c 60be 63cc 09be
00000040: 850e 0c3e 2cff 27be f93f 643e 0973 6f3e
00000050: eedc a4bd 23d4 6abe 34b6 38be eb64 06be
00000060: 0eba fd3d 693e 24be 4598 6abe 0b1d 20be
00000070: 9c1a fe3d 0a17 e1bd 7cf1 fdbc d700 393d
00000080: 3e3a 463e d631 983e f45d ca3d 76c0 133d
00000090: d27a 5dbe d5bb e1bd b5f2 aebc 3f17 083e
000000a0: 8bf7 913e 495b b7bd cd16 0bbe 712d 4cbb
000000b0: 4f68 8bbe 6338 80bd a7ca 4dbe 0b57 9cbc
000000c0: 7dd2 5dbe 9d3f 00be b93b 473e 5842 8b3e
000000d0: 35ba 8ebb d4b9 80be 6e81 773e 6efe 103e
000000e0: bf36 713e ef0e e83c ada5 03bd c019 4a3e
000000f0: 879d 71be 8af0 24be 1c65 02bd a150 79bc
00000100: 04ca 5c3e 461a 5a3e 5645 d63d f61b 903e
00000110: d404 35be 8047 5a3d e604 edbd bd87 8a3d
00000120: f85a d0bd baa8 4a3e 33fb 8d3a e96f 903e
00000130: f442 f8bb a807 a0bd 4226 4abe 29c9 0ebe
00000140: 9bf1 1abe 9f40 70bd 5e7b ecbd 1a53 0bbc
00000150: 78a8 773e 0cc5 25bd 4959 07be 908e 86bd
00000160: c746 01be de90 26be 5574 8f3d 615f a83c
00000170: 8792 d33d 6482 393e f8d2 e83c 0cc8 5b3e
00000180: 4700 0b3e 2ae9 a0be 0e32 9a3d 8bb7 bcbd
00000190: 2f2d 2ebe 4137 e33d a379 223d 7f81 7d3c
000001a0: 202d a93e 2c05 acbd d7d1 3dbd 05fd 96bd
000001b0: eca5 0ebe 0950 0cbe 1c6a 18be 6e2e 8ebc
000001c0: cf3e 1f3e 494c 6abe 6acc 9f3c 182c 5fbd
000001d0: 207c 9c3d 03b5 3d3e 36ec f73d b13b 54bb
000001e0: 8f2f 6fbe aaff 2fbe a19a 133c 0e0b 86ba
000001f0: 34ee 0dbe a22e 6f3e a8d4 a43c d63f b1bc
00000200: 6973 4d3e 1951 033e 12a3 69be 5a33 55be
00000210: c5b3 3bbe 8120 32be c9cb 793c 4395 46bd
00000220: 1035 7abe 68a6 99bd 443f 6e3b f255 15be
00000230: 86e0 37be 6716 cabc 1d21 0abe 0596 853c
00000240: 560c 8fbd 9e78 5cbe 99f6 2f3e 915f 8fbe
00000250: 50b7 49bd 1120 4abe 08a1 53be e8a8 26be
00000260: 81f2 07be 8eba 68bd 0ede 14be bf92 82be
00000270: 1c5d 863e 5169 233e 730a 843e 636d bebc
00000280: c103 f53c d217 7e3e 2a57 fabc 48b5 343c
00000290: c5d4 08bd f099 3e3e d567 823d 5c0c aabc
000002a0: dec9 5d3d df9c 81be eff9 82bd 6637 01be
000002b0: 086e ba3d acf3 343e 1540 b43c 81b7 583e
000002c0: f94a 763e e686 20bd 2e6d 67be 47a3 eb3d
000002d0: 51b4 50be 1fce 2b3e 4235 41be 967a 37bc
000002e0: 5d15 00be bceb 1c3e 6fde 503c 2998 d7bd
000002f0: 4caa 37be d89a 57be d490 0e3e a864 d0bc
00000300: 13ea 0ebe 8713 503e a096 75bd ddf3 1d3e
00000310: d5f4 583d 6c02 f73d e457 5cbd a1f3 8bbe
00000320: cf1c f9bd de1d c43d 4132 d8bd 1309 f7bd
00000330: b5d7 26bd 24ef 103e e948 7b3d 3f88 903c
00000340: 0ed0 f9bd 82c9 943d 5229 3bbd 3187 1d3e
00000350: a895 f93d 26ea d33d 8ce3 2c3d 2894 493e
00000360: c548 bbbe 5ab2 c4bd 1fee 493e 7cff 313d
00000370: 70fc a63d 33dd 8e3e f0aa 0c3d b8bd 5bbd
00000380: 0c07 a9bd 6df7 6fbd 2dc1 2b3e 8847 9ebe
00000390: 7ac1 21be 914b 3dbe b687 0b3e bcc3 06be
000003a0: 49ec a1bd 3018 39be f8ce 863e a20b 09be
000003b0: 85ac 18be 528b 3a3d 06ef 313d c528 edbd
000003c0: dbab 863d c6b5 1f3d a7ca eabc 6add 4bbe
000003d0: cea4 94be 11ea 0dbe f32f 57bc 733b 49be
000003e0: 2525 37be 917b 52be 6b3c 00bd 4550 38be
000003f0: 4c65 22be efcf bebd 7a92 89bc cd93 8abe

bias_ih_l0 f4 [64]
-0.16530529 0.17868617 0.14516391 0.09631619 0.18000905 -0.036189325 0.12231194 -0.25944954
0.24336632 0.15434499 0.10682285 -0.06153991 -0.09861401 -0.15323122 -0.12863186 0.134082
0.1659622 0.10412489 0.22257032 -0.050272245 0.25503314 0.13111818 0.0991758 -0.0199057
0.13768728 -0.075271145 0.21605779 0.04191636 -0.14212915 0.112470776 0.22063297 -0.12746297
0.26816726 0.20786081 0.22920625 -0.04654646 -0.23219192 0.07053047 0.07089811 0.08439857
0.085468054 0.020669496 0.16983208 -0.016607609 -0.08069125 0.09941744 -0.25961316 0.09010159
0.11220831 0.16298315 0.08309639 0.10113236 0.21563032 -0.11512145 -0.10432193 0.07832285
0.14994706 -0.13262196 0.1248409 0.13589838 -0.13612635 -0.17036413 0.18272065 0.24252996
00000000: ca45 29be 82f9 363e d9a5 143e 6c41 c53d
00000010: 4b54 383e 423b 14bd af7e fa3d 92d6 84be
00000020: 0535 793e 9d0c 1e3e f0c5 da3d 4611 7cbd
00000030: 24f6 c9bd a5e8 1cbe 12b8 03be cb4c 093e
00000040: fff1 293e 6e3f d53d 79e9 633e 45ea 4dbd
00000050: b493 823e d843 063e af1c cb3d 4711 a3bc
00000060: e5fd 0c3e c227 9abd 413e 5d3e 7db0 2b3d
00000070: 4e8a 11be 1457 e63d 9ced 613e a785 02be
00000080: 384d 893e 77d9 543e 0bb5 6a3e 80a7 3ebd
00000090: b8c3 6dbe 4772 903d 0733 913d 28d9 ac3d
000000a0: e009 af3d 1353 a93c 76e8 2d3e ae0c 88bc
000000b0: 7441 a5bd 5f9b cb3d 04ec 84be 2f87 b83d
000000c0: 78cd e53d 0ee5 263e 712e aa3d 7c1e cf3d
000000d0: 32ce 5c3e cbc4 ebbd bca6 d5bd bb67 a03d
000000e0: b98b 193e 0dce 07be 96ac ff3d f228 0b3e
000000f0: b564 0bbe ef73 2ebe 1f1b 3b3e c659 783e

bias_hh_l0 f4 [64]
-0.1362373 0.0062049464 -0.2026329 0.17626654 -0.06070346 0.11703641 0.03243934 0.08180266
0.14241084 0.0131973 0.005714799 0.02002964 0.1973399 0.07641644 0.06817274 -0.021497687
-0.21472482 -0.11681086 0.007792287 -0.05795357 -0.09099038 0.15939078 0.059291918 -0.18065467
-0.1201597 -0.08916302 0.13523042 0.0073689627 -0.015406848 0.21956152 0.19682583 -0.1294
-0.11051664 0.09132372 -0.13216706 -0.15891927 -0.08990857 0.078130834 0.053942975 -0.121483035
0.013269228 0.092637815 -0.12884945 0.121054746 -0.26622233 0.08711233 0.202057 0.19503517
-0.118616425 0.22353569 0.028623955 0.14964911 0.010189612 0.20077558 -0.004822524 -0.09741559
0.27252784 0.20941527 -0.11162422 0.14753397 -0.19433315 0.22958435 0.14232214 -0.13585886
00000000: ca81 0bbe dd52 cb3b 007f 4fbe 377f 343e
00000010: 31a4 78bd c9b0 ef3d 1ddf 043d 2788 a73d
00000020: 26d4 113e 7d39 583c 3543 bb3b 3315 a43c
00000030: 7913 4a3e 3980 9c3d 269e 8b3d eb1b b0bc
00000040: d3e0 5bbe 883a efbd 7156 ff3b b960 6dbd
00000050: 2a59 babd 5637 233e 15dc 723d 8afd 38be
00000060: 4a16 f6bd 1a9b b6bd d879 0a3e 5777 f13b
00000070: 016d 7cbc bcd4 603e b68c 493e 6f81 04be
00000080: 8c56 e2bd ee07 bb3d cd56 07be bcbb 22be
00000090: fc21 b8bd 0f03 a03d 4ff3 5c3d 19cc f8bd
000000a0: 2d67 593c e5b8 bd3d 1cf1 03be 8deb f73d
000000b0: 4b4e 88be f367 b23d 08e8 4e3e 4db7 473e
000000c0: 2bed f2bd 8ae6 643e c97c ea3c 9e3d 193e
000000d0: 55f2 263c 1d98 4d3e 4306 9ebb d381 c7bd
000000e0: c588 8b3e f570 563e 3d9b e4bd 2513 173e
000000f0: 45ff 46be 2918 6b3e e5bc 113e 961e 0bbe

weight_ih_l1 f4 [64, 16]
-0.08255836 0.15422046 0.21348336 -0.17398342 -0.15917519 0.08762243 -0.2371753 0.20503241
-0.040473145 -0.1676555 0.19831109 -0.28165415 -0.1564638 0.28575277 -0.3035839 -0.20967315
0.009429395 -0.05245563 0.23091659 -0.13551927 -0.07387209 -0.15312262 -0.1980995 0.11452948
0.0289199 -0.18129611 -0.08004732 -0.22961535 -0.16457832 -0.016779255 0.054371547 -0.13347547
-0.21384369 -0.19019012 -0.19091594 0.06832262 -0.043335635 -0.09926337 -0.15466529 0.20119295
0.027141362 -0.08331937 0.20450789 0.15485424 0.084449016 0.30588427 -0.07451024 -0.024115577
0.20807156 -0.06108572 -0.010181966 0.25953022 -0.11138132 -0.07554104 0.19448683 0.0050728247
-0.0061220145 -0.10453372 -0.13443306 -0.16890228 -0.25781292 -0.03373277 -0.032117926 -0.002433447
-0.23198986 0.040748168 0.11573236 -0.16101265 -0.09569534 -0.063576706 -0.17151557 0.044653505
0.12847082 -0.2189407 0.1818811 -0.15990447 -0.02621291 -0.16913381 -0.21168852 0.19203666
0.033970233 0.24669185 0.22751407 -0.12706642 -0.036708906 0.04540293 -0.096333146 0.007780413
0.14318854 -0.21101262 0.004655532 -0.06078672 -0.16878404 0.27307224 0.2147408 -0.26283807
0.046870768 -0.058809042 0.18321781 -0.11585208 -0.15393586 -0.23930489 0.21431856 -0.09924066
0.112117924 0.2092804 -0.17213349 0.1377642 0.014098187 0.12325175 -0.13401018 -0.13538665
-0.012777762 0.03859536 -0.080757365 -0.13522656 -0.16696197 -0.22545071 -0.09443439 0.21085027
-0.21589798 0.136875 -0.18567283 -0.11014401 0.1456418 0.27942538 0.11796945 -0.17483251
0.2573038 0.31225067 0.19317406 -0.11896223 -0.23442578 0.09395652 0.19142497 0.13180287
0.13787019 -0.20856316 0.15370362 0.20388514 -0.22771643 -0.059481986 0.024237964 -0.14329845
-0.11637041 -0.03974928 -0.15578718 -0.22735856 0.10580716 -0.27002168 0.06099414 0.09536102
0.18913265 0.15878093 -0.16284642 0.15504918 0.18260416 -0.049865864 -0.061429556 0.086475335
-0.088987805 0.1415348 0.16138287 0.26856545 -0.07737414 0.011774591 -0.10075003 -0.09659608
-0.30317038 -0.030969214 -0.20571151 0.012434182 0.16654074 0.10516464 -0.046683017 0.057352267
0.15253043 0.1264442 -0.02003667 0.027302427 -0.29681966 -0.15650155 0.08443428 -0.2088196
0.17704043 -0.070347324 0.24778132 -0.20461859 -0.077169366 0.124278694 -0.259583 -0.2264307
0.12883703 0.25735438 -0.09695264 0.055203717 -0.3241881 -0.15680641 -0.118679866 -0.09981003
0.0890486 -0.077916786 0.016612485 -0.28322977 -0.0710594 0.2597137 0.071754284 0.10763121
0.01952441 0.11714444 0.005507276 0.1516123 -0.1635881 -0.01328347 0.043907642 0.112206444
0.04117483 0.018247923 -0.1232061 -0.0959637 -0.24470106 0.07416154 -0.14805597 -0.029756472
0.14654039 0.11568351 -0.09988366 0.18781775 -0.16953608 0.16681765 0.16771936 0.15570349
0.12719578 -0.20730723 0.17734371 0.2757593 0.031999607 -0.09685113 0.040786024 -0.16300312
0.16436419 0.042819437 0.15326123 0.011208703 0.029254824 -0.20175843 -0.20823288 -0.17835896
0.0068922536 -0.04313153 0.1696463 -0.058616094 -0.05429884 0.27115783 -0.09247783 -0.07560903
00000000: 5c14 a9bd f8eb 1d3e 629b 5a3e b628 32be
00000010: d2fe 22be 6373 b33d 15de 72be 04f4 513e
00000020: 2bc7 25bd e2ad 2bbe 1012 4b3e f934 90be
00000030: 0c38 20be 304e 923e 596f 9bbe 8fb4 56be
00000040: c07d 1a3c b7db 56bd 6675 6c3e 90c5 0abe
00000050: 404a 97bd 2dcc 1cbe 98da 4abe 6f8e ea3d
00000060: 6de9 ec3c b0a5 39be d9ef a3bd 4920 6bbe
00000070: 3887 28be a674 89bc b3b4 5e3d cbad 08be
00000080: d7f9 5abe 33c1 42be 787f 43be bbec 8b3d
00000090: b580 31bd 984a cbbd 9460 1ebe 8605 4e3e
000000a0: 9057 de3c 59a3 aabd 846a 513e 1c92 1e3e
000000b0: 9bf3 ac3d dd9c 9c3e d398 98bd 088e c5bc
000000c0: b610 553e 0535 7abd 43d2 26bc 25e1 843e
000000d0: e41b e4bd 43b5 9abd 8e27 473e f039 a63b
000000e0: 2e9b c8bb c615 d6bd d2a8 09be b8f4 2cbe
000000f0: 0e00 84be 5f2b 0abd 168e 03bd 777a 1fbb
00000100: c08e 6dbe 8de7 263d 1605 ed3d 80e0 24be
00000110: ebfb c3bd 8134 82bd c7a1 2fbe 98e6 363d
00000120: db8d 033e fe31 60be 0a3f 3a3e ffbd 23be
00000130: 75bc d6bc 6a31 2dbe e0c4 58be 42a5 443e
00000140: 5f24 0b3d ca9c 7c3e 73f9 683e b31d 02be
00000150: 145c 16bd 6cf8 393d 504a c5bd d6f2 fe3b
00000160: 04a0 123e b113 58be 6f8d 983b 7ffb 78bd
00000170: b9d5 2cbe 20d0 8b3e 03e5 5b3e b692 86be
00000180: 90fb 3f3d c0e1 70bd 739d 3b3e db43 edbd
00000190: 5da1 1dbe 570c 75be 5376 5b3e b03e cbbd
000001a0: 159e e53d 9a4d 563e c343 30be 0f12 0d3e
000001b0: 15fc 663c 6a6b fc3d f739 09be cca2 0abe
000001c0: d159 51bc 2b16 1e3d 1e64 a5bd d578 0abe
000001d0: 14f8 2abe 8ddc 66be d166 c1bd 22e9 573e
000001e0: 5c14 5dbe f628 0c3e 0521 3ebe 2f93 e1bd
000001f0: 2023 153e d810 8f3e f899 f13d 4b07 33be
00000200: 53bd 833e 52df 9f3e 6ccf 453e 78a2 f3bd
00000210: 500d 70be 476c c03d e804 443e 55f7 063e
00000220: d82d 0d3e 9591 55be 7b64 1d3e 44c7 503e
00000230: 7f2e 69be 62a3 73bd b28e c63c d4bc 12be
00000240: 9c53 eebd 24d0 22bd ad86 1fbe afd0 68be
00000250: 6db1 d83d 4840 8abe fed4 793d a34c c33d
00000260: fdab 413e 7897 223e 36c1 26be 36c5 1e3e
00000270: 96fc 3a3e 2640 4cbd 8f9d 7bbd fb19 b13d
00000280: 3d3f b6bd 80ee 103e 8d41 253e 6981 893e
00000290: 5576 9ebd 37ea 403c 0856 cebd 2ad4 c5bd
000002a0: 2639 9bbe 26b3 fdbc 0aa6 52be bdb8 4b3c
000002b0: a889 2a3e 8f60 d73d b136 3fbd 36ea 6a3d
000002c0: f030 1c3e 977a 013e f123 a4bc 57a9 df3c
000002d0: bff8 97be f141 20be e1eb ac3d ced4 55be
000002e0: 164a 353e 4212 90bd 63ba 7d3e 8987 51be
000002f0: f90a 9ebd d485 fe3d 10e8 84be 73dd 67be
00000300: dbed 033e f4c3 833e 1b8f c6bd 4b1d 623d
00000310: fcfb a5be dc91 20be 6e0e f3bd 3369 ccbd
00000320: 1d5f b63d d692 9fbd e816 883c 7e03 91be
00000330: 9787 91bd 32f9 843e e9f3 923d c06d dc3d
00000340: a8f1 9f3c 6de9 ef3d 6176 b43b 4140 1b3e
00000350: a483 27be e9a2 59bc 80d8 333d 7ecc e53d
00000360: f0a6 283d ab7c 953c 7b53 fcbd 9e88 c4bd
00000370: ea92 7abe 01e2 973d fc9b 17be d8c3 f3bc
00000380: af0e 163e 7aeb ec3d ce8f ccbd 4c53 403e
00000390: de9a 2dbe 3fd2 2a3e a0be 2b3e bc70 1f3e
000003a0: 9c3f 023e 5948 54be 9799 353e 5330 8d3e
000003b0: 0512 033d e359 c6bd 3f0f 273d 4aea 26be
000003c0: 164f 283e 6f63 2f3d 83f0 1c3e b5a4 373c
000003d0: d0a7 ef3c c399 4ebe 003b 55be bba3 36be
000003e0: 6ad8 e13b b0aa 30bd c2b7 2d3e 6e17 70bd
000003f0: 7668 5ebd 33d5 8a3e 0465 bdbd e8d8 9abd

weight_hh_l1 f4 [64, 16]
-0.05851298 0.19712952 -0.24603394 0.12463524 -0.15204902 0.23323826 -0.31193644 -0.14270833
-0.15244435 0.26984745 0.11121405 -0.09836228 0.21674523 -0.10145793 0.31660977 -0.18920481
-0.067285866 -0.17234683 0.18671162 0.0012168376 -0.2279297 0.021747703 -0.0015887878 0.024888203
0.1753491 0.2019402 -0.09820068 -0.15847822 -0.05946874 -0.2608064 0.052563302 -0.0014016482
0.19493967 -0.054165605 -0.25550655 0.14320146 -0.24013887 -0.053620625 0.034084912 -0.103821345
0.21042745 -0.15742406 -0.06571079 -0.09890452 0.23880634 0.02528933 0.115111805 -0.12956096
-0.030719077 0.15103485 0.043495778 0.08404001 -0.09902254 -0.08905185 -0.07015589 -0.26563698
-0.15844986 -0.2712694 -0.09073036 -0.1315345 -0.14442891 0.023428297 -0.19864899 0.041045282
-0.006310271 -0.12767856 0.18435894 0.020436123 -0.023099497 0.13887541 -0.12198759 0.19339392
-0.049428314 -0.067520574 -0.0836558 -0.053045098 0.18324524 0.22109069 0.09420512 -0.16309263
0.13982902 -0.0034264089 -0.11484184 -0.07345342 -0.21488962 0.28666207 -0.20549609 0.04163151
-0.049144212 -0.09540472 0.01649225 -0.141932 0.16744196 0.07443588 0.23535085 -0.010707682
-0.24666266 0.16407402 0.2581019 0.06174128 -0.012466513 0.030504666 -0.24109326 -0.052823864
0.18612953 -0.12896124 -0.18531641 -0.11460383 -0.09840096 -0.036995806 -0.05524249 0.17353252
0.024825698 -0.12737143 -0.10427647 -0.1265337 -0.25919378 0.25431916 -0.28479818 -0.036385678
0.12697662 0.0031179246 -0.03457447 -0.10807501 -0.10583741 3.1870994e-05 0.29501238 0.2344722
-0.20903304 -0.03011287 0.13831164 0.14650188 0.13818815 -0.12038411 0.035368614 -0.27406162
0.27394745 -0.302159 -0.15688987 -0.17044576 0.08914292 -0.011615207 0.069264665 0.29287684
0.1880251 0.18795642 -0.23581257 0.20657249 0.06523345 0.1610775 0.17219986 0.023736656
-0.006074845 -0.1567704 0.23963189 0.1697251 -0.228732 -0.25314203 0.19898182 -0.13921064
0.07958689 0.22673608 -0.12015167 0.14358369 -0.024614166 -0.09817957 0.23701571 -0.31667677
-0.08686048 -0.11374488 0.12678637 0.011280718 0.08058639 0.20999587 0.15577583 0.0017207263
0.14466327 0.03894105 0.071434386 0.18800539 0.1557508 0.229814 0.029002292 0.16544281
-0.021996295 -0.1058079 -0.08249796 0.10329333 0.19997367 -0.041468028 0.1416219 -0.075004354
0.29627958 -0.062695496 0.13436851 0.2900945 0.098013006 -0.12188266 -0.11572622 0.019520422
0.17084943 0.08936739 -0.12563996 -0.16575499 0.20876773 -0.1718629 0.04031383 -0.23047392
0.16457355 0.23370007 -0.12761162 0.06854516 -0.07588909 -0.09697372 -0.16584279 0.10838348
-0.18663613 -0.26143745 -0.17703547 0.003375849 0.009964237 0.20739631 0.09620206 -0.08621612
-0.025314167 -0.07208829 0.32040372 0.01931076 -0.1414572 -0.108872935 -0.007067723 -0.20491049
0.17269035 -0.03742878 -0.09939823 0.08717475 0.036349583 -0.14814986 0.15337162 0.12676527
-0.0009558871 0.13648702 0.1660153 0.014852853 0.15625231 0.16448338 -0.08219302 -0.20180765
-0.094357915 0.22672772 -0.03341658 0.14732938 -0.11608579 -0.123669125 0.2307291 -0.18935573
00000000: 4eab 6fbd 52dc 493e 52f0 7bbe c340 ff3d
00000010: bdb2 1bbe 03d6 6e3e 22b6 9fbe 2222 12be
00000020: 5f1a 1cbe 7229 8a3e 31c4 e33d 2a72 c9bd
00000030: 76f2 5d3e 2dc9 cfbd ad1a a23e e8be 41be
00000040: 2ccd 89bd b07b 30be 5531 3f3e 4b7e 9f3a
00000050: 6766 69be 3d28 b23c df3e d0ba 58e2 cb3c
00000060: b78e 333e 69c9 4e3e 701d c9bd 1d48 22be
00000070: 7e95 73bd 6b88 85be 9e4c 573d 82b7 b7ba
00000080: 449e 473e c1dc 5dbd c1d1 82be 67a3 123e
00000090: f7e6 75be 4da1 5bbd 9f9c 0b3d 49a0 d4bd
000000a0: 4b7a 573e c633 21be 6193 86bd 748e cabd
000000b0: a689 743e 922b cf3c bdbf eb3d a1ab 04be
000000c0: 93a6 fbbc e1a8 1a3e a128 323d 2b1d ac3d
000000d0: 54cc cabd d160 b6bd e4ad 8fbd 9201 88be
000000e0: ae40 22be d3e3 8abe d7d0 b9bd fbb0 06be
000000f0: 2ce5 13be b3ec bf3c a46a 4bbe 191f 283d
00000100: 64c6 cebb 2bbe 02be 97c8 3c3e a869 a73c
00000110: 283b bdbc 5b35 0e3e a1d4 f9bd 0e09 463e
00000120: 5875 4abd 3a48 8abd bb53 abbd d145 59bd
00000130: a4a4 3b3e 9965 623e 9dee c03d c101 27be
00000140: 572f 0f3e 9a8d 60bb 3332 ebbd bf6e 96bd
00000150: 060c 5cbe 5fc5 923e 916d 52be cd85 2a3d
00000160: 714b 49bd 8d63 c3bd c11a 873c 9f56 11be
00000170: e875 2b3e d771 983d d0ff 703e 466f 2fbc
00000180: 2395 7cbe 0503 283e ef25 843e 6de4 7c3d
00000190: 5840 4cbc ece4 f93c 27e1 76be d65d 58bd
000001a0: bd98 3e3e 6a0e 04be 96c3 3dbe 6ab5 eabd
000001b0: 7186 c9bd ea88 17bd f345 62bd 82b2 313e
000001c0: 435f cb3c a86d 02be e78e d5bd 0d92 01be
000001d0: 0cb5 84be 1f36 823e 11d1 91be 2609 15bd
000001e0: 2906 023e 1856 4c3b f69d 0dbd 6e56 ddbd
000001f0: 49c1 d8bd 38ad 0538 dd0b 973e 7b19 703e
00000200: c20c 56be 44af f6bc 91a1 0d3e 9704 163e
00000210: 3281 0d3e f28b f6bd aede 103d ce51 8cbe
00000220: d742 8c3e 96b4 9abe bda7 20be 5589 2ebe
00000230: 9090 b63d b64d 3ebc a2da 8d3d f4f3 953e
00000240: a789 403e a677 403e da78 71be bd87 533e
00000250: 1d99 853d 80f1 243e 2955 303e 6073 c23c
00000260: 7e0f c7bb 6b88 20be 1062 753e 6bcc 2d3e
00000270: b938 6abe d59b 81be e4c1 4b3e 3c8d 0ebe
00000280: 74fe a23d 812d 683e 1412 f6bd 9a07 133e
00000290: a6a3 c9bc 5f12 c9bd 3fb4 723e 7523 a2be
000002a0: e8e3 b1bd 13f3 e8bd 49d4 013e c3d2 383c
000002b0: 7a0a a53d 2809 573e b383 1f3e fe89 e13a
000002c0: 9c22 143e a780 1f3d 314c 923d 7c84 403e
000002d0: 237d 1f3e 5c54 6b3e 3796 ed3c d769 293e
000002e0: 9331 b4bc d0b1 d8bd b1f4 a8bd 748b d33d
000002f0: e6c5 4c3e 61da 29bd 5505 113e e29b 99bd
00000300: f5b1 973e 7f66 80bd e697 093e 4487 943e
00000310: 0bbb c83d 9e9d f9bd de01 edbd 4be9 9f3c
00000320: 27f3 2e3e 4006 b73d c3a7 00be adbb 29be
00000330: 35c7 553e d4fc 2fbe 1d20 253d 5b01 6cbe
00000340: f885 283e 124f 6f3e 9fac 02be 6861 8c3d
00000350: bd6b 9bbd 289a c6bd b1d2 29be 28f8 dd3d
00000360: 8b1d 3fbe 21db 85be c948 35be 593d 5d3b
00000370: 0a41 233c b35f 543e 9605 c53d 1492 b0bd
00000380: a85f cfbc 06a3 93bd f50b a43e 9931 9e3c
00000390: 28da 10be c6f8 debd 5c98 e7bb 0ed4 51be
000003a0: bdd5 303e ec4e 19bd 4d91 cbbd ad88 b23d
000003b0: 4de3 143d 99b4 17be 730d 1d3e c1ce 013e
000003c0: 7f94 7aba 41c3 0b3e eaff 293e 6159 733c
000003d0: 9b00 203e 556e 283e d054 a8bd aaa6 4ebe
000003e0: b93e c1bd 502b 683e d3df 08bd 83dd 163e
000003f0: 63be edbd 3d46 fdbd 4044 6c3e 78e6 41be

bias_ih_l1 f4 [64]
0.19598186 0.008769759 -0.12917449 0.013171622 0.096495144 0.28493237 -0.2074025 -0.104445495
-0.032146662 -0.007860741 0.074768916 0.17458658 0.23279054 -0.045924798 -0.07430838 0.17432122
0.22299476 0.04878015 0.19191632 -0.21136943 -0.09718743 0.08170854 -0.07306513 0.124908485
0.02115606 0.08577539 -0.034982547 0.13349883 -0.008389567 -0.20261982 -0.07913126 0.2656225
-0.04389938 0.22584604 -0.08192154 0.06295088 -0.21413314 -0.057110995 -0.15917157 -0.17886241
0.084467754 0.16225691 0.16123031 -0.14461966 0.054358248 -0.14198075 0.025340559 0.13984895
-0.050863843 0.19918054 0.16017069 -0.19817546 -0.14595567 0.15117472 0.11477327 0.3363405
0.10253324 -0.0989882 0.189155 0.25625893 -0.014129523 -0.029970612 -0.053869378 0.29126328
00000000: 78af 483e 09af 0f3c 5146 04be c9cd 573c
00000010: 3f9f c53d a8e2 913e 5261 54be 85e7 d5bd
00000020: 38ac 03bd 56ca 00bc 7220 993d d3c6 323e
00000030: a560 6e3e a41b 3cbd fe2e 98bd 4381 323e
00000040: bd58 643e b2cd 473d b685 443e 3a71 58be
00000050: 340a c7bd cf56 a73d 2ca3 95bd 05d0 ff3d
00000060: 794f ad3c 02ab af3d dc49 0fbd ebb3 083e
00000070: 6574 09bc 927b 4fbe 920f a2bd acff 873e
00000080: d6cf 33bd 2f44 673e 7bc6 a7bd 64ec 803d
00000090: b845 5bbe 38ed 69bd dffd 22be b527 37be
000000a0: 6efd ac3d ad26 263e 8f19 253e 2d17 14be
000000b0: c1a6 5e3d 6763 11be 0197 cf3c 9034 0f3e
000000c0: 9b56 50bd fcf5 4b3e c903 243e 82ee 4abe
000000d0: 6775 15be 8ccd 1a3e 400e eb3d d234 ac3e
000000e0: f3fc d13d 53ba cabd d9b1 413e 5f34 833e
000000f0: 847f 67bc ee84 f5bc 23a6 5cbd 7620 953e

bias_hh_l1 f4 [64]
0.18361351 0.2800863 -0.023807252 0.2355097 0.031175949 -0.063472725 -0.115179144 -0.030331284
-0.21790962 0.26854956 -0.08009216 0.197966 0.118703 -0.21465592 -0.07434453 0.14267616
-0.15918691 0.23061211 0.0065763057 0.15055531 0.18764752 -0.18745257 0.033225432 0.02533877
0.14597365 0.29386058 0.19103713 -0.022391513 -0.01625718 0.15043777 -0.21493961 0.1305272
0.033686318 -0.10675146 -0.049339544 0.028158184 -0.043647826 0.12595446 -0.15998639 0.11524819
-0.053370297 -0.13181283 0.0136768315 0.14312808 0.06284134 -0.09757673 0.18896964 -0.17300409
0.10951746 -0.10116605 0.055658095 -0.102769926 -0.046409484 0.14985901 -0.06636948 0.114903264
0.22525477 0.23706724 0.22233118 0.048893526 0.1343195 0.13746247 -0.03741425 -0.009571296
00000000: 2e05 3c3e 7967 8f3e 6d07 c3bc 7429 713e
00000010: b464 ff3c fdfd 81bd 0be3 ebbd 5079 f8bc
00000020: b323 5fbe 547f 893e 5c07 a4bd 99b7 4a3e
00000030: 8f1a f33d c3ce 5bbe f241 98bd b319 123e
00000040: e501 23be 9525 6c3e 0d7e d73b 2c2b 1a3e
00000050: ac26 403e 91f3 3fbe 6417 083d 4193 cf3c
00000060: 1e7a 153e e574 963e 3d9f 433e 686e b7bc
00000070: c72d 85bc 5c0c 1a3e 2119 5cbe eca8 053e
00000080: aafa 093d 82a0 dabd 4318 4abd feab e63c
00000090: 10c8 32bd 35fa 003e 79d3 23be 3e07 ec3d
000000a0: d09a 5abd f1f9 06be ca14 603c 2b90 123e
000000b0: f6b2 803d 4fd6 c7bd 4281 413e fc27 31be
000000c0: b14a e03d 2530 cfbd bef9 633d 0a79 d2bd
000000d0: df17 3ebd a474 193e b9ec 87bd 6752 eb3d
000000e0: 30a9 663e c1c1 723e c9aa 633e 9444 483d
000000f0: 0d8b 093e f6c2 0c3e af3f 19bd edd0 1cbc

weight_ih_l0 f4 [64, 13]
0.18149348 -0.07354753 0.0072896695 0.040298276 0.18714543 -0.07968806 -0.020422362 0.14221068
0.10714364 -0.24513958 0.1035229 -0.056576367 0.09446594 0.22749512 -0.05340716 0.03607801
0.15876418 0.05882192 0.09632013 0.26659665 0.1124086 0.030023465 0.15743357 0.28393555
-0.15421808 0.16642317 0.20256273 0.03170193 -0.11812999 0.006696096 -0.0011988734 -0.050510287
-0.13276793 -0.021288807 -0.18022929 -0.0846653 -0.07968118 -0.10553605 0.14761452 -0.041093003
-0.10691137 -0.004010772 0.08524897 0.08791244 0.071454205 -0.19981983 -0.0015310661 0.10463712
0.1301166 -0.042301983 -0.117906965 0.17287125 -0.068684235 0.11078502 0.09442054 0.23617312
0.008800741 0.03981462 -0.26524913 -0.21346986 0.21909732 0.25080058 0.089642495 0.0021644435
0.17502066 0.047575157 -0.095129184 0.17133878 0.19694412 -0.12561187 0.2446363 -0.15250435
0.057250753 0.22617176 -0.079884104 -0.13215862 -0.1684341 0.1207436 -0.20310038 0.07224284
0.23762 -0.08005964 -0.15662299 0.10079857 -0.08336289 -0.25284827 0.16375493 0.06295924
0.17969963 0.19123363 0.13391353 -0.2169123 -0.047051016 0.17215647 -0.047814332 0.12918195
0.15450598 0.06708021 -0.02866888 0.09321518 -0.08898097 -0.23233914 0.11417823 0.09615443
0.041889753 -0.20273173 0.04528612 -0.12010309 0.17167974 -0.1534625 -0.24424286 -0.028979246
-0.21931468 0.08488278 0.2051632 0.015732707 -0.074973345 -0.2242283 0.1860377 -0.13345054
-0.021757195 0.1610205 -0.054456104 -0.23095058 0.09447856 0.060529813 -0.166108 -0.17123283
0.15881434 0.17333229 -0.24799815 0.15788375 0.11810714 -0.050959487 -0.26697016 -0.24578251
0.10194171 -0.10907331 -0.21120812 -0.2624856 0.08563046 0.13105161 -0.26933858 -0.041964736
0.06460711 -0.01898644 0.22231698 0.14312904 -0.07841405 -0.01668921 -0.06551155 -0.010430317
0.0558743 0.019017054 0.2018108 -0.14708172 -0.1250764 -0.21002685 -0.18837294 -0.03031448
0.20513532 -0.21012826 0.21424009 -0.05724348 0.052461796 0.17419527 0.006207196 -0.23320076
0.07014531 -0.1173853 -0.06379928 -0.07301781 -0.21035808 0.02756674 -0.032640133 -0.21188065
-0.012465568 -0.036231227 0.15892176 -0.07406262 -0.009858981 -0.055007752 -0.124163 0.22060509
-0.089586146 0.04555512 0.19089784 0.075065054 -0.007806212 0.07538053 0.11073067 -0.048033524
0.12523149 -0.014210727 0.02873249 -0.011065961 -0.21000661 -0.04369571 0.1175475 0.00020505989
0.052379835 0.14195098 0.08414409 0.25135112 0.04098787 -0.10190507 -0.053108286 0.17019548
0.18890965 -0.09479767 0.113637805 0.1643245 -0.071841106 -0.028492328 -0.061836835 -0.07164798
-0.03551399 -0.18068112 -0.25477347 0.19845052 -0.0639122 0.24399403 -0.044485956 -0.03395153
0.24460194 -0.04082893 0.16640678 0.13585554 0.004868151 0.26809245 0.0822451 -0.05290631
0.19144365 -0.06664288 0.18117563 -0.1709311 -0.1537809 -0.06104442 -0.098588064 -0.105999105
0.07208178 0.022403294 -0.29592353 -0.05403296 0.0056685135 -0.16055451 -0.28910607 -0.14624469
0.031856515 -0.16580512 -0.01951525 -0.24025472 0.12279516 -0.18456717 -0.044711035 0.20292126
00000000: 6dd9 393e 16a0 96bd 2ede ee3b ce0f 253d
00000010: 0da3 3f3e 7e33 a3bd cc4c a7bc ad9f 113e
00000020: 206e db3d df05 7bbe d003 d43d 9fbc 67bd
00000030: 5c77 c13d 7bf4 683e 77c1 5abd 89c6 133d
00000040: 1493 223e 41ef 703d 7d43 c53d 5b7f 883e
00000050: 7b36 e63d c5f3 f53c 4436 213e 0060 913e
00000060: 58eb 1dbe d66a 2a3e 9b6c 4f3e e2d9 013d
00000070: 23ee f1bd ed6a db3b 8423 9dba e0e3 4ebd
00000080: 51f4 07be dd65 aebc 078e 38be 0065 adbd
00000090: e32f a3bd 4923 d8bd 4328 173e 2351 28bd
000000a0: 59f4 dabd cb6c 83bb 0397 ae3d 700b b43d
000000b0: 9556 923d 929d 4cbe 0eae c8ba fd4b d63d
000000c0: 493d 053e d844 2dbd 3579 f1bd 2905 313e
000000d0: 52aa 8cbd 42e3 e23d 8e5f c13d 5ed7 713e
000000e0: fc30 103c a814 233d bcce 87be d897 5abe
000000f0: 0c5b 603e ef68 803e 7c96 b73d 56d9 0d3b
00000100: 9e38 333e 2bde 423d 17d3 c2bd 6f73 2f3e
00000110: b8ab 493e 66a0 00be f081 7a3e 1a2a 1cbe
00000120: c47f 6a3d 9299 673e 479a a3bd 9754 07be
00000130: fd79 2cbe 6c48 f73d 8cf9 4fbe 0ef4 933d
00000140: a852 733e 4ff6 a3bd c761 20be 7b6f ce3d
00000150: 2aba aabd 5475 81be 5faf 273e c6f0 803d
00000160: 2e03 383e c0d2 433e a120 093e 421e 5ebe
00000170: 91b8 40bd c949 303e f6d8 43bd 4648 043e
00000180: d136 1e3e 5961 893d 00db eabc 9ae7 be3d
00000190: a83b b6bd 50ea 6dbe 47d6 e93d 9dec c43d
000001a0: 9794 2b3d e898 4fbe f07d 393d 9cf8 f5bd
000001b0: d0cc 2f3e 4625 1dbe cd1a 7abe e265 edbc
000001c0: 0794 60be 06d7 ad3d 4d16 523e e1e1 803c
000001d0: a08b 99bd 1a9c 65be ab80 3e3e 42a7 08be
000001e0: 253c b2bc 8fe2 243e 5d0d 5fbd 4f7e 6cbe
000001f0: fa7d c13d 1cee 773d 3718 2abe a957 2fbe
00000200: 3aa0 223e 057e 313e 3af3 7dbe 47ac 213e
00000210: 28e2 f13d e5ba 50bd 50b0 88be 69ae 7bbe
00000220: d1c6 d03d d461 dfbd f146 58be 8364 86be
00000230: 065f af3d 6532 063e bfe6 89be 37e3 2bbd
00000240: bc50 843d 7389 9bbc 10a7 633e 6b90 123e
00000250: 8c97 a0bd cfb7 88bc eb2a 86bd ece3 2abc
00000260: 73dc 643d a7c9 9b3c 7ea7 4e3e 979c 16be
00000270: 0714 00be 4711 57be d6e4 40be 1356 f8bc
00000280: fe0e 523e dd2b 57be c161 5b3e 2478 6abd
00000290: 2ee2 563d 3f60 323e bc65 cb3b 2ecc 6ebe
000002a0: 58a8 8f3d b467 f0bd 32a9 82bd 5d8a 95bd
000002b0: 1c68 57be a5d3 e13c a9b1 05bd 3ef7 58be
000002c0: 623c 4cbc 3267 14bd 63bc 223e 25ae 97bd
000002d0: 9087 21bc cf4f 61bd 2c49 febd 4de6 613e
000002e0: f178 b7bd 0198 3a3d b97a 433e b5bb 993d
000002f0: 41cb ffbb 1b61 9a3d c3c6 e23d cdbe 44bd
00000300: af3c 003e 1cd4 68bc 6660 eb3c 014e 35bc
00000310: f90b 57be 46fa 32bd bebc f03d 5805 5739
00000320: 3d8c 563d 995b 113e bd53 ac3d 18b1 803e
00000330: e6e2 273d 9bb3 d0bd 1388 59bd b947 2e3e
00000340: 8871 413e 4825 c2bd f0ba e83d af44 283e
00000350: 6e21 93bd be68 e9bc 9f48 7dbd 2dbc 92bd
00000360: 1e77 11bd 7904 39be ab71 82be 9d36 4b3e
00000370: 66e4 82bd 92d9 793e e836 36bd c210 0bbd
00000380: ee78 7a3e 3c3c 27bd 8a66 2a3e b71d 0b3e
00000390: 0385 9f3b 6a43 893e 1e70 a83d 49b4 58bd
000003a0: ce09 443e 107c 88bd 1b86 393e 9008 2fbe
000003b0: be78 1dbe b709 7abd 8ae8 c9bd 0f16 d9bd
000003c0: 9d9f 933d 1d87 b73c 4a83 97be aa51 5dbd
000003d0: f0be b93b 6768 24be b605 94be 2bc1 15be
000003e0: fa7b 023d d1c8 29be 72de 9fbc 5505 76be
000003f0: 077c fb3d 2dff 3cbe eb22 37bd 97ca 4f3e

weight_hh_l0 f4 [64, 16]
-0.06039202 -0.1423995 0.10299672 0.21924086 0.19936213 -0.19555101 -0.11127314 0.024709994
-0.092468105 -0.004043727 -0.103024915 0.07643375 0.19021103 0.03768226 -0.03135923 0.18364275
0.04314697 -0.010396928 -0.016714726 0.14707829 0.2568435 -0.16821201 0.15346806 -0.09234985
-0.01456393 0.17217408 0.15801816 -0.16185747 -0.04018539 0.07896628 -0.07651694 0.22314532
0.06843549 -0.069698066 -0.024056157 -0.08577843 0.000111799905 -0.17138965 0.27067548 -0.2559994
0.16677554 0.03233086 -0.13829273 -0.107359886 -0.10354204 0.24736567 -0.0942894 -0.15940347
-0.077586755 -0.22780074 -0.020069042 0.091892906 0.01172404 -0.12069863 -0.13311493 -0.013523416
-0.010297621 -0.2171282 0.066656016 -0.16292597 -0.11300057 0.23436098 0.20917861 0.09856892
0.106968984 -0.2989699 0.039478518 -0.16138628 0.14849652 0.1380936 0.19476648 -0.07580479
-0.07938061 -0.03675162 0.2334437 -0.23461843 -0.18690304 -0.07761159 0.1572229 -0.20155382
-0.15530153 -0.11553169 -0.03861066 -0.14860548 -0.2036007 0.20599738 0.060427822 0.16132465
0.026858227 -0.016244398 -0.012018931 -0.055888906 -0.27788863 0.21933675 -0.15882444 0.061865833
0.16039322 -0.24960876 -0.23701105 0.16389023 0.038920358 0.022822266 -0.025786478 -0.0341491
-0.2212188 -0.14301236 -0.18538281 0.24984156 -0.073782004 0.16930701 -0.047795378 -0.18294805
-0.24673846 0.07798668 0.18353146 -0.29507703 -0.09409472 0.17125574 -0.02598956 -0.16127801
-0.22278178 -0.072203696 0.05529322 -0.0536035 0.27192315 0.10127047 0.05827016 0.10798335
-0.1788588 0.13274837 -0.052520275 -0.095031485 0.19259377 0.24884528 -0.045813125 -0.08909849
-0.19375584 0.23417206 0.06063773 0.087493435 -0.11221373 -0.11783093 -0.06304326 0.15232912
0.01553688 -0.1397032 -0.15595044 -0.078945145 0.21765485 0.15355304 0.15300265 -0.10785791
0.028183525 -0.15948486 0.18274239 -0.06704065 -0.1818807 -0.15044619 0.095502906 -0.014974396
0.13026145 0.041602813 -0.08931083 -0.11716025 0.0055215573 -0.0506572 -0.18170156 0.19162285
-0.2261355 -0.2652948 0.101083204 0.059644744 0.090193175 0.028843379 0.047738504 -0.14517638
-0.044702902 -0.15089293 -0.074171804 0.030731454 -0.15201148 -0.048942264 -0.017749341 0.1465746
0.098492384 -0.100294486 -0.07529586 0.2243338 -0.13362749 0.05381844 -0.123991445 -0.16651797
-0.1555446 -0.10170974 -0.16632998 0.03989655 0.10889303 -0.11188679 -0.13819093 -0.10592534
0.20218766 -0.1511999 -0.09826529 0.09167294 0.15451916 -0.13809536 0.086498484 -0.057598937
0.0022001886 -0.028118351 -0.21850787 -0.1317088 0.24632794 0.14300998 -0.08045189 -0.10953267
0.13996251 -0.16976786 0.19147785 0.011163338 0.041711126 -0.09497976 0.059739437 -0.16240984
0.19837163 -0.15197548 -0.008206537 0.05129182 0.20131174 0.111908406 -0.115386 0.084546596
-0.051334113 0.20129795 -0.14277588 0.15809228 0.09357947 0.096352205 0.03048402 0.22224617
-0.24968661 0.20571546 0.15461971 -0.11209653 0.16294228 0.18770169 0.074565925 -0.09569035
0.04192709 0.1688592 0.15669414 -0.11859633 -0.17385265 0.16701664 -0.1704189 -0.0930289
00000000: 9f5d 77bd 2dd1 11be f2ef d23d ad80 603e
00000010: 9625 4c3e 863e 48be 2ce3 e3bd 9d6c ca3c
00000020: eb5f bdbd 3e81 84bb bafe d2bd 4c89 9c3d
00000030: aec6 423e b758 1a3d 8972 00bd d80c 3c3e
00000040: e1ba 303d e057 2abc 52ed 88bc b19b 163e
00000050: fe80 833e c53f 2cbe bb26 1d3e eb21 bdbd
00000060: 8d9d 6ebc 674e 303e 83cf 213e f7bd 25be
00000070: 6f99 24bd 13b9 a13d eab4 9cbd 3580 643e
00000080: e827 8c3d dcbd 8ebd 6b11 c5bc 9aac afbd
00000090: 1e76 ea38 c580 2fbe fa95 8a3e 5a12 83be
000000a0: 35c7 2a3e 5d6d 043d 9c9c 0dbe 80df dbbd
000000b0: d90d d4bd 6d4d 7d3e cd1a c1bd aa3a 23be
000000c0: cee5 9ebd 9944 69be d567 a4bc 5932 bc3d
000000d0: 3016 403c d830 f7bd 484f 08be 5191 5dbc
000000e0: 5ab7 28bc db56 5ebe f382 883d 11d6 26be
000000f0: d86c e7bd 53fc 6f3e eb32 563e 80de c93d
00000100: 8e12 db3d 9512 99be 3ab4 213d 7242 25be
00000110: 790f 183e 6968 0d3e dd70 473e 8b3f 9bbd
00000120: 4d92 a2bd de88 16bd de0b 6f3e d03f 70be
00000130: 8363 3fbe d3f2 9ebd 0aff 203e 2064 4ebe
00000140: 5d07 1fbe e19b ecbd 3626 1ebd 092c 18be
00000150: b47c 50be faf0 523e 2a83 773d 4a32 253e
00000160: c905 dc3c f912 85bc 0deb 44bc c4eb 64bd
00000170: 6b47 8ebe d099 603e e0a2 22be 0767 7d3d
00000180: 1f3e 243e 7099 7fbe 06b3 72be d7d2 273e
00000190: f46a 1f3d c3f5 ba3c 2a3e d3bc eddf 0bbd
000001a0: 2e87 62be d571 12be fed4 3dbe 77d6 7f3e
000001b0: 051b 97bd d15e 2d3e 16c5 43bd bc56 3bbe
000001c0: 02a9 7cbe 7bb7 9f3d acef 3b3e 5614 97be
000001d0: bcb4 c0bd aa5d 2f3e 0fe8 d4bc 1026 25be
000001e0: e820 64be 88df 93bd 257b 623d 588f 5bbd
000001f0: 8339 8b3e e466 cf3d b1ac 6e3d 6026 dd3d
00000200: c326 37be 30ef 073e 801f 57bd de9f c2bd
00000210: 4d37 453e 4cd1 7e3e 8ba6 3bbd 4579 b6bd
00000220: ee67 46be cdca 6f3e 455f 783d c22f b33d
00000230: 50d0 e5bd 5851 f1bd d31c 81bd 2afc 1b3e
00000240: 668e 7e3c 5b0e 0fbe 79b1 1fbe fead a1bd
00000250: eae0 5e3e 023d 1d3e baac 1c3e 9ce4 dcbd
00000260: 23e1 e63c 0050 23be d220 3b3e 9c4c 89bd
00000270: ef3e 3abe 910e 1abe 0797 c33d 2b57 75bc
00000280: 4263 053e b667 2a3d 99e8 b6bd b7f1 efbd
00000290: 2eee b43b ed7d 4fbd f90f 3abe c838 443e
000002a0: 1190 67be b8d4 87be b604 cf3d 0c4e 743d
000002b0: 33b7 b83d f348 ec3c 7389 433d 1ea9 14be
000002c0: 641a 37bd ad83 1abe 63e7 97bd 88c0 fb3c
000002d0: e6a8 1bbe af77 48bd 1167 91bc a717 163e
000002e0: 60b6 c93d 3267 cdbd b734 9abd c2b7 653e
000002f0: a5d5 08be b970 5c3d 3aef fdbd b083 2abe
00000300: 1547 1fbe 324d d0bd 6852 2abe 916a 233d
00000310: 4f03 df3d e724 e5bd ec81 0dbe 62ef d8bd
00000320: 480a 4f3e 26d4 1abe 503f c9bd 06bf bb3d
00000330: 453a 1e3e df68 0dbe 1e26 b13d ddec 6bbd
00000340: 0a31 103b 7558 e6bc 87c0 5fbe acde 06be
00000350: 643d 7c3e 3571 123e f6c3 a4bd aa52 e0bd
00000360: 5552 0f3e a0d7 2dbe c512 443e 6fe6 363c
00000370: 49d9 2a3d c084 c2bd 57b1 743d c44e 26be
00000380: ef21 4b3e 769f 1bbe b674 06bc 5f17 523d
00000390: aa24 4e3e 3c30 e53d 7f4f ecbd c426 ad3d
000003a0: b843 52bd 0d21 4e3e d733 12be f1e2 213e
000003b0: 98a6 bf3d 4e54 c53d a0b9 f93c 8094 633e
000003c0: d9ad 7fbe 13a7 523e a154 1e3e de92 e5bd
000003d0: 57da 263e df34 403e 05b6 983d 4df9 c3bd
000003e0: bebb 2b3d 6de9 2c3e 6e74 203e a2e2 f2bd
000003f0: 6e06 32be 6906 2b3e 4b82 2ebe f085 bebd

bias_ih_l0 f4 [64]
-0.018506236 -0.09119758 -0.20810229 0.23077849 -0.11477134 0.0338547 -0.07996269 0.24481992
-0.04229935 0.09161313 -0.1047195 0.18568078 0.11493616 -0.14114067 -0.051172193 0.1307903
-0.14315218 0.100250095 0.13467258 -0.23897025 0.0065736533 -0.12614213 0.020499181 0.18606089
0.19156867 -0.091425925 0.18159741 0.23080035 -0.1928411 0.0041141794 -0.010811229 -0.21267784
-0.18022507 0.054774094 -0.14014918 -0.18184449 0.122644655 0.15847415 -0.15663737 -0.07479877
-0.077595435 -0.20996043 -0.045500208 0.036958054 0.07829058 0.22708 0.20548342 0.033028662
0.023297014 -0.09303889 -0.006308646 -0.033738248 0.0061390484 0.07312607 0.226662 0.07338184
0.022494152 0.24120666 0.25931835 -0.15739286 0.28519326 0.18986006 -0.15963873 0.081082605
00000000: 649a 97bc ccc5 babd c418 55be 3251 6c3e
00000010: 3c0d ebbd 3aab 0a3d 7bc3 a3bd 13b2 7a3e
00000020: 1542 2dbd aa9f bb3d 2d77 d6bd 1a23 3e3e
00000030: a663 eb3d 2e87 10be ef99 51bd e4ed 053e
00000040: 7c96 12be ec4f cd3d 9ce7 093e 9eb4 74be
00000050: cd67 d73b 672b 01be e6ed a73c bf86 3e3e
00000060: 942a 443e 843d bbbd acf4 393e ed56 6c3e
00000070: 2378 45be 3dd0 863b 9521 31bc 38c8 59be
00000080: ec8c 38be cd5a 603d 4483 0fbe 7135 3abe
00000090: 1f2d fb3d 0c47 223e 8c65 20be 1930 99bd
000000a0: 5bea 9ebd deff 56be 6d5e 3abd 5461 173d
000000b0: d056 a03d a987 683e 3f6a 523e 1049 073d
000000c0: 61d9 be3c 2c8b bebd c2b8 cebb 1e31 0abd
000000d0: 122a c93b 1fc3 953d 151a 683e 3849 963d
000000e0: a845 b83c e1fe 763e 60c5 843e 982b 21be
000000f0: da04 923e ad6a 423e 5678 23be a30e a63d

bias_hh_l0 f4 [64]
-0.2070057 0.18871883 -0.02391477 -0.06640391 -0.07862511 0.087505475 0.01705326 -0.10817767
0.10839787 -0.008715443 -0.08187341 -0.13411734 0.08277756 0.1820822 0.024257379 -0.031879883
-0.13634664 0.25404635 0.22589633 -0.18502599 0.23679686 -0.0680531 0.14960076 0.0013259416
-0.14409599 0.13867556 0.20282713 -0.1668395 -0.091815755 0.19620241 -0.11255989 -0.17980027
0.021427494 -0.21463689 0.08111455 -0.019214755 0.14033401 -0.101451896 0.19492391 -0.19031622
0.046709884 0.18116328 0.075464815 0.15902798 -0.18017644 0.20562355 0.21890847 0.15592293
0.12525895 0.017980928 0.029741528 0.19826028 -0.058390003 -0.11033573 0.21393417 0.27848756
0.137361 0.038900793 0.1502646 -0.0551051 0.07193416 0.030188307 0.017863328 -0.09145478
00000000: 4df9 53be 823f 413e e8e8 c3bc c6fe 87bd
00000010: 3406 a1bd 1236 b33d 47b3 8b3c 418c ddbd
00000020: b4ff dd3d 38cb 0ebc 3fad a7bd 0e56 09be
00000030: 4887 a93d c273 3a3e 69b7 c63c 7b94 02bd
00000040: 749e 0bbe 5d12 823e 5e51 673e 7477 3dbe
00000050: e07a 723e 6c5f 8bbd f130 193e 38cb ad3a
00000060: e68d 13be f700 0e3e eab1 4f3e f9d7 2abe
00000070: e609 bcbd 49e9 483e cd85 e6bd 901d 38be
00000080: b688 af3c c6c9 5bbe 631f a63d 4368 9dbc
00000090: b8b3 0f3e 03c6 cfbd 229a 473e 41e2 42be
000000a0: dd52 3f3d de82 393e 4c8d 9a3d 3bd8 223e
000000b0: 2c80 38be fb8e 523e 8b29 603e 43aa 1f3e
000000c0: e243 003e bd4c 933c 81a4 f33c be04 4b3e
000000d0: 5b2a 6fbd b3f7 e1bd 8f11 5b3e ec95 8e3e
000000e0: 5da8 0c3e 7056 1f3d f7de 193e e3b5 61bd
000000f0: 3852 933d 784d f73c 1d56 923c a54c bbbd
