model.pt (torch, 180068 bytes, 34 tensors)

weight_ih_l0 f4 [64, 112]
-0.009552874 -0.010411426 -0.0028497067 0.00016805508 -0.010719845 -0.010593217 -0.0020484442 0.007696096
-0.016070938 0.015829427 -0.009775878 -0.009235045 -0.0041109435 -0.0007927248 -0.005431049 -0.0071735596
0.0040657544 -0.009974925 0.010698049 -0.015987022 -0.0091280965 -0.0062711984 -0.018052166 -0.006839759
0.0068743797 -0.013025742 0.0052200863 -0.008433537 -0.0062688696 -0.004970533 -0.009223701 0.0077751265
-0.007163696 0.0048601795 -0.011884274 -0.02333163 0.005713217 -0.0026222342 0.0061478647 -0.0025752843
0.005972013 -0.0068792333 0.010009526 -0.0044196155 0.0031564413 -0.014601273 -0.0022061085 0.0032866637
-0.00085018744 -0.011059296 -0.0034171976 -0.007929748 -0.012119633 -0.0094212685 -0.0066314116 -0.011357506
-0.0051863114 -0.020679217 -0.00031974138 -0.010506015 0.0012905281 0.0040246574 0.0016852128 0.00026462247
-0.006265491 0.0012057791 -0.00018980526 -0.0068026595 -0.008520935 0.0003391683 -0.0040190807 0.010363282
-0.024130376 -0.008104423 0.0021195668 1.2590007e-05 -0.0032901596 -0.0026386261 -0.0054070298 -0.0077083055
-0.004406946 -0.0067279143 -0.015641473 0.002436571 -0.0095459875 -0.013698764 0.012241469 -0.018044485
0.00047215578 -0.0008973812 -0.005648579 -0.004798321 -0.013782213 -0.023731852 0.006463895 0.0025434974
0.0082035065 -0.00835668 0.0033488804 -0.015256623 0.0013089254 0.0150365075 -0.00032871094 4.785836e-05
0.0019235229 -0.0077836784 -0.006105404 -0.011651087 -0.008247687 -0.006908714 -0.008577126 0.009436858
0.025588546 -0.002343704 0.0032844723 0.01890512 0.0016686299 0.003064258 0.013741311 0.0020195043
-0.0053278888 0.005296596 0.01605344 0.0018950214 0.008048792 0.012648909 0.012084253 0.010276572
0.004660002 0.0057842582 0.02372704 0.0262119 0.018161569 -0.00044045315 0.008711984 0.009115023
-0.0065703928 -0.003810732 -0.0011189572 0.0093752835 0.025104778 0.011280197 0.007719612 0.0060476605
0.008251718 -0.01670658 -0.006912969 -0.008909799 0.0005455841 0.00048015066 0.006680902 0.006130569
0.010902742 6.5570975e-06 0.002067698 0.006783518 0.0032463255 0.00085368106 -0.003455311 -0.0005074851
0.011074437 0.008049891 0.007896374 0.017390031 0.0111461505 -0.0023236158 -0.0089322245 0.004347003
0.0106422305 0.000790838 0.0033257082 0.00243805 0.008836098 0.0085219005 0.008003072 0.012727986
-0.009053814 0.0035716605 0.0026598861 0.026230814 -0.0021346437 -0.0018853222 -0.0040152553 0.0030702958
0.0021640407 0.0068952763 -0.00035159217 -0.0013742935 0.0041293283 0.004136222 -0.0007289944 0.0053816433
-0.00053020404 0.0010860432 0.00033500293 0.0059357164 0.022109644 0.013962605 0.009881058 0.010851603
0.0057509085 0.005416146 0.009858178 -0.0011578528 0.008059835 0.008210888 0.008857814 0.008658196
0.0056218742 0.0017420802 -0.002821969 -0.0030797548 -0.005269912 0.0012019582 0.004672581 0.004676708
0.0071350206 0.0050980877 0.00054135424 0.0078108325 0.00057398167 -0.004020395 -0.005004931 0.0066356724
-0.008501468 0.009713291 0.0016219261 0.009441135 0.019565921 0.0013433817 0.008839468 0.008309524
0.02778585 0.04056173 -0.004779424 -0.004188922 0.0009862175 -0.003662197 -0.0001277875 -0.017215844
-0.0084939785 -0.015901683 0.01977505 0.00034869424 0.005041481 -0.007499828 -0.014637924 0.0011153563
-0.0035047487 0.0068962118 0.020361071 0.00075317454 -0.002531237 0.0012786236 -0.02635197 0.020437375
00000000: a883 1cbc b094 2abc 25c2 3abb f137 3039
00000010: 4aa2 2fbc 2c8f 2dbc 313f 06bb 882f fc3b
00000020: 33a7 83bc b7ac 813c 012b 20bc 964e 17bc
00000030: 18b5 86bb dcce 4fba f1f6 b1bb 2e10 ebbb
00000040: 053a 853b de6d 23bc df46 2f3c 37f7 82bc
00000050: 038e 15bc a07e cdbb 23e2 93bc 0f20 e0bb
00000060: 7a42 e13b ec69 55bc 420d ab3b d12c 0abc
00000070: 176b cdbb dadf a2bb 021f 17bc 7dc6 fe3b
00000080: 70bd eabb 2442 9f3b 42b6 42bc f921 bfbc
00000090: f035 bb3b cad9 2bbb 0774 c93b 1ac6 28bb
000000a0: e0b0 c33b 316b e1bb fffe 233c 6cd2 90bb
000000b0: 4cdc 4e3b 2e3a 6fbc 5c94 10bb 1165 573b
000000c0: 1ddf 5eba 0d32 35bc 10f3 5fbb c6eb 01bc
000000d0: 6d91 46bc aa5b 1abc 504c d9bb d514 3abc
000000e0: eff1 a9bb 7667 a9bc f6a2 a7b9 6c21 2cbc
000000f0: f026 a93a 46e1 833b 5ce2 dc3a 07bd 8a39
00000100: bf4e cdbb 3c0b 9e3a 7606 47b9 d8e8 debb
00000110: 649b 0bbc 66d2 b139 7eb2 83bb c1ca 293c
00000120: 11ad c5bc 6ac8 04bc 6ee8 0a3b ab39 5337
00000130: b89f 57bb cdec 2cbb 742d b1bb f495 fcbb
00000140: 2468 90bb d675 dcbb 8c22 80bc e1ae 1f3b
00000150: c666 1cbc c870 60bc 7190 483c 07d2 93bc
00000160: ad8b f739 3c3e 6bba b717 b9bb 3c3b 9dbb
00000170: cbce 61bc 4d69 c2bc 15cf d33b ceb0 263b
00000180: 0068 063c 75ea 08bc e478 5b3b eaf6 79bc
00000190: 4090 ab3a af5b 763c d656 acb9 86bb 4838
000001a0: b81e fc3a 3a0e ffbb d70f c8bb 33e4 3ebc
000001b0: 4e21 07bc 7e62 e2bb 1387 0cbc 0d9d 1a3c
000001c0: 129f d13c d498 19bb 4d40 573b e9de 9a3c
000001d0: eeb5 da3a b8d1 483b 3c23 613c a959 043b
000001e0: 9295 aebb 118f ad3b 8182 833c 5e62 f83a
000001f0: 15df 033c 5f3d 4f3c 08fd 453c 115f 283c
00000200: eeb2 983b e089 bd3b 365f c23c 57ba d63c
00000210: 92c7 943c 9fec e6b9 b6bc 0e3c 2d57 153c
00000220: 734c d7bb 79bd 79bb f9a9 92ba ca9a 193c
00000230: 89a8 cd3c 93d0 383c cdf4 fc3b 742b c63b
00000240: 3732 073c 3ddc 88bc 3086 e2bb 68fa 11bc
00000250: 8705 0f3a bbbc fb39 78eb da3b f1e2 c83b
00000260: 6aa1 323c 0a05 dc36 3782 073b 4648 de3b
00000270: 4ec0 543b 91c9 5f3a 8072 62bb c008 05ba
00000280: 8e71 353c b1e3 033c cb5f 013c 8a75 8e3c
00000290: 589e 363c ce47 18bb 7758 12bc 4e71 8e3b
000002a0: c05c 2e3c 3d50 4f3a 20f4 593b b1c7 1f3b
000002b0: 48c5 103c 719f 0b3c 511f 033c 0b89 503c
000002c0: 7356 14bc 8512 6a3b 7c51 2e3b 01e2 d63c
000002d0: 61e5 0bbb ea1c f7ba 6792 83bb 0437 493b
000002e0: 94d2 0d3b c5f1 e13b e755 b8b9 a321 b4ba
000002f0: 514f 873b 2589 873b fc19 3fba 7f58 b03b
00000300: 64fd 0aba 9059 8e3a 55a3 af39 6680 c23b
00000310: 491f b53c 69c3 643c 29e4 213c ecca 313c
00000320: 1e72 bc3b ed79 b13b 3284 213c 18c3 97ba
00000330: 660d 043c f686 063c 5d20 113c 1bdb 0d3c
00000340: b337 b83b 8356 e43a c9f0 38bb b6d5 49bb
00000350: 3aaf acbb 068b 9d3a 731c 993b 123f 993b
00000360: e4cc e93b dc0d a73b abe9 0d3a 03f2 ff3b
00000370: 4277 163a 85bd 83bb 6700 a4bb 0e70 d93b
00000380: be49 0bbc 7f24 1f3c cf96 d43a feae 1a3c
00000390: b648 a03c 6914 b03a 6ad3 103c ab24 083c
000003a0: 279f e33c 0e24 263d b79c 9cbb 3943 89bb
000003b0: f843 813a 7801 70bb b2fe 05b9 3e08 8dbc
000003c0: 542a 0bbc 3f44 82bc 49ff a13c f3d0 b639
000003d0: 0233 a53b 1ec1 f5bb e7d3 6fbc 2631 923a
000003e0: edaf 65bb 9ef9 e13b 43cc a63c b070 453a
000003f0: 1ce3 25bb 7d97 a73a 16e0 d7bc 486c a73c

weight_hh_l0 f4 [64, 16]
0.0020060807 -0.001133914 0.004267064 -0.0017846103 -0.0017597926 0.0028936055 0.00452175 -0.0013867249
0.0013096991 0.0007577696 0.001822915 0.00060138555 -0.0038580229 0.00040238697 0.0009725093 -0.0021360312
0.00028031858 0.0053459196 -0.0041209 0.0069759903 0.003507868 -0.0056851096 -0.0052020308 0.00083370437
-0.0006199862 0.006588824 -0.005664409 -0.0037312054 0.0062618596 -0.003976826 -0.007506944 0.0065017925
0.0029574742 0.0009898581 -0.00035189805 0.002264404 0.0001136567 -0.0026421822 0.0004055804 -0.0028297617
0.0015539819 0.005439248 -0.0045363987 -0.0020495395 0.0022460935 -0.0069916593 -0.0018212572 0.00040075032
0.0006934376 0.0052344864 0.0010994816 0.004610279 0.0029649762 -0.0057232124 0.001054683 -0.0037195412
0.004951647 0.004628382 -0.0049237562 -0.008644273 0.01176232 -0.008846845 -0.013373592 0.0035695534
0.00091531326 0.0037568242 -0.004039564 0.004901209 0.0022887455 -0.003859285 -0.003995088 -0.00038682573
-0.0011308445 0.0037408473 -0.00509427 -0.0018907978 0.004191984 -0.0031513069 -0.004042128 0.0029790087
0.0030001097 0.00047352363 -0.0020192964 0.0029260623 0.0016126953 -0.0021729607 -0.0026014126 -0.0031848222
-0.000393726 0.0042939694 -0.0029811694 -0.0021214047 0.003317111 -0.0043641143 -0.0023908068 0.0012052106
0.0028596607 0.0046768095 0.0006488408 0.0073616053 0.002499555 0.0053728768 0.0016701692 0.0016914324
0.0021048137 0.0074574724 -0.004702923 -0.0030428807 0.0020510552 -0.0123644145 -0.0042879754 0.00014118265
-0.0013229256 0.00031191035 0.0056217546 -0.0012608792 -0.0013551154 0.0026128558 0.0033418357 -0.002775725
0.006633966 0.0026396143 0.00044419125 -0.0004081851 -0.00035260877 -0.0013895383 -0.00021666355 -0.0034096611
0.0031740302 0.0013333936 0.0011313759 0.0020675065 0.00021791483 -0.0005494986 0.0017882072 -0.0036519372
0.0041295774 0.0011088371 -0.0020503532 -0.0013074921 0.000235517 -0.0046223663 -0.0009062418 -0.0022187498
9.246977e-05 0.0039731204 -0.0036838462 0.007285866 0.0030402716 -0.0037033544 -0.004323561 0.00097022054
-0.0018305139 0.0033827256 -0.0046528224 -0.0029537308 0.0048053483 -0.0062500434 -0.0051643243 0.0038332506
0.0007194952 0.0009747528 -0.005368009 0.0049139024 0.0026287704 -0.0031607617 -0.0030519885 0.00012612717
-0.0013700164 0.0059498553 -0.0044664294 -0.002011026 0.005740153 -0.0038984038 -0.0031234436 0.0029549287
0.0003001731 0.0022914982 -0.0005347954 0.0032012693 0.0013105571 -0.0023580864 -0.0012363681 0.00025176126
-0.0009872722 0.002238528 -0.0025077742 -0.0015137158 0.0018735805 -0.002298505 -0.0022016624 0.0024355692
0.0029114203 0.0065192436 -3.615749e-05 0.005897444 0.0031054872 -0.002111988 0.000925403 -0.0007922663
-0.0004944286 -0.0017933381 -0.0052586203 -0.004224977 0.007580574 -0.008419615 -0.0052406094 0.0041400637
0.0008158771 0.0021895408 -0.0040880316 0.005146942 0.0016270019 -0.005030213 -0.0026800353 -0.00031991064
-0.001531868 0.0046606194 -0.0056787394 -0.0018368174 0.005214886 -0.001991108 -0.0016331417 0.0019317387
4.458926e-05 0.006191215 -0.0016747875 0.00830246 0.0016564024 -0.008163602 -0.0029107989 0.0014738136
-0.0012581579 0.005067119 -0.006936373 -0.001397908 0.0023898827 -0.0021604935 -0.0020358714 0.0038785082
0.0015092589 0.0127880415 0.011940359 -0.012940227 0.002446397 -6.981872e-05 0.002942329 -0.0028897598
0.0020211493 0.011087174 0.010487333 -0.0076614786 0.0027153366 -0.017027067 -0.015124586 0.0034202056
00000000: 7378 033b d79f 94ba bad2 8b3b 96e9 e9ba
00000010: d7a8 e6ba a5a2 3d3b 302b 943b c4c2 b5ba
00000020: 36aa ab3a 0fa5 463a e1ee ee3a 4da6 1d3a
00000030: e2d6 7cbb 77f7 d239 ffef 7e3a a8fc 0bbb
00000040: b9f7 9239 d32c af3b 9d08 87bb d996 e43b
00000050: 42e4 653b 284a babb cc75 aabb f48c 5a3a
00000060: 9286 22ba 10e7 d73b 829c b9bb 3d87 74bb
00000070: 4930 cd3b 0950 82bb cffc f5bb fd0c d53b
00000080: 2fd2 413b 20be 813a f57e b8b9 6566 143b
00000090: fa5a ee38 7628 2dbb 14a4 d439 8673 39bb
000000a0: fbae cb3a b83b b23b 12a6 94bb 9151 06bb
000000b0: 3233 133b 4a1a e5bb 40b7 eeba cc1b d239
000000c0: cfc7 353a 0e86 ab3b 7b1c 903a d311 973b
000000d0: 0c50 423b c989 bbbb 4a3d 8a3a 8cc3 73bb
000000e0: 6d41 a23b afa9 973b 7657 a1bb b5a0 0dbc
000000f0: bfb6 403c 5bf2 10bc e91c 5bbc 2bef 693b
00000100: a2f1 6f3a 0d35 763b 525e 84bb 529a a03b
00000110: c7fe 153b 0fec 7cbb 3ae9 82bb dfce cab9
00000120: d838 94ba 0129 753b d6ed a6bb a5d4 f7ba
00000130: e95c 893b 2886 4ebb d473 84bb 793b 433b
00000140: 7d9d 443b 4443 f839 2c56 04bb 2ec3 3f3b
00000150: 1361 d33a 3b68 0ebb 767c 2abb 73b8 50bb
00000160: 026d ceb9 6db4 8c3b b95f 43bb 4407 0bbb
00000170: e363 593b d800 8fbb 15af 1cbb 28f8 9d3a
00000180: 2569 3b3b ec3f 993b f816 2a3a 9f39 f13b
00000190: 93cf 233b f50e b03b 94e9 da3a 0eb3 dd3a
000001a0: eaf0 093b d05d f43b fa1a 9abb 116b 47bb
000001b0: ff6a 063b 1d94 4abc 2582 8cbb 6e0a 1439
000001c0: 0466 adba e687 a339 b236 b83b 1644 a5ba
000001d0: 219e b1ba 723c 2b3b b302 5b3b f0e8 35bb
000001e0: be61 d93b 61fd 2c3b 57e2 e839 ad01 d6b9
000001f0: 59de b8b9 2b21 b6ba 2e30 63b9 9f74 5fbb
00000200: 6403 503b 44c5 ae3a ad4a 943a 017f 073b
00000210: 1180 6439 3a0c 10ba 4762 ea3a 5755 6fbb
00000220: 6851 873b 6656 913a 385f 06bb 2860 abba
00000230: 1df5 7639 3877 97bb dc90 6dba 7268 11bb
00000240: 54ec c138 f330 823b af6c 71bb 46be ee3b
00000250: 4b3f 473b fab3 72bb a9ac 8dbb 6656 7e3a
00000260: dbed efba b8b0 5d3b b476 98bb 6193 41bb
00000270: 2f76 9d3b 2acd ccbb 7e39 a9bb 4637 7b3b
00000280: 819c 3c3a 8e86 7f3a 20e6 afbb cd04 a13b
00000290: 7347 2c3b c824 4fbb df03 48bb 0141 0439
000002a0: 1f92 b3ba 01f7 c23b 205b 92bb 6bcb 03bb
000002b0: e517 bc3b 5d7c 7fbb b0b2 4cbb 7aa7 413b
000002c0: 8d60 9d39 f62c 163b 8331 0cba 63cc 513b
000002d0: 00c7 ab3a 208a 1abb a10d a2ba d3fe 8339
000002e0: 5c67 81ba 45b4 123b 7859 24bb e067 c6ba
000002f0: ee92 f53a 84a2 16bb c449 10bb 129e 1f3b
00000300: 87cd 3e3b 619f d53b cfa7 17b8 593f c13b
00000310: 6e85 4b3b 4769 0abb be96 723a 17b0 4fba
00000320: 8b9c 01ba 710e ebba 8150 acbb ad71 8abb
00000330: 7766 f83b 6df2 09bc 6bb9 abbb 5fa9 873b
00000340: 96e0 553a 667e 0f3b e5f4 85bb aea7 a83b
00000350: 2041 d53a 7cd4 a4bb 88a3 2fbb aeb9 a7b9
00000360: f6c8 c8ba 1cb8 983b b814 babb 5dc1 f0ba
00000370: a2e1 aa3b 407d 02bb 240f d6ba 6532 fd3a
00000380: 5a05 3b38 addf ca3b 8b84 dbba 0b07 083c
00000390: a41b d93a a1c0 05bc 1ac3 3ebb fa2c c13a
000003a0: c6e8 a4ba 130a a63b 844a e3bb 023a b7ba
000003b0: 949f 1c3b 1197 0dbb 416c 05bb 922e 7e3b
000003c0: 53d2 c53a ef84 513c 7fa1 433c 3f03 54bc
000003d0: bb53 203b a46b 92b8 17d4 403b 2062 3dbb
000003e0: 4275 043b faa6 353c 10d3 2b3c 240d fbbb
000003f0: caf3 313b 597c 8bbc 1dcd 77bc 8725 603b

bias_ih_l0 f4 [64]
0.015205523 0.016200148 0.026068557 0.00017315157 0.008536994 0.0039575743 0.03054747 0.035979584
0.007202091 0.002809646 0.013777083 0.0033411926 0.010435977 0.012133535 0.012617495 0.031223755
0.024982927 0.02136749 0.00806547 0.04075706 0.0091376435 0.009675624 0.054414038 0.034915764
-0.0118943555 -0.0064928066 0.011432644 0.005472646 0.01598059 0.012659989 0.022221377 0.014542416
0.08737415 0.054890722 0.030437484 -0.08012782 -0.017252233 -0.029974261 -0.02757011 -0.04917002
0.018825622 0.079326555 -0.065422565 0.0008553017 0.13065012 -0.05217833 0.06909185 0.14437936
0.014434489 0.011934453 -0.0043130545 0.06745674 0.010899715 0.014597828 0.057523206 0.00073201844
0.027001655 0.014813373 0.024870325 0.0049191327 0.028294068 0.01410307 0.013871013 0.07183976
00000000: 9620 793c 2cb6 843c ba8d d53c 0590 3539
00000010: c0de 0b3c 8aae 813b b03e fa3c 545f 133d
00000020: 85ff eb3b 0a22 383b 46b9 613c e9f7 5a3b
00000030: a9fb 2a3c bccb 463c 9cb9 4e3c f6c8 ff3c
00000040: ffa8 cc3c e00a af3c 0825 043c e0f0 263d
00000050: 0eb6 153c 8286 1e3c 41e1 5e3d d503 0f3d
00000060: 8be0 42bc 9cc1 d4bb fc4f 3b3c e253 b33b
00000070: bae9 823c d86b 4f3c 9b09 b63c 5043 6e3c
00000080: 38f1 b23d 18d5 603d 0858 f93c 0e1a a4bd
00000090: 8e54 8dbc 958c f5bc b6da e1bc 8166 49bd
000000a0: 3138 9a3c f675 a23d 44fc 85bd 5336 603a
000000b0: 25c9 053e f2b8 55bd 0780 8d3d 2fd8 133e
000000c0: a37e 6c3c b988 433c 8654 8dbb c226 8a3d
000000d0: b894 323c ba2b 6f3c 749d 6b3d ede4 3f3a
000000e0: 9332 dd3c cab3 723c dabc cb3c ad30 a13b
000000f0: f6c8 e73c 9010 673c 3f43 633c b920 933d

bias_hh_l0 f4 [64]
0.00156237 0.016532566 0.03068717 0.021190373 0.0068277256 0.013677339 -0.008443312 0.046692144
0.019717412 0.008057408 0.0137916645 0.0036848276 -0.002931888 0.00976268 0.017336715 0.044286672
0.0052964776 0.01834802 0.028262947 -0.015091679 0.004196241 0.010539144 0.035306208 0.06393258
-0.0034850626 0.011020068 0.020033672 0.0052753203 0.014012557 0.014730942 0.011221824 0.016386824
0.049724977 -0.024955427 -0.033713207 0.10558763 -0.0005043105 -0.0015625391 0.087252736 -0.12622459
0.0109201735 0.0783742 -0.03096202 -0.025719333 0.12853917 -0.061713997 -0.032287255 -0.06400957
0.040227555 0.02018181 0.046880264 -0.0018798127 0.011129576 0.01659558 0.026093699 0.0009743914
0.009423534 0.0051238625 0.01585415 0.005215118 0.040566545 0.013879399 0.018216157 0.007871052
00000000: 70c8 cc3a 4e6f 873c a963 fb3c 6f97 ad3c
00000010: 1dbb df3b eb16 603c d155 0abc 4340 3f3d
00000020: 6986 a13c 3803 043c 6ff6 613c 267d 713b
00000030: eb24 40bb a6f3 1f3c ba05 8e3c f165 353d
00000040: 138e ad3b 964e 963c b287 e73c 1743 77bc
00000050: 9f80 893b 60ac 2c3c 3e9d 103d 16ef 823d
00000060: a665 64bb 848d 343c a81d a43c 98dc ac3b
00000070: ed94 653c 0d5a 713c bedb 373c a93d 863c
00000080: 6bac 4b3d 536f ccbc dc16 0abd 543e d83d
00000090: b433 04ba 1dce ccba 90b1 b23d 0541 01be
000000a0: 87ea 323c a782 a03d 10a4 fdbc 5ab1 d2bc
000000b0: c69f 033e d1c7 7cbd a43f 04bd 7317 83bd
000000c0: a6c5 243d 5354 a53c 8505 403d 0c64 f6ba
000000d0: d358 363c 74f3 873c 74c2 d53c 4d6e 7f3a
000000e0: 2b65 1a3c 13e6 a73b 90e0 813c 95e3 aa3b
000000f0: 1b29 263d 6b66 633c 0d3a 953c 96f5 003c

weight_ih_l1 f4 [64, 16]
0.010785092 0.024276607 0.015544195 0.017015578 0.010838152 -0.0064957403 0.0054040984 -0.009836314
-2.2008717e-06 0.035152793 0.0024738023 -0.011854316 0.050943922 -0.032132052 -0.021437954 0.019202929
0.022930572 0.037351925 -0.033953294 0.019815622 0.007316146 -0.022923399 -0.032547116 -0.023465099
0.0052982806 0.055253144 -0.032901935 -0.010157615 -0.0030509324 -0.041294407 -0.026061254 0.040042624
0.004788457 0.037050877 -0.013307685 0.023683814 0.012488006 -0.024348442 0.0074491613 -0.005566131
-0.008581568 0.0004216317 -0.024015194 -0.01499558 0.029845461 -0.03046279 -0.014529256 0.0044464255
0.009863297 0.028573902 0.023822699 0.014798231 0.0059602777 -0.017207867 -0.013017715 -0.0060062073
0.015125866 -0.007765842 0.0029097288 -0.0068469113 0.04590677 -0.03573194 -0.023658387 0.019731287
0.0012747665 0.008501706 -0.005506917 0.008126365 0.0057128267 -0.004560402 -0.007197527 -4.5598114e-05
-0.0032461686 0.008552235 -0.008598954 -0.0041503063 0.0073272507 -0.009990527 -0.00876138 0.008171363
2.0918822e-06 0.00037786362 -6.8559275e-06 0.0002432697 0.00014430418 -0.00024965344 -0.00025867403 7.115567e-05
-0.00016756893 0.0002991997 -0.00027946808 -0.00018948985 0.00026060463 -0.00042260997 -0.00024413093 -8.152876e-05
0.0062999865 0.00902736 0.0015967909 0.010467001 0.006644103 -0.003793159 -0.0063402853 -0.0067095114
0.0013891247 0.010992647 -0.0073202117 -0.009153563 0.005360376 -0.017193705 -0.0118902465 0.0060940143
0.012841037 0.011557652 -0.010471815 0.046114728 -0.0036108077 0.00929271 0.01616213 -0.0071103144
-0.002409399 0.043913882 -0.0031964388 -0.013945286 0.035731316 -0.038759414 -0.00066216727 0.023436626
0.001624603 0.008695497 -0.0047561848 0.008531594 0.0060234033 -0.0069607636 -0.008133853 -0.0006330263
-0.0024473974 0.008415131 -0.009796778 -0.0047788806 0.0077381413 -0.010587798 -0.008579287 0.0072277873
0.02847127 0.056613635 0.038580745 0.039325707 0.0009281676 0.019663636 -0.015205667 -0.009246475
0.00060644484 0.063316844 -0.02983695 -0.025475923 0.033813763 -0.0393881 -0.050660007 0.041171797
0.015165719 0.038902946 -0.02080888 0.020212848 0.012097397 -0.0046156696 0.012633961 -0.020105882
0.0009545863 0.050591066 -0.017684503 -0.012158648 0.03748093 -0.034257036 -0.023468524 0.021686288
0.0029284968 0.014760222 -0.012473564 0.016861066 0.0066246837 -0.018508904 -0.013654782 -0.0008722997
-0.002282757 0.009977747 -0.00706443 -0.008008228 0.011697785 -0.018314252 -0.013392817 0.0149345705
-0.00011357375 0.0029413477 -0.0021794732 0.0029936954 0.0011731354 -0.0012676973 -0.0026143354 0.0004954276
-0.0010923741 0.0020459194 -0.002890482 -0.0015624401 0.0027232973 -0.002339278 -0.0029884488 0.002622113
0.024554359 0.04466915 0.047864575 0.029226555 0.010163411 0.019250087 -0.0012588123 -0.01900069
0.01360579 0.07945046 -0.06486317 -0.025746452 0.06680921 -0.032689005 -0.053202145 -0.007409465
0.005230961 0.017867135 -0.013841468 0.023294041 0.015305893 -0.010387754 -0.018616842 -0.0030491396
-0.003558321 0.016449833 -0.023772793 -0.011725104 0.021036617 -0.025397135 -0.0067401337 0.02062144
9.70089e-05 3.6687077e-05 0.00012113233 -7.053699e-05 2.9115856e-05 4.5496894e-05 -9.534801e-05 -9.92e-05
8.512598e-05 -2.7684566e-05 1.4174657e-05 0.00050125335 -8.008802e-05 -8.8387205e-05 -4.275794e-05 -5.876459e-05
00000000: f4b3 303c bcdf c63c 14ad 7e3c 4164 8b3c
00000010: 8192 313c 38da d4bb dd14 b13b 7e28 21bc
00000020: b0b2 13b6 60fc 0f3d 841f 223b 9b38 42bc
00000030: 93aa 503d e69c 03bd a69e afbc 764f 9d3c
00000040: e5d8 bb3c 55fe 183d 9c12 0bbd 5f54 a23c
00000050: 48bc ef3b dac9 bbbc 2050 05bd e139 c0bc
00000060: 339d ad3b 1f51 623d 2ec4 06bd 206c 26bc
00000070: 27f2 47bb 5324 29bd 697e d5bc bc03 243d
00000080: 7de8 9c3b a9c2 173d 7a08 5abc 8f04 c23c
00000090: 7e9a 4c3c 6276 c7bc 1818 f43b 1764 b6bb
000000a0: b499 0cbc 730e dd39 83bb c4bc 05b0 75bc
000000b0: 787e f43c 1a8d f9bc 1e0c 6ebc 52b3 913b
000000c0: ab99 213c d113 ea3c d227 c33c 4874 723c
000000d0: 6f4e c33b 83f7 8cbc 4148 55bc b8cf c4bb
000000e0: 7bd2 773c 9b78 febb 26b1 3e3b 0e5c e0bb
000000f0: bd08 3c3d a85b 12bd 3ccf c1bc 82a3 a13c
00000100: 1116 a73a bd4a 0b3c 5e73 b4bb 7224 053c
00000110: aa32 bb3b 6d6f 95bb 3cd9 ebbb 9a40 3fb8
00000120: acbd 54bb ac1e 0c3c a1e2 0cbc 4bff 87bb
00000130: 6f19 f03b 4faf 23bc e48b 0fbc 2ee1 053c
00000140: 4362 0c36 ff1b c639 f80b e6b6 3616 7f39
00000150: 5c50 1739 ebe3 82b9 a49e 87b9 6939 9538
00000160: 71b5 2fb9 e7dd 9c39 9285 92b9 cbb1 46b9
00000170: c3a1 8839 c091 ddb9 66fd 7fb9 6bfa aab8
00000180: 1e70 ce3b 7ee7 133c 694b d13a c97d 2b3c
00000190: c7b6 d93b a696 78bb 2bc2 cfbb 76db dbbb
000001a0: 4a13 b63a 811a 343c 63de efbb d3f8 15bc
000001b0: 18a6 af3b d0d9 8cbc 4fcf 42bc 4cb0 c73b
000001c0: 3663 523c 4e5c 3d3c fa91 2bbc cce2 3c3d
000001d0: 4da3 6cbb 7340 183c 7166 843c a4fd e8bb
000001e0: 02e7 1dbb 0bdf 333d 587b 51bb c57a 64bc
000001f0: 005b 123d 31c2 1ebd 4b95 2dba 2bfe bf3c
00000200: a2f0 d43a 8f77 0e3c c5d9 9bbb 19c8 0b3c
00000210: f85f c53b 1e17 e4bb da43 05bc adf1 25ba
00000220: 8464 20bb 9edf 093c aa82 20bc 2898 9cbb
00000230: 3c90 fd3b 7278 2dbc 2390 0cbc 13d7 ec3b
00000240: 953c e93c b3e3 673d d806 1e3d fe13 213d
00000250: 4650 733a a215 a13c 3121 79bc 877e 17bc
00000260: d3f9 1e3a 43ac 813d 9f6c f4bc e2b2 d0bc
00000270: 4d80 0a3d 6b55 21bd de80 4fbd c2a3 283d
00000280: a379 783c b258 1f3d 6277 aabc 6a95 a53c
00000290: 2934 463c 0b3f 97bb acfe 4e3c 17b5 a4bc
000002a0: 343d 7a3a 9438 4f3d 17df 90bc 1135 47bc
000002b0: 9b85 193d 1b51 0cbd 1041 c0bc 71a7 b13c
000002c0: 06ec 3f3b dcd4 713c eb5d 4cbc 3820 8a3c
000002d0: e013 d93b fc9f 97bc 4fb8 5fbc 0bab 64ba
000002e0: 4f9a 15bb b479 233c bc7c e7bb f134 03bc
000002f0: 11a8 3f3c c507 96bc 8c6d 5bbc 21b0 743c
00000300: 712e eeb8 a0c3 403b 7ed5 0ebb e031 443b
00000310: e4c3 993a dd28 a6ba 4555 2bbb 95df 013a
00000320: fe2d 8fba d514 063b 3e6e 3dbb caca ccba
00000330: 5979 323b 934e 19bb dad9 43bb c2d7 2b3b
00000340: 3926 c93c 00f7 363d a50d 443d 876c ef3c
00000350: 6f84 263c 5cb2 9d3c bbfe a4ba 56a7 9bbc
00000360: d2ea 5e3c ecb6 a23d fbd6 84bd 39ea d2bc
00000370: 44d3 883d e8e4 05bd 7eea 59bd 19cb f2bb
00000380: 7b68 ab3b 195e 923c 53c7 62bc 25d3 be3c
00000390: 91c5 7a3c 6631 2abc 5982 98bc 13d4 47bb
000003a0: b832 69bb cdc1 863c 29bf c2bc a71a 40bc
000003b0: fc54 ac3c a70d d0bc 57dc dcbb 4bee a83c
000003c0: 4271 cb38 73e0 1938 6d08 fe38 42ed 93b8
000003d0: d33d f437 ebd3 3e38 93f5 c7b8 9809 d0b8
000003e0: aa85 b238 273c e8b7 b0cf 6d37 8b66 033a
000003f0: eef4 a7b8 855c b9b8 fd56 33b8 007a 76b8

weight_hh_l1 f4 [64, 16]
0.015223189 -0.0027060478 0.008891941 0.006067537 -0.0065510995 -0.0018933348 0.0012879553 -0.000439975
0.0042041987 0.02059252 -0.0032467109 -0.010356783 0.0042931004 0.0009222032 -0.009099236 8.913195e-05
-0.0072094556 0.0111848 0.0005833143 -0.0045521636 -0.0073385746 -0.0021289876 -0.0019948564 0.0065607103
0.0036922325 0.010774972 -0.0158919 -0.009719091 0.0071172686 0.0051298263 -0.007196684 0.0008238877
0.007964787 0.008357262 0.007910328 0.00965709 -0.007193372 -0.0021362994 0.0026877276 0.0036925816
0.004839504 0.015855279 -0.0029311886 -0.004155135 0.005971016 0.011228517 -0.00804692 0.0005279805
-0.0035159022 0.009644516 0.007315554 0.008223668 -0.0069901813 -0.0028438568 -0.005223496 -0.0053508473
0.004326368 0.006919168 0.00530868 -0.007815333 0.006344892 0.009061542 -0.007885259 0.0010029544
0.003914842 0.004959116 0.0040490935 0.004223559 -0.0028480883 -0.00088900287 0.0022911 0.004704496
0.0022271366 0.0053390297 0.004465741 -0.0038836277 0.0018796679 0.004875195 -0.0038903337 -0.00044814483
0.0002536599 0.00015241164 0.00017776164 0.00014498556 -0.00011882489 -6.1362596e-05 0.00023528724 0.00034419127
5.472032e-05 0.00014867894 0.0001365536 -0.00034072826 0.00015866788 0.0002811106 -0.0003267501 -0.0009902711
0.0025125348 0.0026435875 0.0033623327 -0.00065135985 -0.0033513403 -0.0010309657 9.682074e-05 0.0027748186
0.0021555503 0.0019440776 0.0026949884 -0.0050583757 0.0029091532 -0.0029870404 -0.004048236 0.00020015659
0.00878343 0.016505172 0.010608792 0.0055018407 -0.008615576 -0.002588286 0.0012440934 -0.0074826377
0.0067567006 -0.002939742 0.0060397494 -0.015635733 0.007717926 -0.011182163 -0.016200876 0.00051608915
0.0038088842 0.0046410384 0.0042937254 0.003994022 -0.0029725174 -0.0009559455 0.001972175 0.0044778315
0.0021328067 0.0039746524 0.003765333 -0.004053439 0.002329301 0.004585942 -0.0039841025 -2.973684e-05
0.005485605 -0.000432734 0.0096441945 0.007930706 -0.0073891333 -0.0020014292 -0.0047794585 0.02648651
0.004741799 0.0069478014 -0.001990688 -0.0064819697 0.0059476765 -0.01747775 -0.0095296055 0.00022477984
0.018027421 0.009362516 0.009618523 0.0054458356 -0.006945657 -0.0006567452 0.0018178659 0.007890615
0.0043939673 0.0008718339 0.010610511 -0.009642753 0.0063741626 -0.0017873929 -0.0112240035 0.00020685575
0.0026130879 0.007577021 0.005149729 0.0061732978 -0.004833583 -0.0012394389 0.0029542656 0.0071291057
0.0033891953 0.0080109425 0.006799489 -0.006434932 0.0034615144 0.006856423 -0.0062143197 -4.7941845e-05
0.0014043226 0.0018485313 0.0013288608 0.0016680302 -0.00088867464 -0.0002191468 0.00068899087 0.0016533132
0.00096135814 0.001891631 0.0016297677 -0.0014558652 0.0007423928 0.0017701939 -0.0013889134 -2.307466e-05
0.0065404344 0.0070249797 -0.0040552006 0.008471329 -0.0073900092 -0.00373763 0.00514244 0.022233836
0.005266701 0.013987503 0.005967275 -0.015207262 0.008001948 0.012834679 -0.0021639112 0.00039351353
0.008493863 0.011445974 0.004862068 0.0155795915 -0.007053385 -0.0015478927 0.0040591964 0.0040706364
0.004708101 0.0047946624 0.012386775 -0.01437955 0.005248563 0.017482596 -0.012637148 8.932844e-05
-0.0010057989 -0.00011615086 -3.2619388e-05 -0.00064902223 6.5505636e-05 8.757773e-08 0.00030193562 -3.6913887e-05
-1.4054786e-05 -8.091758e-05 -4.8240337e-05 6.158938e-05 2.1644122e-05 0.0006120596 0.00011318336 9.347622e-06
00000000: af6a 793c f357 31bb 81af 113c 30d2 c63b
00000010: 9baa d6bb c629 f8ba 9cd0 a83a 72ac e6b9
00000020: 60c3 893b a5b1 a83c c5c6 54bb 7faf 29bc
00000030: 23ad 8c3b 02c0 713a f614 15bc 5aec ba38
00000040: 4c3d ecbb 7440 373c 8fe9 183a 512a 95bb
00000050: 6d78 f0bb 7c86 0bbb 23bc 02bb 3afb d63b
00000060: 62f9 713b 8289 303c bb2f 82bc d23c 1fbc
00000070: fa37 e93b 1a18 a83b 29d2 ebbb 2bfa 573a
00000080: bd7e 023c e6ec 083c 529a 013c c538 1e3c
00000090: 61b6 ebbb 2801 0cbb 9624 303b 3dff 713b
000000a0: b494 9e3b eee2 813c 2f19 40bb cc27 88bb
000000b0: 83a8 c33b d0f7 373c 3bd7 03bc 2c68 0a3a
000000c0: 0d6b 66bb 0804 1e3c 51b7 ef3b 90bc 063c
000000d0: e40d e5bb 0060 3abb dc29 abbb 2956 afbb
000000e0: 35c4 8d3b 30ba e23b 6ff4 ad3b e20b 00bc
000000f0: d0e8 cf3b dd76 143c 2c31 01bc 9175 833a
00000100: 1348 803b 1580 a23b 42ae 843b c865 8a3b
00000110: fea6 3abb f90b 69ba 4826 163b 2c28 9a3b
00000120: 27f5 113b 07f3 ae3b 5a55 923b 7684 7ebb
00000130: 305f f63a 1ac0 9f3b f8f4 7ebb fbf4 eab9
00000140: a8fd 8439 b0d0 1f39 8765 3a39 4407 1839
00000150: a131 f9b8 cbaf 80b8 70b7 7639 9274 b439
00000160: 7f83 6538 b3e6 1b39 d42f 0f39 c6a3 b2b9
00000170: 1660 2639 0762 9339 a84f abb9 fccb 81ba
00000180: 57a9 243b 0a40 2d3b 955a 5c3b 05c0 2aba
00000190: 29a2 5bbb 7821 87ba 3d0c cb38 bbd9 353b
000001a0: 2244 0d3b 6bd0 fe3a 679e 303b bbc0 a5bb
000001b0: 7ea7 3e3b 39c2 43bb 11a7 84bb 20e1 5139
000001c0: 60e8 0f3c db35 873c 80d0 2d3c c948 b43b
000001d0: 5828 0dbc 3ca0 29bb d910 a33a ea30 f5bb
000001e0: 5067 dd3b b0a8 40bb 17e9 c53b 8216 80bc
000001f0: a8e6 fc3b 6435 37bc b3b7 84bc 284a 073a
00000200: 799e 793b da13 983b 61b2 8c3b 49e0 823b
00000210: 91ce 42bb 6b98 7aba 9b3f 013b c6ba 923b
00000220: 8fc6 0b3b cd3d 823b cec3 763b b6d2 84bb
00000230: 30a7 183b ab45 963b 138d 82bb 6173 f9b7
00000240: 97c0 b33b 93e0 e2b9 af02 1e3c cbef 013c
00000250: 8b20 f2bb 692a 03bb 019d 9cbb 3dfa d83c
00000260: 1861 9b3b 62aa e33b 3476 02bb b466 d4bb
00000270: bae4 c23b 802d 8fbc 1022 1cbc e1b2 6b39
00000280: 3eae 933c 3d65 193c 0297 1d3c fb72 b23b
00000290: 6598 e3bb 6d29 2cba 7545 ee3a a347 013c
000002a0: 45fb 8f3b c88b 643a b5d7 2d3c a3fc 1dbc
000002b0: 5ade d03b f446 eaba e2e4 37bc 6be7 5839
000002c0: 5740 2b3b a948 f83b 0fbf a83b 6049 ca3b
000002d0: 0863 9ebb ab74 a2ba 5a9c 413b 469b e93b
000002e0: 431d 5e3b 5440 033c 3fce de3b 1fdc d2bb
000002f0: 93da 623b d8ab e03b 7ea1 cbbb 2a15 49b8
00000300: 3f11 b83a 6b4a f23a 2b2d ae3a cea1 da3a
00000310: f2f5 68ba c5ca 65b9 659d 343a fcb3 d83a
00000320: a703 7c3a 9bf0 f73a ee9d d53a bbd2 beba
00000330: 239d 423a da05 e83a 330c b6ba 7490 c1b7
00000340: 2451 d63b cd31 e63b 7de1 84bb 54cb 0a3c
00000350: e427 f2bb 07f3 74bb ea81 a83b bc23 b63c
00000360: 4a94 ac3b d72b 653c 2189 c33b e127 79bc
00000370: 9a1a 033c 8c48 523c 68d0 0dbb 7e50 ce39
00000380: d829 0b3c e587 3b3c fc51 9f3b 8b41 7f3c
00000390: 1520 e7bb a9e2 caba 0203 853b f962 853b
000003a0: 6a46 9a3b 8b1c 9d3b e6f1 4a3c 3498 6bbc
000003b0: 23fc ab3b a937 8f3c 0a0c 4fbc d755 bb38
000003c0: 03d5 83ba 0596 f3b8 cdd0 08b8 2523 2aba
000003d0: 1260 8938 5e12 bc33 1d4d 9e39 fcd3 1ab8
000003e0: d9cc 6bb7 4cb2 a9b8 ab55 4ab8 8c29 8138
000003f0: 6690 b537 a072 203a db5c ed38 bbd3 1c37

bias_ih_l1 f4 [64]
0.06624361 0.15630433 0.04652438 0.07625841 0.0125257205 0.00033813415 0.057183698 0.048003588
0.015643394 0.048589025 0.0048060277 0.029453028 0.0036677776 0.012443506 0.056250412 0.00050057017
0.030089764 0.10511703 0.034189053 0.11028253 0.010355579 0.00020887356 0.036338698 0.114631295
0.014630909 -0.0023806915 0.1324895 0.02188652 0.0032421506 -0.002777469 0.05253188 0.0004755698
-0.07003496 -0.05285625 -0.059449434 -0.017495396 -0.0009619044 -0.028221507 -0.09214688 -0.19040705
0.003832374 -0.01670833 -0.13762628 -0.07268893 0.070380494 -0.017671356 0.04517085 -0.009570754
0.07979081 0.19186231 0.022298865 0.13588965 0.0033698548 0.0003152187 0.02636921 0.08747813
0.01676351 0.16769621 0.14092037 0.020727172 -0.0022086601 0.1513086 0.019302046 -9.9273166e-05
00000000: bbaa 873d 3e0e 203e 5990 3e3d 5f2d 9c3d
00000010: ae38 4d3c 9947 b139 7439 6a3d 699f 443d
00000020: 9326 803c 4905 473d e27b 9d3b 7a47 f13c
00000030: 195f 703b d9df 4b3c d566 663d b238 033a
00000040: cf7e f63c 9947 d73d d209 0c3d cfdb e13d
00000050: 72aa 293c 1205 5b39 e3d7 143d d0c3 ea3d
00000060: 7bb6 6f3c 6005 1cbb 54ab 073e 5c4b b33c
00000070: 437a 543b 3306 36bb ab2b 573d e655 f939
00000080: 7d6e 8fbd cc7f 58bd 4081 73bd 8152 8fbc
00000090: 5028 7cba ca30 e7bc 81b7 bcbd 11fa 42be
000000a0: 9128 7b3b e8df 88bc e7ed 0cbe efdd 94bd
000000b0: a623 903d 85c3 90bc 1205 393d a7ce 1cbc
000000c0: 5d69 a33d 8e77 443e 1cac b63c a826 0b3e
000000d0: c8d8 5c3b f043 a539 3e04 d83c bc27 b33d
000000e0: a153 893c 8eb8 2b3e 6e4d 103e 08cc a93c
000000f0: 2bbf 10bb a4f0 1a3e 531f 9e3c e030 d0b8

bias_hh_l1 f4 [64]
0.043575507 0.008015932 0.047968786 0.104742974 0.013417902 0.00027740072 0.024538625 0.036447436
0.015780076 0.16223328 0.019517504 0.031737167 0.0034942313 0.117405996 0.021830058 -0.00049653533
0.0058302735 0.02955155 0.06998205 0.12685667 0.009480242 0.00032850524 0.03531293 0.10549718
0.013942373 0.07659838 0.08156278 0.01826843 0.0031622413 0.0021041385 0.024105653 0.00042997574
0.031020908 -0.009470834 0.07351964 -0.0323052 -0.095981516 -0.015519098 -0.0011256974 0.15506482
0.028157098 0.0053692386 -0.018378288 -0.042413823 0.055906706 -0.1584981 -0.07967697 0.040360816
0.095109046 0.08592771 0.0737137 -0.007039253 0.015287157 0.00030212433 0.02461755 0.072182775
0.016597817 0.2222185 0.0219062 0.026977848 0.003234037 0.16410008 0.070630334 0.0004443813
00000000: 3b7c 323d 4155 033c eb7a 443d 7c83 d63d
00000010: c3d6 5b3c 1870 9139 3a05 c93c e849 153d
00000020: 3845 813c 7b20 263e 2ce3 9f3c d5fe 013d
00000030: 79ff 643b 8e72 f03d f3d4 b23c ec29 02ba
00000040: e10b bf3b 1816 f23c c052 8f3d b7e6 013e
00000050: 0453 1b3c 3a3b ac39 4aa4 103d e80e d83d
00000060: 8d6e 643c 9ddf 9c3d 630a a73d ada7 953c
00000070: 9b3d 4f3b 96e5 093b 3879 c53c 5e6e e139
00000080: 8f1f fe3c 8f2b 1bbc 7791 963d 7552 04bd
00000090: f591 c4bd d143 7ebc 238c 93ba 50c9 1e3e
000000a0: b7a9 e63c 70f0 af3b 108e 96bc 1eba 2dbd
000000b0: 6efe 643d 534d 22be ae2d a3bd 6251 253d
000000c0: 88c8 c23d defa af3d 35f7 963d 89a9 e6bb
000000d0: fc76 7a3c 7166 9e39 bfaa c93c 90d4 933d
000000e0: 25f8 873c 3f8d 633e a274 b33c a600 dd3c
000000f0: 23f2 533b da09 283e a3a6 903d d9fb e839

weight_ih_l0 f4 [64, 112]
0.0005551765 0.0005823085 -8.128208e-05 5.0465962e-05 0.00020394713 0.00025361203 0.00090807717 0.00019003576
2.6440714e-05 0.00022695196 0.0010123488 8.5990614e-05 0.0017260247 -0.0005265127 0.00054537616 0.00012116751
0.00021012069 -3.629007e-05 0.00015659232 0.00085163844 0.00026937443 9.610134e-05 -8.0454076e-05 -0.00051534583
0.00024171475 -0.00016901994 0.00030728066 -0.00023555095 0.0006507159 -0.00025350082 0.0003533029 0.00017023429
0.000394958 9.9684075e-05 0.0009993557 0.00016623798 0.00022352696 -0.0010000092 -0.0004206515 0.00046505564
-0.0003027848 -0.00036003604 0.00026923706 0.00073998363 0.0004496357 0.00020590718 -0.0003786309 5.886229e-06
-9.615805e-05 0.00029676795 0.0005876402 -0.00020071973 0.00042029342 0.00013864019 -7.950607e-06 0.00034149885
0.0012725516 -0.00035573787 0.0006509123 -9.502449e-05 0.000895881 0.000712855 0.0011420844 0.0006641443
0.00022518463 0.00028986295 -0.00021547795 0.00066736323 -7.3916104e-05 0.00086811354 0.0008536205 -0.0015029614
0.00010250895 0.00028136827 0.00046091425 0.00025518858 0.0002159876 0.0017684564 0.00016543489 0.00013956676
1.14849545e-05 0.0004641232 0.00065875106 0.00028960765 0.00013337132 -0.00077171065 -0.0019871634 -9.9173085e-05
-0.00033111722 -0.0007892859 -0.00067636336 -0.00048937846 0.00035813104 0.00046436847 -7.243519e-06 0.0003347364
-4.0363608e-05 -0.00017485043 0.00032174902 0.00020842647 0.0005189199 0.0012285573 0.0002823328 8.849035e-05
0.0004105336 0.00035113926 0.00022691963 0.0006177549 0.00032182908 0.00017257004 -5.744286e-05 0.00017296027
0.013091247 -3.7661965e-05 -0.008283149 -0.0071436395 0.001073695 -0.00040080425 0.00914866 -0.0014573646
-0.00065597374 0.0033448501 0.00410814 -0.00028137892 0.014986665 -0.0072501497 0.006471195 0.0050992435
-0.0019451358 0.0017570822 0.002049056 0.010509711 0.0023051256 0.009631643 0.0024851882 -0.0026180327
0.0033355474 -0.0051730867 0.002448128 -0.0044438597 0.006704094 -6.396987e-05 0.0038501385 0.00087178935
0.0065105306 -0.00086022605 0.00086299103 -0.001715941 0.0017292765 0.00021786458 -0.006205586 -0.002987727
-0.0039457045 -0.004962248 -8.015606e-05 0.003822975 0.004174313 0.0074086944 -0.0003828985 -0.00023368147
-0.0037712802 0.005652784 0.0040232246 -0.004775051 0.0016155773 -0.0012324754 -0.0023090949 -0.00042599437
-0.0015217067 -0.006548467 0.007923065 0.00050618185 0.008079028 0.0064145164 0.008164511 0.007430866
0.0010317877 0.0052804155 -0.007036244 0.0043053753 -0.00071176275 -0.0032105832 -0.0014312069 0.0051654847
-0.0008437548 -0.0024310127 0.009165374 0.0031920418 0.0009632228 0.01598545 0.0026761189 -0.0027695426
-0.0024706335 0.0019781922 0.008989484 -5.0501592e-05 -0.0039397236 -0.012180311 -0.004176675 -0.006636408
-0.0063061994 -0.00796454 -0.009596954 0.006258635 0.0016243453 -0.005134497 -0.005717936 0.004372873
-0.0036709425 -0.0017887321 -0.0011983399 0.0022034338 0.007064858 -0.0020098488 0.005625013 -0.0015152501
0.001907526 0.008327432 0.0018217652 0.0017386631 -0.0023752942 -0.002847896 -0.0048126695 -0.00035188638
0.013377585 0.0036693185 -0.0024993713 -0.0011379345 0.020912642 0.011060034 0.014463521 -0.0043483046
-0.0038187297 0.003010063 0.022838946 -0.001770331 0.013351557 -0.008089071 0.0039017464 -0.0067629684
0.00034610074 0.0047864267 -0.003058489 0.020128068 0.0055924095 -0.0019468202 0.00749449 -0.0066772103
0.0040261154 -0.001424436 0.002701025 -0.0031301347 0.017871533 -0.002548601 0.0014829419 0.004879602
00000000: 4489 113a 10a6 183a fc75 aab8 6aab 5338
00000010: a4da 5539 3bf7 8439 070c 6e3a 5644 4739
00000020: 00cd dd37 f4f9 6d39 cab0 843a dc55 b438
00000030: c73b e23a ab05 0aba 93f7 0e3a 501b fe38
00000040: d853 5c39 2a36 18b8 ee32 2439 7d40 5f3a
00000050: d33a 8d39 048a c938 74b9 a8b8 4618 07ba
00000060: cf74 7d39 f23a 31b9 831a a139 3afe 76b9
00000070: ce94 2a3a 4ee8 84b9 833b b939 eb80 3239
00000080: 5e12 cf39 7b0d d138 d0fc 823a 2b50 2e39
00000090: 9062 6a39 be12 83ba e38a dcb9 b6d2 f339
000000a0: 17bf 9eb9 38c3 bcb9 6328 8d39 76fb 413a
000000b0: 15bd eb39 cae8 5739 fb82 c6b9 5282 c536
000000c0: 76a8 c9b8 8597 9b39 de0b 1a3a 4b78 52b9
000000d0: d45a dc39 f15f 1139 9963 05b7 330b b339
000000e0: bfcb a63a 5482 bab9 fca1 2a3a e247 c7b8
000000f0: 8ed9 6a3a e4de 3a3a feb1 953a f819 2e3a
00000100: 8a1f 6c39 bff8 9739 ecf1 61b9 fdf1 2e3a
00000110: 6803 9bb8 1d92 633a 81c5 5f3a 04ff c4ba
00000120: 13fa d638 9c84 9339 dda6 f139 d5ca 8539
00000130: bb7a 6239 8dcb e73a 9778 2d39 ab58 1239
00000140: 81af 4037 9055 f339 09b0 2c3a 7bd6 9739
00000150: 97d9 0b39 a04c 4aba 123b 02bb 25fb cfb8
00000160: cd99 adb9 15e8 4eba fa4d 31ba a249 00ba
00000170: 89c3 bb39 7b76 f339 5b0d f3b6 8f7f af39
00000180: 184c 29b8 0e58 37b9 6cb0 a839 0e8d 5a39
00000190: 2008 083a 8b07 a13a 1106 9439 e593 b938
000001a0: e33c d739 1d19 b839 46f1 6d39 d4f0 213a
000001b0: 2bbb a839 ebf3 3439 cdee 70b8 ab5c 3539
000001c0: ab7c 563c 3af7 1db8 0cb6 07bc 3115 eabb
000001d0: 3abb 8c3a 0923 d2b9 43e4 153c 0b05 bfba
000001e0: a7f5 2bba 4635 5b3b 939d 863b 0a86 93b9
000001f0: a18a 753c aa92 edbb 510c d43b 8e17 a73b
00000200: edf3 feba e54d e63a 7549 063b ec30 2c3c
00000210: 9711 173b 0ace 1d3c 8ade 223b 4d93 2bbb
00000220: 3399 5a3b ff82 a9bb c670 203b cc9d 91bb
00000230: 04ae db3b 9027 86b8 9b52 7c3b cb88 643a
00000240: 4a56 d53b cb80 61ba 593a 623a 6de9 e0ba
00000250: e4a8 e23a 9472 6439 3a58 cbbb becd 43bb
00000260: f84a 81bb 5a9a a2bb 7519 a8b8 e18a 7a3b
00000270: adc8 883b a2c4 f23b c4bf c8b9 6408 75b9
00000280: 9527 77bb fd3a b93b 41d5 833b 0878 9cbb
00000290: c7c1 d33a 038b a1ba 2f54 17bb ff57 dfb9
000002a0: 0174 c7ba 8694 d6bb becf 013c 4ab1 043a
000002b0: e65d 043c dd30 d23b 71c4 053c 9f7e f33b
000002c0: 0d3d 873a 5607 ad3b 4b90 e6bb 1b14 8d3b
000002d0: 9795 3aba a668 52bb 5697 bbba 3a43 a93b
000002e0: 6d2f 5dba a051 1fbb 5d2a 163c 9331 513b
000002f0: ca80 7c3a ebf3 823c d361 2f3b 3781 35bb
00000300: 5aea 21bb 8fa4 013b a148 133c acd1 53b8
00000310: cc18 81bb ed8f 47bc 7ddc 88bb 3a76 d9bb
00000320: 3ca4 cebb b47d 02bc 8b3c 1dbc 3c15 cd3b
00000330: fce7 d43a 483f a8bb 865d bbbb 514a 8f3b
00000340: 3294 70bb e473 eaba 9d11 9dba 7c67 103b
00000350: 5380 e73b abb7 03bb 0752 b83b 5b9b c6ba
00000360: f405 fa3a c86f 083c 4cc8 ee3a dae3 e33a
00000370: d3aa 1bbb c4a3 3abb 99b3 9dbb 647d b8b9
00000380: a92d 5b3c f378 703b 7ecc 23bb bf26 95ba
00000390: fd50 ab3c 2535 353c 67f8 6c3c 397c 8ebb
000003a0: a743 7abb 7a44 453b be18 bb3c 730a e8ba
000003b0: 7dc0 5a3c 0688 04bc 71b4 7f3b e49b ddbb
000003c0: db74 b539 75d7 9c3b ee70 48bb 9ee3 a43c
000003d0: 8840 b73b 722c ffba 5794 f53b 80cc dabb
000003e0: 81ed 833b 24b4 baba ae03 313b f222 4dbb
000003f0: 5267 923c 6e06 27bb 465f c23a 12e5 9f3b

weight_hh_l0 f4 [64, 16]
-7.544737e-05 0.00023886394 -0.0005469671 5.94884e-06 0.0002635461 -0.00022132107 -0.00026024765 -0.000106448155
-7.570318e-05 0.0002507546 5.6088025e-05 -0.00027463114 -0.00028533908 0.0001311358 1.5213525e-05 0.00019910131
-0.001003949 0.0024203798 -0.0042599905 0.00017643391 0.0035836322 -0.0031250312 -0.0036569491 -0.0012376141
-0.0009095949 0.003835899 0.0005792941 -0.003594497 -0.0043454217 0.0036195086 -3.8972794e-05 0.0023392418
-0.0009535276 0.0049720323 -0.0034329446 -0.00061179633 0.0026621025 -0.002103015 -0.002903406 -0.0016810781
-0.0013566139 0.003184072 0.0011336209 -0.0025705986 -0.004131037 0.0018375758 -0.00018710688 0.002163186
1.4473126e-05 -1.0683511e-05 0.00016553982 -3.9673e-05 -0.00010826306 8.107633e-05 0.0001210885 -5.9929766e-06
0.0004914519 0.00049372885 1.234069e-05 0.00014175166 7.8870056e-05 -0.0001777643 -8.932801e-05 -8.116935e-05
-0.00072846405 0.0032012083 -0.0018288562 -3.3557168e-05 0.0016274478 -0.0009360532 -0.0006706057 -0.0012097425
-0.0009302473 0.001580807 0.00062216376 -0.0011875 -0.0012965666 0.0008362746 -0.0008442615 0.0017535484
-0.00059242564 0.0026469147 -0.0012036773 -9.7048294e-05 0.0012063975 -0.0007576246 -0.0001292234 -0.0008888509
-0.00062656857 0.0011141887 0.0004862629 -0.00081759074 -0.000992889 0.0003695407 6.997893e-05 0.00065827824
-0.0003510479 0.0036294847 -0.00203708 -0.00013176583 0.0017394772 -0.00121764 -0.0014264865 -0.0011211912
-0.0007752102 0.001978955 0.00055155024 -0.0017869537 -0.0013781155 0.00050954305 -1.1377239e-05 0.0026339279
-0.00015207798 0.0004645123 -0.0007381957 3.4111774e-05 0.0006487352 -0.0005016649 -0.0005401862 -0.00015886393
0.0008850164 0.0006353873 0.00013988091 -0.0006046554 -0.00072777004 0.0006678099 -8.915324e-05 0.00044447958
-0.00010167178 0.00025604584 -0.00034625505 3.5449746e-05 0.00035704667 -0.00029228194 -0.00026888377 -0.00020387216
-8.015431e-05 0.00044087303 7.4463125e-05 -0.0009010064 -0.00034098042 0.0004088435 -4.5009907e-05 0.00024321384
-0.0009874043 0.0037231226 -0.0013500814 -0.00016149784 0.0019130759 -0.0010998294 -0.0010862756 -0.0013526015
-0.001354518 0.0015925128 0.00081417675 -0.0012510233 -0.0013422662 -0.0019585837 3.8170074e-06 0.0019483055
-4.4837125e-05 9.382763e-05 -5.5573215e-05 -0.00014003796 0.000460641 -9.965732e-05 -9.313374e-05 -6.952061e-07
-1.938479e-05 0.00012328806 1.9893374e-05 -4.214664e-05 -0.00013299953 0.00067006896 0.00013536165 -0.00077126414
-0.0008587151 0.0032001063 -0.0013122197 -0.000354863 0.0016499619 -0.0010092299 -0.001455724 -0.0011199316
-0.00093828066 0.00018523117 0.00067284785 -0.001347588 -0.0016494647 0.0003532019 -0.0006342412 0.001986962
-0.000511756 0.0053176526 -0.002592476 -0.00030319698 0.0010487781 -0.0006862258 -0.0015646772 -0.0014995891
-0.001825259 0.002051721 0.0006410281 -0.0020902767 -8.4396874e-05 0.00027448934 -0.00066908717 0.0023248587
-0.0009779837 0.004534493 -0.0018864978 -0.00047391714 -0.0009519099 6.0245322e-05 -0.00033321933 -0.0014582935
-0.001426608 0.000441916 0.0005718216 2.0156756e-05 -0.0002583722 -0.001607169 -0.00027643977 0.0019383257
-2.5357593e-05 0.00047247988 0.00015496937 -7.9220365e-05 -0.00015529271 0.0005830987 0.0001581988 -6.0291775e-05
-7.803388e-05 -0.0004543395 0.0001005021 0.00037059022 9.18255e-05 -0.00043733217 0.0002514836 -2.2138784e-07
-0.0005934857 0.0017231494 -0.0017906821 6.831704e-05 0.0017688494 -0.0015688266 -0.0018998879 -0.0007486363
-0.00059501 0.0019125566 0.00043350057 -0.00084695953 -0.0018767504 0.0015513855 -8.677908e-05 0.0014425879
00000000: 8039 9eb8 8d77 7a39 5762 0fba 269c c736
00000010: 8f2c 8a39 6c12 68b9 d971 88b9 eb3c dfb8
00000020: d6c2 9eb8 b677 8339 0f40 6b38 5efc 8fb9
00000030: 9099 95b9 8081 0939 983d 7f37 dac5 5039
00000040: f096 83ba 3c9f 1e3b 6497 8bbb 1e01 3939
00000050: 5fdb 6a3b 53cd 4cbb 6da9 6fbb 7037 a2ba
00000060: e171 6eba b563 7b3b c5db 173a a791 6bbb
00000070: 0a64 8ebb 4735 6d3b b876 23b8 f74d 193b
00000080: 27f6 79ba 6eec a23b 41fb 60bb f560 20ba
00000090: ab76 2e3b bdd2 09bb 1247 3ebb 9f57 dcba
000000a0: 69d0 b1ba ddab 503b 0196 943a 7d77 28bb
000000b0: a65d 87bb d0da f03a 1f32 44b9 3dc4 0d3b
000000c0: 9ad1 7237 553d 33b7 c294 2d39 8f66 26b8
000000d0: 4a0b e3b8 8607 aa38 e5f0 fd38 4717 c9b6
000000e0: c7d4 003a 956d 013a dc0a 4f37 2ca3 1439
000000f0: 0a67 a538 3e66 3ab9 9c55 bbb8 7739 aab8
00000100: 65f6 3eba 5dcb 513b 3bb6 efba bcbf 0cb8
00000110: 1650 d53a 7861 75ba 96cb 2fba 3990 9eba
00000120: d7db 73ba 1533 cf3a b418 233a e3a5 9bba
00000130: 8ef1 a9ba 7039 5b3a 6e51 5dba 52d7 e53a
00000140: 034d 1bba dc77 2d3b b5c4 9dba 6886 cbb8
00000150: fc1f 9e3a 549b 46ba 2480 07b9 c601 69ba
00000160: 4e40 24ba f809 923a 1af1 fe39 9653 56ba
00000170: d423 82ba eabe c139 a7c1 9238 4e90 2c3a
00000180: da0c b8b9 a6dc 6d3b 8880 05bb 9f2a 0ab9
00000190: 2bff e33a 3899 9fba f2f8 baba eff4 92ba
000001a0: 7a37 4bba 5bb1 013b e995 103a 3738 eaba
000001b0: e2a1 b4ba db92 053a dfe0 3eb7 fa9d 2c3b
000001c0: 1f77 1fb9 c989 f339 7a83 41ba 3d13 0f38
000001d0: e20f 2a3a 2982 03ba 489b 0dba b694 26b9
000001e0: 7200 683a 1f90 263a ffac 1239 bd81 1eba
000001f0: d2c7 3eba f70f 2f3a c8f7 bab8 0a09 e939
00000200: 9f38 d5b8 e43d 8639 9189 b5b9 e0af 1438
00000210: fe31 bb39 6b3d 99b9 f8f8 8cb9 84c6 55b9
00000220: 8418 a8b8 fa24 e739 1629 9c38 8431 6cba
00000230: 9ec5 b2b9 0c5a d639 05c9 3cb8 3807 7f39
00000240: ca6b 81ba a2ff 733b 37f5 b0ba bf57 29b9
00000250: 2dc0 fa3a 2728 90ba 5c61 8eba c649 b1ba
00000260: 158a b1ba ddbb d03a 7a6e 553a 60f9 a3ba
00000270: fbee afba 955b 00bb d813 8036 495e ff3a
00000280: 7f0f 3cb8 53c5 c438 4917 69b8 27d7 12b9
00000290: 3082 f139 1eff d0b8 cc50 c3b8 339e 3ab5
000002a0: 859c a2b7 e346 0139 b2e0 a637 9cc6 30b8
000002b0: ca75 0bb9 91a7 2f3a deef 0d39 a92e 4aba
000002c0: 651b 61ba e0b8 513b c9fe abba e80c bab9
000002d0: 8943 d83a 2348 84ba fecd beba abca 92ba
000002e0: f3f6 75ba 9d3a 4239 0e62 303a 8da1 b0ba
000002f0: da32 d8ba f52d b939 3543 26ba b137 023b
00000300: 5d27 06ba b43f ae3b 88e6 29bb 69f6 9eb9
00000310: 2777 893a d5e3 33ba db15 cdba dc8d c4ba
00000320: 873d efba 2b76 063b ab0a 283a 06fd 08bb
00000330: 3afe b0b8 56e9 8f39 ae65 2fba a85c 183b
00000340: b02f 80ba 1696 943b 5d44 f7ba 1578 f8b9
00000350: 9889 79ba ecaf 7c38 f1b3 aeb9 3624 bfba
00000360: 05fd baba f6b0 e739 4ce6 153a 4e16 a937
00000370: 2176 87b9 a5a7 d2ba 1eef 90b9 6b0f fe3a
00000380: 04b7 d4b7 2db7 f739 467f 2239 1c23 a6b8
00000390: 12d6 22b9 17db 183a 2be2 2539 cde1 7cb8
000003a0: 1fa6 a3b8 6a34 eeb9 a7c4 d238 c74b c239
000003b0: 7192 c038 bb49 e5b9 8fd9 8339 a0b6 6db4
000003c0: 2794 1bba 4ddb e13a 52b5 eaba 6e45 8f38
000003d0: bdd8 e73a 16a1 cdba a905 f9ba 2240 44ba
000003e0: 72fa 1bba c0ae fa3a 7647 e339 7e06 5eba
000003f0: 4bfd f5ba dc57 cb3a 2afd b5b8 3815 bd3a

bias_ih_l0 f4 [64]
0.0012452921 0.013761111 0.031202931 2.3367102e-05 0.01590832 0.014486848 0.017443852 0.0013958276
0.0011665713 0.017034313 0.0002422269 0.023078958 0.021980315 0.029855913 0.0012095876 0.008896408
8.696096e-05 0.0203161 0.04265311 0.00060089375 0.022173846 0.015375094 0.02606684 0.0030889718
0.0014686936 0.04235731 0.00029231803 0.029290793 0.033131618 0.03472477 0.0059038997 0.013961495
-0.008841861 0.052610993 -0.048373073 -0.003087539 0.030412206 -0.023034174 -0.0058819517 0.008987018
-0.0006048256 -0.0059357253 0.005206118 0.0038077736 -0.0705353 -0.06023046 0.062297225 0.03271528
0.0021957092 0.017935205 0.03922458 0.0007141109 0.018477615 0.019482803 0.018859873 0.0032555799
0.0011985361 0.044286065 0.0002458035 0.03028736 0.015186524 0.037661064 0.011845807 0.01113938
00000000: 1239 a33a 4876 613c 4a9d ff3c 7804 c437
00000010: 2a52 823c 3f5a 6d3c 69e6 8e3c 34f4 b63a
00000020: a3e7 983a 8b8b 8b3c 4afe 7d39 1510 bd3c
00000030: 1010 b43c 6394 f43c 068b 9e3a 3dc2 113c
00000040: cf5e b638 f36d a63c 07b5 2e3d 4c85 1d3a
00000050: eda5 b53c d1e7 7b3c 208a d53c 5970 4a3b
00000060: 2e81 c03a dc7e 2d3d 4342 9939 3ff3 ef3c
00000070: 05b5 073d 8f3b 0e3d 8075 c13b c1be 643c
00000080: 74dd 10bc a07e 573d d822 46bd 4f58 4abb
00000090: 0523 f93c 2ab2 bcbc 63bd c0bb 493e 133c
000000a0: 298d 1eba 7980 c2bb 1598 aa3b d78b 793b
000000b0: d074 90bd 37b4 76bd 602b 7f3d 7500 063d
000000c0: e3e5 0f3b daec 923c f4a9 203d 2c33 3b3a
000000d0: 5e5e 973c 669a 9f3c 0580 9a3c 915b 553b
000000e0: 3318 9d3a 4e65 353d 30df 8039 331d f83c
000000f0: e6d0 783c 7d42 1a3d ea14 423c f281 363c

bias_hh_l0 f4 [64]
0.0011917512 0.017417928 0.034823034 0.00060348865 0.017196584 0.013191319 0.017592026 0.0025550355
0.00116501 0.033211693 0.00024203653 0.022493731 0.024935843 0.010821482 0.008455393 0.0095967045
0.0010877408 0.025773715 0.024628885 0.0021497447 0.018095005 0.017254889 0.021220393 0.0031019887
0.0014602577 0.041240506 0.00028959656 0.02513959 0.039296303 0.053222936 0.005824721 0.011897419
-0.01218353 0.023911202 0.05566297 -0.023021765 0.02633606 0.022413846 -0.030894572 0.0013232304
-0.0064224587 -0.07631755 0.008445807 0.01899055 -0.08875501 -0.009611892 0.047436316 0.0053983126
0.0012477447 0.02006754 0.044824556 0.00071970385 0.021676896 0.0092863 0.023013772 0.0026742918
0.0011979007 0.05785434 0.0001292436 0.027785784 0.006781896 0.029816592 -0.0029841706 0.011167153
00000000: 8934 9c3a 0bb0 8e3c 99a2 0e3d 7033 1e3a
00000010: dadf 8c3c 6720 583c 271d 903c 6272 273b
00000020: 40b3 983a fc08 083d 30cb 7d39 c644 b83c
00000030: 4146 cc3c 964c 313c 7d88 0a3c 7f3b 1d3c
00000040: 8692 8e3a 6623 d33c 84c2 c93c bbe2 0c3b
00000050: fa3b 943c 205a 8d3c 64d6 ad3c bc4a 4b3b
00000060: 1e66 bf3a ceeb 283d fed4 9739 8bf1 cd3c
00000070: 29f5 203d 4b00 5a3d 4ddd be3b 64ed 423c
00000080: 6e9d 47bc 6de1 c33c dbfe 633d 2498 bcbc
00000090: b9be d73c 3e9d b73c 9d16 fdbc 3f70 ad3a
000000a0: 7d73 d2bb 604c 9cbd 4860 0a3c 1292 9b3c
000000b0: 30c5 b5bd 327b 1dbc 954c 423d 54e4 b03b
000000c0: 5d8b a33a af64 a43c f499 373d 82aa 3c3a
000000d0: bf93 b13c 9125 183c 6187 bc3c 2c43 2f3b
000000e0: e102 9d3a acf8 6c3d 9185 0739 039f e33c
000000f0: ab3a de3b ed41 f43c 1392 43bb 6ff6 363c
