model.pt (torch, 180068 bytes, 34 tensors)

weight_ih_l0 f4 [64, 112]
-0.0043783835 -0.012397845 -0.0038446425 -0.0049804123 -0.0096290745 -0.009874431 -0.0041713244 -0.008974931
-0.007956336 -0.010937627 -0.006766937 -0.0031824913 0.000503298 -0.00013736107 0.0024853277 -0.006572528
0.00078574993 -0.00996693 0.00702836 -0.005677822 -0.0066612167 -0.005278826 -0.00032112107 -0.0024330886
-0.008932584 -0.0012314777 -0.0051558344 -0.004228521 -0.00038119775 0.0013830451 -0.0010091094 0.00066040776
-0.003103707 -0.008266186 -0.0073050805 -0.011677811 0.00022032401 -0.002243974 0.0017795956 0.0047619897
-0.0007390209 -0.0043660454 0.0037364669 -0.004168301 -0.004109388 -0.010716581 -0.003431652 -0.004863047
-0.0017261544 -0.0026254305 0.0011419117 -0.0053064483 -0.004858016 -0.0059368187 -0.0044188257 -0.0027585868
-0.0002447951 -0.009890716 0.00070710096 -0.0050752903 0.002540227 0.001686099 0.0016845583 0.004328274
-0.0031063496 0.004176477 -0.0073707113 -0.005565307 -0.0064673023 -0.0072170524 -0.0033238824 -0.007141344
-0.0074637393 -0.0028052193 -0.008249323 -0.0065247477 -0.0045880065 -0.007936527 -0.00904661 -0.011122486
-0.007952546 -0.009537864 0.0018201626 -0.002569189 -0.0006734192 -0.007282362 -0.012124155 -0.010334961
-0.0012406014 -0.0075146933 -0.008579866 -0.0074831652 -0.0046658535 -0.010351718 -0.0018451911 -0.0067456737
-0.0047717155 -0.009570344 -0.009344778 -0.008612629 -0.0066268467 -0.0077980338 -0.0036817375 -0.0018119611
-0.0038954958 -0.006257701 -0.006167949 -0.004120231 -0.007007045 -0.0054216287 -0.010940555 -0.0042774873
0.012499647 0.009160324 0.0002551653 0.013937368 0.011754695 0.0028310188 0.008550855 0.002451374
0.008724228 0.0026414632 0.008744235 0.013362791 0.0020130072 0.003817741 0.011566328 0.01315724
0.007842296 0.007637695 0.0041020657 0.008843562 0.01229167 -0.0020074367 0.008337897 0.010835454
0.00033757422 0.012798469 0.007571585 0.00872214 0.0173987 0.008459168 -0.0005647157 -0.006100662
0.009633984 -0.015878974 -0.0013645904 0.0053746332 0.008100064 0.0020145087 0.008593298 0.00907476
0.008774065 0.0051331343 0.009592687 0.0019489041 0.0045717433 0.0027659787 0.0068177828 0.005816871
0.011020294 0.0044438993 0.012896752 0.0052221683 0.004792246 0.0030767757 0.0033682708 -0.0026586445
0.0016064848 0.00027506848 0.0038560666 0.0046363017 -9.344796e-05 0.0068538715 0.0056831916 0.009704326
-0.004953307 -0.0004684124 0.00084059517 0.02455136 0.0006858105 0.0034414146 -0.002639632 0.0006156823
0.007059805 0.0080727395 -0.00033099393 0.00448276 0.0038568513 0.004898666 -0.0011051154 0.0042009354
-0.0046979086 0.006649693 0.007393809 0.008632938 0.018117255 0.01166435 -0.007743996 -0.0012838034
0.00015007521 -0.00056951935 0.0019959207 -0.00022196294 0.0053010224 0.008552806 -0.00037313078 0.007628099
0.00072516885 0.008084899 -0.0014914983 0.0079104835 -0.0022343788 0.006506946 0.0016218575 0.00117081
0.007662802 0.0029787999 0.0043658065 -0.0034916024 -0.0035689464 0.0018451054 -0.009272091 0.009794506
0.0013366 0.004616735 0.002832388 0.021602899 -0.0019093822 -0.0012523715 0.0030229688 0.0070061143
0.0010581336 0.008240241 0.016625036 0.0031593323 0.009528083 0.012970827 0.009862253 -0.0009890331
-0.0036285743 -0.0022920922 0.016305855 0.0266313 0.0045319693 -0.004385191 -0.0013513085 0.0015791494
-0.001596046 -0.0018059682 0.009967876 0.007224163 0.005438335 0.013767951 0.005948473 -0.000933688
00000000: 8b78 8fbb 5520 4bbc 66f6 7bbb ba32 a3bb
00000010: 44c3 1dbc 5ec8 21bc 9baf 88bb 970b 13bc
00000020: 4b5b 02bc bc33 33bc 2fbd ddbb 5891 50bb
00000030: c2ef 033a 9508 10b9 e1e0 223b 5c5e d7bb
00000040: c9fa 4d3a 564c 23bc 284e e63b 060d babb
00000050: 5646 dabb 01fa acbb 245c a8b9 7474 1fbb
00000060: f959 12bc 8969 a1ba 46f2 a8bb 688f 8abb
00000070: 7fdb c7b9 4b47 b53a 1844 84ba 371f 2d3a
00000080: 9067 4bbb e66e 07bc 755f efbb 4a54 3fbc
00000090: c706 6739 a30f 13bb 5241 e93a 770a 9c3b
000000a0: daba 41ba 0b11 8fbb 83df 743b 3e96 88bb
000000b0: 0ca8 86bb 9994 2fbc 91e5 60bb 325a 9fbb
000000c0: 2140 e2ba 6a0f 2cbb 33ac 953a b7e1 adbb
000000d0: fe2f 9fbb a589 c2bb cccb 90bb 68c9 34bb
000000e0: d857 80b9 ab0c 22bc be5c 393a 9f4e a6bb
000000f0: f079 263b 1800 dd3a 66cc dc3a 32d4 8d3b
00000100: e693 4bbb d4da 883b 0286 f1bb 2e5d b6bb
00000110: aaeb d3bb 067d ecbb 7ed5 59bb ef01 eabb
00000120: 6292 f4bb c5d7 37bb 2b28 07bc 8dcd d5bb
00000130: fd56 96bb 3508 02bc 3c38 14bc 163b 36bc
00000140: 654b 02bc b344 1cbc 8692 ee3a d75f 28bb
00000150: 6688 30ba e1a0 eebb 64a4 46bc f853 29bc
00000160: ad9b a2ba d13d f6bb 9192 0cbc 5735 f5bb
00000170: 04e4 98bb 419a 29bc 57da f1ba d00a ddbb
00000180: 0d5c 9cbb efcc 1cbc d71a 19bc fc1b 0dbc
00000190: 0526 d9bb a686 ffbb 4e49 71bb 537f edba
000001a0: 934b 7fbb 670d cdbb 821c cabb 0103 87bb
000001b0: 5b9b e5bb eba7 b1bb 0340 33bc 2a2a 8cbb
000001c0: 52cb 4c3c 2f15 163c b5c7 8539 8f59 643c
000001d0: c496 403c 9d88 393b e318 0c3c 3ba7 203b
000001e0: 10f0 0e3c 661c 2d3b fb43 0f3c 9cef 5a3c
000001f0: a8ec 033b 1133 7a3b b280 3d3c 7791 573c
00000200: f97c 003c a145 fa3b 9f6a 863b 96e4 103c
00000210: 0063 493c 338f 03bb ad9b 083c 3087 313c
00000220: 72fc b039 abb0 513c 0f1b f83b 4fe7 0e3c
00000230: b887 8e3c 5298 0a3c 6e09 14ba 10e8 c7bb
00000240: dcd7 1d3c 9f14 82bc 0edc b2ba b11d b03b
00000250: 21b6 043c d905 043b e7ca 0c3c 4dae 143c
00000260: 19c1 0f3c da33 a83b a52a 1d3c 5f72 ff3a
00000270: 90ce 953b 6c45 353b b567 df3b 739b be3b
00000280: 778e 343c 219e 913b e64c 533c b91e ab3b
00000290: 4608 9d3b bba3 493b 35be 5c3b a73c 2ebb
000002a0: af90 d23a 1137 9039 10b6 7c3b 1eec 973b
000002b0: 7ef9 c3b8 7196 e03b 113a ba3b e5fe 1e3c
000002c0: 5a4f a2bb 4095 f5b9 635b 5c3a ef1f c93c
000002d0: f7c7 333a 5b89 613b adfd 2cbb bd65 213a
000002e0: f055 e73b 8643 043c 4189 adb9 1ee4 923b
000002f0: 3ac3 7c3b fd84 a03b 85d9 90ba 00a8 893b
00000300: eaf0 99bb abe5 d93b c447 f23b 2b71 0d3c
00000310: a36a 943c d41b 3f3c 59c1 fdbb 4b45 a8ba
00000320: 825d 1d39 cc4b 15ba fecd 023b b9be 68b9
00000330: 33b4 ad3b 1221 0c3c c4a0 c3b9 22f5 f93b
00000340: 4219 3e3a 8676 043c 617e c3ba f99a 013c
00000350: a86e 12bb 3838 d53b 8294 d43a dd75 993a
00000360: 3e18 fb3b f837 433b 0a0f 8f3b 5ed3 64bb
00000370: fce4 69bb 77d7 f13a f8e9 17bc 2379 203c
00000380: db30 af3a fb47 973b 969f 393b 90f8 b03c
00000390: 3c44 faba 9d26 a4ba 001d 463b 8c93 e53b
000003a0: 12b1 8a3a 1302 073c 3a31 883c cd0c 4f3b
000003b0: ad1b 1c3c 9783 543c 4a95 213c 72a2 81ba
000003c0: 60cd 6dbb ed36 16bb db93 853c e229 da3c
000003d0: ea80 943b a6b1 8fbb 641e b1ba 76fb ce3a
000003e0: 6b32 d1ba 3db6 ecba 4d50 233c acb8 ec3b
000003f0: 0f34 b23b f992 613c 68eb c23b bec2 74ba

weight_hh_l0 f4 [64, 16]
0.00066447095 0.0018529115 0.00052868226 0.0030763121 -0.0022515133 0.000625482 0.001558439 -0.00019933212
0.00031118176 -0.0019723468 0.00036710015 0.0005910142 0.0012479302 -0.0016793305 -0.0017370398 0.0013171257
0.0021230865 -0.002519287 -0.00054715015 -0.0018112466 0.001683691 -0.0062017287 -0.004492038 0.003581476
-0.0026319022 0.004233461 -0.0025764941 -0.005789936 -0.0013675811 0.002623728 0.0032298318 -0.003204224
0.00012669034 -0.0019445303 -0.0026530873 -0.001012238 0.0024597447 -0.0024008574 -0.0014602988 0.00610662
-0.0065050144 0.0012392254 -0.003095378 -0.004020531 -0.0014396785 0.002567695 0.0033493447 -0.0036864227
0.006454939 -0.0023325125 -0.00014531864 0.0032479453 0.0009188486 -0.0022037067 -0.0017954175 -0.0004462542
-0.001385237 0.0021140017 -7.715866e-05 -0.0021182215 0.00061537366 0.0010191165 -0.0012400522 0.00063838763
0.0021561729 -0.0014010832 -0.0007718907 -0.00061937433 0.0021391562 -0.0038805164 -0.0029688703 0.0027933337
-0.00078156724 0.0025384463 -0.0019191498 -0.0033632063 -0.0011107887 0.0022224097 0.0021853975 -0.0024756845
0.00072723435 -0.0038733494 -0.0024900257 -0.0014881206 0.003294801 -0.0010439266 -0.0031085906 0.002163804
-0.0027467308 0.0036140394 -0.0015085946 -0.003807264 -0.00017038628 0.0023214128 0.0022167608 -0.0024298723
0.0038994304 -0.004777606 -0.0016256343 -0.0025965336 0.0051600635 -0.0043788124 -0.0040265135 0.0015713793
-0.0049211276 0.0012471639 -0.0013939675 -0.0038185448 -0.0020935389 0.0024844648 0.0012352598 -0.0022126283
0.0007435526 -0.0050446433 -0.00637048 0.00077509484 0.005847173 -0.0021996275 -0.0021381034 0.0039260564
-0.0041442947 0.0014504564 -0.0019077421 -0.0039718933 0.00013994725 0.002891226 0.0020538084 -0.0018688152
0.0010729176 -0.003918704 -0.0026737123 -0.0018528001 0.0034000785 -0.0031272953 -0.0037832141 0.0029116326
-0.0026231424 0.004122465 -0.00257007 -0.0049353726 -0.0012569305 0.003364202 0.002989682 -0.0036104356
0.00856628 -0.0041572023 -0.0005723191 0.0014444218 0.0025157074 -0.0064257565 -0.0024025927 -0.00021517367
0.0029182816 0.0015691505 -0.0007150886 -0.004756461 0.00086110143 0.002255707 0.0007761596 -0.0013465373
0.00043163745 -0.0024164782 -0.0020755543 -0.0009916691 0.0023574103 -0.0021731083 -0.0019557949 0.0022171577
-0.003183284 0.0023301728 -0.0013555409 -0.0024669375 -0.00078824314 0.0017013096 0.0015290951 -0.0018257519
0.00073044986 -0.003596419 -0.001996835 -0.001971727 0.0031608276 -0.0036484813 -0.0038256713 0.0010519286
-0.0038096465 0.0039728447 -0.002009041 -0.0035952837 -0.0014603864 0.0025624356 0.0027690385 -0.0027375722
0.0008118913 -0.00106359 -0.00031903698 -0.00093422836 0.0007346634 -0.0009759696 -0.0002262029 0.00046130054
-0.00095989177 0.0014453086 -0.0004037918 -0.0009779629 7.164179e-05 0.000696317 0.00037937955 -0.00049823546
-0.00029306478 -0.0029294314 -0.0030434201 -0.0012799967 0.003420433 -0.0026616093 -0.0027125247 0.0024288571
-0.0032070659 0.0027963559 -0.0023844938 -0.0016400856 -0.00092305074 0.0018884274 0.0020089392 -0.0021550518
0.002677055 -0.003212153 -0.002324857 -0.00013746819 0.0023469315 -0.0027559572 -0.0019215229 0.00047159402
-0.004236057 0.002267918 -0.001136567 -0.0036267557 -0.00016950488 0.0018571655 -0.0014902079 -0.0014772234
0.0016992011 -0.0030309437 -0.0031916262 -0.0002286857 0.0025457826 -0.0026235129 -0.0026296284 0.0026648692
-0.0027779867 0.0029162427 -0.0014396396 -0.0027033691 -0.0004128143 0.0021257992 0.0015264986 -0.0018359049
00000000: e42f 2e3a 65dd f23a 4497 0a3a f49b 493b
00000010: 208e 13bb 63f7 233a 8944 cc3a cf03 51b9
00000020: 1c26 a339 7d42 01bb 5977 c039 4bee 1a3a
00000030: 9791 a33a fb1c dcba 62ad e3ba 68a3 ac3a
00000040: 7b23 0b3b 9f1a 25bb a06e 0fba 5a67 edba
00000050: 4caf dc3a df37 cbbb f231 93bb 32b7 6a3b
00000060: fe7b 2cbb d8b8 8a3b 66da 28bb 81b9 bdbb
00000070: 6840 b3ba daf2 2b3b 96ab 533b f5fd 51bb
00000080: 2ed8 0439 9cdf feba 6bdf 2dbb 12ad 84ba
00000090: ab33 213b b457 1dbb 7f67 bfba 0b1a c83b
000000a0: 0428 d5bb 816d a23a d3db 4abb a9be 83bb
000000b0: 98b3 bcba c646 283b ae80 5b3b e997 71bb
000000c0: f483 d33b 11dd 18bb ad60 18b9 7bdb 543b
000000d0: e3de 703a 106c 10bb 3754 ebba 3af7 e9b9
000000e0: d790 b5ba 108b 0a3b 3dd0 a1b8 dcd1 0abb
000000f0: 0751 213a e093 853a 3f89 a2ba 7859 273a
00000100: 944e 0d3b 8da4 b7ba b558 4aba 825d 22ba
00000110: 1631 0c3b 4350 7ebb 6191 42bb 5d10 373b
00000120: 17e2 4cba 105c 263b fb8b fbba 3d69 5cbb
00000130: e297 91ba d9a5 113b e338 0f3b 183f 22bb
00000140: dfa3 3e3a 05d8 7dbb b32f 23bb 0b0d c3ba
00000150: 97ed 573b 5dd4 88ba 7fb9 4bbb 9bce 0d3b
00000160: 7f02 34bb 85d9 6c3b 09bc c5ba 4a83 79bb
00000170: b8a9 32b9 d822 183b 1347 113b 7e3e 1fbb
00000180: 968d 7f3b 778d 9cbb 3c13 d5ba 9b2a 2abb
00000190: c015 a93b 247c 8fbb d8f0 83bb bdf6 cd3a
000001a0: 6941 a1bb e077 a33a cab5 b6ba 8d40 7abb
000001b0: c133 09bb 67d2 223b 71e8 a13a be01 11bb
000001c0: f8ea 423a 894d a5bb 76bf d0bb bc2f 4b3a
000001d0: a499 bf3b a027 10bb 6c1f 0cbb 26a6 803b
000001e0: ddcc 87bb 3e1d be3a 340d faba a826 82bb
000001f0: cebe 1239 b97a 3d3b 3099 063b 08f3 f4ba
00000200: 24a1 8c3a 7968 80bb 7339 2fbb a8d9 f2ba
00000210: dad3 5e3b 4ff3 4cbb cdef 77bb 17d1 3e3b
00000220: 07e9 2bbb be15 873b 9f6e 28bb e8b8 a1bb
00000230: 97bf a4ba f279 5c3b 8aee 433b 0f9d 6cbb
00000240: 9559 0c3c 2439 88bb af07 16ba c152 bd3a
00000250: 91de 243b 278f d2bb d174 1dbb 3ea0 61b9
00000260: a440 3f3b f4ab cd3a c974 3bba 16dc 9bbb
00000270: 8abb 613a 7cd4 133b 3077 4b3a 4b7e b0ba
00000280: 664d e239 c75d 1ebb 0606 08bb e5fa 81ba
00000290: c87e 1a3b b56a 0ebb cb2c 00bb bc4d 113b
000002a0: a59e 50bb d0b5 183b 68ac b1ba 58ac 21bb
000002b0: 1aa2 4eba 7afe de3a eb6b c83a 114e efba
000002c0: a97b 3f3a e6b1 6bbb 55dd 02bb 1738 01bb
000002d0: e325 4f3b 5c1b 6fbb 1db8 7abb dee0 893a
000002e0: 43ab 79bb a32e 823b 1daa 03bb da9e 6bbb
000002f0: 706a bfba 89ee 273b c278 353b d768 33bb
00000300: 1ad5 543a 2968 8bba 6b44 a7b9 01e7 74ba
00000310: 6d96 403a 36d8 7fba e130 6db9 b6da f139
00000320: 3fa1 7bba 8270 bd3a 05b4 d3b9 fd2e 80ba
00000330: 653e 9638 0b89 363a 76e7 c639 049c 02ba
00000340: 7da6 99b9 b4fb 3fbb 1e74 47bb 90c5 a7ba
00000350: 5829 603b 656e 2ebb 9dc4 31bb 762d 1f3b
00000360: a32d 52bb 1143 373b 2b45 1cbb 24f8 d6ba
00000370: e3f8 71ba 1c85 f73a 68a8 033b c53b 0dbb
00000380: 8871 2f3b fc82 52bb a15c 18bb 5625 10b9
00000390: face 193b 4a9d 34bb 9cdb fbba 4740 f739
000003a0: 9fce 8abb 5aa1 143b dcf8 94ba ddae 6dbb
000003b0: 1fbd 31b9 226c f33a 1453 c3ba 649f c1ba
000003c0: bab7 de3a cca2 46bb 9a2a 51bb 5acb 6fb9
000003d0: 25d7 263b 3eef 2bbb d855 2cbb 16a5 2e3b
000003e0: e20e 36bb 6f1e 3f3b 4ab2 bcba 022b 31bb
000003f0: ff6e d8b9 fe50 0b3b cb14 c83a bfa2 f0ba

bias_ih_l0 f4 [64]
0.0043051187 0.010822229 0.008815161 0.0073541305 0.012109001 0.009385736 0.019475782 0.011052459
0.014472021 -0.008557312 0.0041720574 0.0045894915 0.0023821977 0.0050773844 0.015631307 0.010672048
0.015549867 0.011894691 0.0025480778 0.022423506 0.016422788 0.007638634 0.021132289 0.013011785
0.017296748 0.012634251 0.0049418635 0.018722594 0.0015906692 0.0058878697 0.01701086 0.012655993
0.03944281 0.03082121 -0.0360547 0.07637341 -0.012175881 -0.015484212 0.059416253 0.0011347266
0.047336027 0.01075142 0.013005466 -0.07198461 0.04750596 -0.002624448 -0.028156705 -0.022601658
0.0144245485 -0.010808023 0.0033607932 0.02560902 0.028923824 0.0031020641 0.053762656 0.0106286155
0.030071132 -0.0031806224 0.0065374584 0.015014458 0.002697632 0.011831526 0.021412972 0.018118966
00000000: f411 8d3b b84f 313c 776d 103c ebfa f03b
00000010: d564 463c a1c6 193c ad8b 9f3c 5f15 353c
00000020: 0e1c 6d3c f833 0cbc c1b5 883b 7263 963b
00000030: a51e 1c3b 3060 a63b 3a0d 803c d0d9 2e3c
00000040: dfc4 7e3c f3e1 423c a7fd 263b 80b1 b73c
00000050: 1589 863c 824d fa3b 9f1d ad3c 622f 553c
00000060: e9b1 8d3c e4ff 4e3c 5bef a13b 2060 993c
00000070: 007e d03a 08ef c03b 5c5a 8b3c 155b 4f3c
00000080: c98e 213d c37c fc3c 18ae 13bd aa69 9c3d
00000090: 597d 47bc 7eb1 7dbc 755e 733d 1bbb 943a
000000a0: 6ce3 413d b926 303c e114 553c ab6c 93bd
000000b0: 9c95 423d eefe 2bbb e4a8 e6bc 1d27 b9bc
000000c0: f154 6c3c 2214 31bc c140 5c3b 02ca d13c
000000d0: a8f1 ec3c 004c 4b3b 3b36 5c3d a523 2e3c
000000e0: bc57 f63c fd71 50bb 2d38 d63b 34ff 753c
000000f0: c1ca 303b 04d9 413c 426a af3c 3a6e 943c

bias_hh_l0 f4 [64]
0.0125630535 0.009776635 0.019357685 0.022022456 0.009928056 0.00612807 0.00430317 0.015298752
0.009239741 0.030629292 0.004172146 0.007323223 0.0041761333 0.003771287 0.014847782 0.010453188
0.017190713 0.0034492079 0.023421386 0.031316668 0.010757118 0.007539467 0.008034852 0.025206937
0.029684864 0.0029360491 0.004947175 0.009505127 0.0015839223 0.0076979226 0.018297916 0.013145404
-0.019979931 0.059147283 0.0038016548 -0.038378783 -0.07924417 0.04533674 0.100745805 -0.07579024
0.04604164 -0.07899987 -0.017182166 0.04787884 -0.00047680803 0.008312496 -0.013574452 -0.027350571
0.016396884 0.036604054 0.0192463 0.036803026 0.028945323 0.011212221 0.047352176 0.054201353
0.02437536 0.060583923 0.006496262 0.02498196 0.0027419778 0.0076207677 0.024264231 0.008574013
00000000: 44d5 4d3c 2e2e 203c 0294 9e3c 7068 b43c
00000010: 49a9 223c facd c83b 9b01 8d3b 9ea7 7a3c
00000020: 4862 173c 48ea fa3c 7fb6 883b a6f7 ef3b
00000030: f2d7 883b b227 773b 1d44 733c d943 2b3c
00000040: 8ad3 8c3c 1b0c 623b 35de bf3c e845 003d
00000050: a03e 303c a20d f73b 9da4 033c c77e ce3c
00000060: ac2d f33c bb6a 403b e91b a23b 64bb 1b3c
00000070: 9d9b cf3a db3e fc3b 83e5 953c d25f 573c
00000080: f4ac a3bc 6c44 723d 2f25 793b 1233 1dbd
00000090: c44a a2bd 04b3 393d d153 ce3d ea37 9bbd
000000a0: 2996 3c3d afca a1bd 9dc1 8cbc 9a1c 443d
000000b0: 17fc f9b9 2331 083c 6167 5ebc 4e0e e0bc
000000c0: c252 863c 22ee 153d 6baa 9d3c c5be 163d
000000d0: be1e ed3c 77b3 373c 5bf4 413d 3d02 5e3d
000000e0: d6ae c73c d926 783d 98de d43b f8a6 cc3c
000000f0: c1b2 333b a2b7 f93b c8c5 c63c 047a 0c3c

weight_ih_l1 f4 [64, 16]
0.016111514 -0.018138792 -0.009918076 -0.003995724 0.017089296 -0.027429644 -0.0109482445 0.036182802
0.0065881866 0.024909638 -0.0090011945 -0.037492253 -0.001507773 0.015708826 0.027564036 -0.006157692
0.011890996 -0.0073373453 -0.015861599 0.0069021326 0.018729918 -0.024357507 -0.010708774 0.02142321
-0.020341005 0.016784063 -0.014243601 -0.029604927 0.00068010244 0.0029588444 0.01384736 -0.016222322
0.009137241 -0.012620194 -0.016410248 -0.003252724 0.013207786 -0.019931007 -0.027952777 0.01823131
-0.011874437 0.010249681 -0.012048431 -0.019285642 -0.0023421077 0.017375348 0.017801506 0.0053999396
0.008835778 -0.010118733 -0.010411024 0.00083828793 0.0075079054 -0.008298135 0.0017294895 0.006294773
-0.0052219443 0.004108814 -0.002918775 -0.01314084 0.0035660204 0.009090992 0.0059328955 -0.0053173066
-3.496098e-05 -0.007404537 -0.00730455 -0.0040599634 0.0029147186 -0.007948846 -0.008152469 0.009626253
-0.008673433 0.009789192 -0.0045648785 -0.011068732 -0.0021482012 0.005676055 0.006977178 -0.0009128377
0.005888618 -0.01261433 -0.0045036417 -0.0016103715 0.009856575 -0.015397837 -0.013954727 0.0136633925
-0.008929677 0.013031467 -0.007940662 -0.014211917 -0.0014371657 0.0009015711 0.018224081 -0.011774193
0.0018060792 -0.0032620158 -0.02843869 -0.00026260072 0.024237411 -0.03499682 -0.023844102 0.018834027
-0.033861227 0.045501012 -0.010761653 -0.03843455 -0.0052105407 -0.0048260614 0.00032214136 -0.02080876
0.014819606 -0.01640265 -0.022692546 -0.008184966 0.023951402 -0.00023349994 -0.046257686 0.018787755
0.0027615863 -0.0010512061 -0.009587476 -0.019259874 0.007332526 0.013398291 0.020337382 -0.029383829
-0.0024971224 -0.040769108 0.0006868484 0.035478998 -0.021530177 -0.04580627 0.00016705209 0.03718316
-0.08305327 0.049636535 -0.016327424 -0.051188726 0.0034528193 -0.018715423 0.032024655 -0.02384725
0.00047149535 -0.008480643 -0.007632379 -0.0039338185 0.007411769 -0.008011963 -0.008138792 0.007871305
-0.009385353 0.0049668755 -0.005156412 -0.009227961 -0.0025428655 0.0065445355 0.0067289486 -0.0076892744
0.03339108 -0.00015511624 -0.0076563223 0.03810867 -0.0051349048 -0.02936357 -0.043950178 0.030202055
-0.0039458163 0.00021693418 -0.0061617997 -0.032073826 -0.002084987 0.013453207 0.014563603 -0.03311124
0.00027587998 -0.0030450828 -0.001682911 -0.0016812196 0.0027095147 -0.0029150562 -0.002896747 0.0030209373
-0.0037563534 0.0032235577 -0.002047765 -0.0030287816 -0.0014923195 0.0022369444 0.002416057 -0.0025516113
0.0027893346 -0.019567525 -0.029185573 -0.008046244 0.026984332 -0.021533612 -0.0017257591 -0.005091325
-0.026712868 0.02567663 -0.012073046 -0.014835859 -0.0014359228 0.0026995677 0.021599598 -0.013983206
0.00972011 -0.009632838 -0.019921316 0.0029409851 0.011860544 -0.01917923 -0.016565505 0.031503253
-0.021290751 0.0014247919 -0.009847692 -0.015735725 -0.0016501923 0.0029771258 0.012536441 0.007351328
0.00062584184 9.4626404e-05 0.000833677 0.000583202 0.00017367113 -0.0003173706 0.00030268816 0.0005324706
-0.00088052585 -0.0005194408 -0.00027345333 -0.00017878809 0.00017674512 2.616711e-05 -0.00012156322 -2.7600287e-05
0.0038350571 -0.012034753 -0.0137366755 0.00072943146 0.012168596 -0.011694143 -0.010351972 0.014784403
-0.011146992 0.009458675 -0.00732496 -0.012590703 -0.0025200348 0.009343756 0.013433823 -0.011472506
00000000: 4bfc 833c ce97 94bc 6d7f 22bc 90ee 82bb
00000010: dafe 8b3c 22b4 e0bc 4460 33bc 6b34 143d
00000020: b7e1 d73b 4c0f cc3c bf79 13bc 7a91 19bd
00000030: 77a0 c5ba ccaf 803c f9cd e13c 77c6 c9bb
00000040: 74d2 423c 1d6e f0bb 2ff0 81bc 492b e23b
00000050: 7c6f 993c 6589 c7bc db73 2fbc ba7f af3c
00000060: 2ea2 a6bc bb7e 893c fe5d 69bc 0886 f2bc
00000070: e748 323a 2ce9 413b 0ae0 623c ade4 84bc
00000080: 5eb4 153c eec4 4ebc c96e 86bc a72b 55bb
00000090: 7865 583c 5a46 a3bc 39fd e4bc d459 953c
000000a0: 008d 42bc 47ee 273c c866 45bc ecfc 9dbc
000000b0: 0c7e 19bb bf56 8e3c 77d4 913c faf1 b03b
000000c0: f0c3 103c 0bc9 25bc 0093 2abc 8dc0 5b3a
000000d0: e004 f63b e7f4 07bc 0ab0 e23a 6244 ce3b
000000e0: d81c abbb 3ba3 863b eb48 3fbb ae4c 57bc
000000f0: e5b3 693b 62f2 143c bc68 c23b cd3c aebb
00000100: 11a3 12b8 c2a1 f2bb 025b efbb 7109 85bb
00000110: dd04 3f3b e03b 02bc ef91 05bc 6eb7 1d3c
00000120: 041b 0ebc d962 203c fa94 95bb a059 35bc
00000130: d6c8 0cbb 33fe b93b d0a0 e43b 804b 6fba
00000140: 4ff5 c03b 56ac 4ebc 4993 93bb 1a13 d3ba
00000150: 797d 213c 3647 7cbc 5ea2 64bc 6cdc 5f3c
00000160: c84d 12bc ef81 553c 8d19 02bc 1ad9 68bc
00000170: 475f bcba 6a57 6c3a ab4a 953c 8be8 40bc
00000180: f6b9 ec3a 8bc7 55bb 41f8 e8bc acad 89b9
00000190: 898d c63c d358 0fbd b554 c3bc d149 9a3c
000001a0: 12b2 0abd 455f 3a3d a551 30bc 8c6d 1dbd
000001b0: 2fbd aabb f023 9ebb 15e5 a839 2277 aabc
000001c0: efcd 723c da5e 86bc b8e5 b9bc 3c1a 06bc
000001d0: bb35 c43c aad7 74b9 b378 3dbd c7e8 993c
000001e0: bbfb 343b a0c8 89ba ca14 1dbc e2c6 9dbc
000001f0: b045 f03b 8184 5b3c 959a a63c 5bb6 f0bc
00000200: c3a6 23bb 82fd 26bd 9e0d 343a 6d52 113d
00000210: 0e60 b0bc 5b9f 3bbd b42a 2f39 5f4d 183d
00000220: d517 aabd ae4f 4b3d 17c1 85bc 45ab 51bd
00000230: b248 623b 1651 99bc 492c 033d 4f5b c3bc
00000240: 0933 f739 65f2 0abc 0919 fabb 43e7 80bb
00000250: 6dde f23b 9c44 03bc 9158 05bc a5f6 003c
00000260: 06c5 19bc 2cc1 a23b 1ef7 a8bb e030 17bc
00000270: 34a6 26bb 8b73 d63b 837e dc3b 4ff6 fbbb
00000280: 16c5 083d b3a6 22b9 e3e1 fabb d617 1c3d
00000290: b442 a8bb df8b f0bc 1a05 34bd 4d6a f73c
000002a0: e84b 81bb d378 6339 ece8 c9bb d85f 03bd
000002b0: 47a4 08bb d76a 5c3c 2e9c 6e3c a79f 07bd
000002c0: fca3 9039 0390 47bb 1f95 dcba 5e5c dcba
000002d0: 1d92 313b 870a 3fbb 5ad7 3dbb ebfa 453b
000002e0: 272d 76bb 5342 533b cc33 06bb 867e 46bb
000002f0: ef99 c3ba b399 123b b656 1e3b ef38 27bb
00000300: 45cd 363b 134c a0bc 9516 efbc 65d4 03bc
00000310: 3f0e dd3c 4267 b0bc de32 e2ba 21d5 a6bb
00000320: f2d4 dabc cc57 d23c 06ce 45bc 1a12 73bc
00000330: 9335 bcba 3beb 303b a4f1 b03c d119 65bc
00000340: 1941 1f3c 0dd3 1dbc 0732 a3bc 8bbd 403b
00000350: ba52 423c c31d 9dbc 62b4 87bc 8e09 013d
00000360: f169 aebc 15c0 ba3a 3758 21bc 35e8 80bc
00000370: 444b d8ba e21b 433b a565 4d3c 69e3 f03b
00000380: 890f 243a 2a72 c638 1e8b 5a3a 06e2 183a
00000390: 7d1b 3639 c364 a6b9 1eb2 9e39 7f95 0b3a
000003a0: 17d3 66ba 152b 08ba 495e 8fb9 1079 3bb9
000003b0: a854 3939 7181 db37 c2ef feb8 2a87 e7b7
000003c0: 9555 7b3b 6a2d 45bc cb0f 61bc 5137 3f3a
000003d0: ca5e 473c ca98 3fbc 519b 29bc 483a 723c
000003e0: e0a1 36bc 8ff8 1a3c 3806 f0bb 3c49 4ebc
000003f0: 2b27 25bb 8e16 193c 8a19 5c3c 2ef7 3bbc

weight_hh_l1 f4 [64, 16]
0.008175773 0.0050375513 -0.006787899 -0.0013911173 0.008080296 -0.0058943015 -0.019141933 -0.006743633
0.021854753 -0.008398276 -0.0021935785 0.0024551621 0.0014080729 0.006009983 -0.0018564495 -0.005011703
0.007959581 0.00768461 -0.006372431 -0.0018957924 0.007430681 -0.011096442 -0.015127665 -0.006070197
0.012081164 -0.0057946546 -0.006364329 0.0024901377 -0.014762035 0.006332482 -0.0009987863 -0.006183978
0.014540595 0.008684971 -0.009255222 -0.0027662443 0.0067697754 -0.0075488086 -0.012274515 -0.006714548
0.008116623 -0.0057486147 -0.004162243 0.0026992587 -0.013613232 0.0040716017 -0.0012395246 -0.005587253
0.008583366 0.003169218 -0.0034919884 -0.00079861813 0.0043715937 -0.0033985705 -0.0024707625 -0.0014452866
-0.004028339 -0.0035044204 -0.002778772 0.0014125229 -0.006282915 0.0037188635 -0.0015275178 -0.0029492984
0.0036716259 0.0036901378 -0.003174719 -0.0025472185 0.0020142894 -0.002777237 -0.0047424976 -0.0029735602
0.0013476731 -0.0010310796 -0.0030227962 0.0010188755 -0.0041263243 0.003336863 0.00020064009 -0.0022363495
0.0052423226 0.004390701 -0.007016623 -0.0014956575 0.004267104 -0.0036791493 -0.0058091828 -0.004038901
0.005268532 -0.0030178535 -0.0023468356 0.0022425465 -0.0073761838 0.0038604906 -0.0012573559 -0.0025044773
0.004455571 0.005196863 -0.007269559 -0.0054376526 0.0057857153 -0.005212941 -0.013650791 -0.0062165335
0.006954367 -0.0051901145 -0.0063235383 0.0023810787 -0.011143284 0.007790972 1.1955974e-05 -0.0075346325
0.0025478802 0.0083193015 -0.006053962 -0.0034682925 0.008741879 -0.006450183 -0.017755069 -0.009863912
0.010431058 -0.0059632063 -0.003575452 0.0023514475 -0.003607381 0.012015103 -0.003034799 -0.007780101
-0.0109111685 -0.0017282919 -0.010852647 0.004909297 0.010725745 -0.006343 -0.04646317 -0.0005598091
-0.055826988 -0.0076832 0.012956636 0.0030267234 -0.024820948 -0.013227112 -0.0046514897 -0.0029854577
0.004116767 0.0040185614 -0.0035794773 -0.0023456693 0.0025968126 -0.003218305 -0.005352728 -0.003949507
0.005076532 -0.0025954647 -0.003288701 0.0014852817 -0.004747629 0.0037082643 0.00045303683 -0.002993527
0.0032695567 0.006258017 -0.0076608625 0.00027156793 0.011496751 -0.0003452304 -0.033035193 -0.006713977
-0.0012312321 -0.0050092572 -0.014043475 0.0031149434 -0.014452132 0.0064499504 -0.0031115375 -0.0043853545
0.0016250957 0.0015151309 -0.0015656147 -0.00087458285 0.0013713463 -0.0013683774 -0.0019630613 -0.0023246203
0.0019108173 -0.0011932194 -0.0012695865 0.0007944966 -0.0018686702 0.0016440133 6.486247e-05 -0.0013027912
0.009149763 0.01149712 -0.007946301 -0.004516495 0.008622296 -0.006208226 -0.017248197 -0.007842397
0.013799652 -0.0059043565 -0.009894396 0.0018523287 -0.011840118 0.006844258 -0.00012634031 -0.0058132843
0.0067992383 0.0064539644 -0.0048769265 -0.0035756454 0.0038677487 -0.005308991 -0.00949643 -0.005338235
-0.0007085664 -0.0038928618 -0.002722221 0.0021218911 -0.010057643 0.0057995045 -0.001982577 -0.0022194472
2.615272e-05 -0.00027477677 -0.0001003833 -0.00016546731 0.00019559271 -1.5086733e-05 -0.00016929576 0.00011982458
-0.00053882936 -4.2213247e-05 0.00028746785 8.467103e-05 0.0004550014 -0.00023552093 -0.00020867091 -2.1638407e-05
0.0058657303 0.003956271 -0.0020956344 -0.0027542762 0.0043031187 -0.004098918 -0.0091980565 -0.004616454
0.0064673857 -0.0036495463 -0.0032537368 0.0016573012 -0.0070733363 0.0025267303 -0.0006369974 -0.0038018625
00000000: adf3 053c 0b12 a53b 066d debb 2756 b6ba
00000010: 3863 043c fc24 c1bb 8bcf 9cbc b2f9 dcbb
00000020: bd08 b33c ec98 09bc 24c2 0fbb c9e6 203b
00000030: 168f b83a 64ef c43b 1c54 f3ba 3639 a4bb
00000040: e768 023c 2ecf fb3b d3cf d0bb 3d7c f8ba
00000050: 127d f33b dacd 35bc 07da 77bc 81e8 c6bb
00000060: 13f0 453c 16e1 bdbb dc8b d0bb 9431 233b
00000070: 76dc 71bc b680 cf3b b5e9 82ba f8a2 cabb
00000080: ad3b 6e3c 694b 0e3c 37a3 17bc e149 35bb
00000090: fed4 dd3b ff5b f7bb 0c1b 49bc b605 dcbb
000000a0: 96fb 043c e05e bcbb 6d63 88bb 0ce6 303b
000000b0: 090a 5fbc 126b 853b 8b77 a2ba 4615 b7bb
000000c0: 3fa1 0c3c a8b2 4f3b d8d9 64bb 5b5a 51ba
000000d0: 963f 8f3b 8dba 5ebb 84ec 21bb c56f bdba
000000e0: 2800 84bb 6baa 65bb 0f1c 36bb 6724 b93a
000000f0: e9e0 cdbb 2db8 733b fe36 c8ba 0449 41bb
00000100: a99f 703b 3dd6 713b f20e 50bb 3cef 26bb
00000110: 2b02 043b 4e02 36bb f466 9bbb 10e0 42bb
00000120: 68a4 b03a 4a25 87ba 1b1a 46bb ca8b 853a
00000130: 1e36 87bb 45af 5a3b ea62 5239 b88f 12bb
00000140: cac7 ab3b dfdf 8f3b b3eb e5bb f009 c4ba
00000150: 10d3 8b3b e21d 71bb f55a bebb c258 84bb
00000160: a6a3 ac3b 2ec7 45bb 5ecd 19bb b0f7 123b
00000170: eab3 f1bb 4900 7d3b ddcd a4ba 2822 24bb
00000180: 0a00 923b 724a aa3b 7b35 eebb 562e b2bb
00000190: 1996 bd3b 52d1 aabb 91a7 5fbc 10b4 cbbb
000001a0: 75e1 e33b d611 aabb af35 cfbb df0b 1c3b
000001b0: 5292 36bc 694b ff3b 8496 4837 14e5 f6bb
000001c0: 56fa 263b ae4d 083c 5060 c6bb 4b4c 63bb
000001d0: 193a 0f3c 0f5c d3bb 1473 91bc 3f9c 21bc
000001e0: 07e7 2a3c 0067 c3bb 2152 6abb be1a 1a3b
000001f0: cf69 6cbb ffda 443c 7ae3 46bb 38f0 febb
00000200: c2c4 32bc da87 e2ba 4dcf 31bc 2bde a03b
00000210: 09bb 2f3c f1d8 cfbb 2a50 3ebd 27c0 12ba
00000220: d7aa 64bd 5ac3 fbbb 1248 543c fe5b 463b
00000230: 4d55 cbbc 87b6 58bc 866b 98bb aba7 43bb
00000240: f2e5 863b 23ae 833b aa95 6abb cdb9 19bb
00000250: 492f 2a3b 33ea 52bb f065 afbb de6a 81bb
00000260: 0959 a63b ac18 2abb 3f87 57bb c9ad c23a
00000270: 0092 9bbb 5a06 733b 9385 ed39 0d2f 44bb
00000280: 0f46 563b 0d10 cd3b f907 fbbb 3b61 8e39
00000290: de5c 3c3c 0a00 b5b9 e94f 07bd ec00 dcbb
000002a0: 4b61 a1ba b224 a4bb 9a16 66bc 1424 4c3b
000002b0: a3c8 6cbc 1b5a d33b f0ea 4bbb 05b3 8fbb
000002c0: 2a01 d53a 5b97 c63a 5035 cdba 4344 65ba
000002d0: bfbe b33a 205b b3ba b4a6 00bb a858 18bb
000002e0: 6474 fa3a cd65 9cba 4168 a6ba c445 503a
000002f0: 2bee f4ba ef7b d73a c606 8838 6bc2 aaba
00000300: e3e8 153c 6b5e 3c3c 3431 02bc 1bff 93bb
00000310: 8844 0d3c 606e cbbb 174c 8dbc 667d 00bc
00000320: f017 623c 5579 c1bb 1b1c 22bc d6c9 f23a
00000330: 0efd 41bc cc45 e03b 387a 04b9 5d7d bebb
00000340: 25cc de3b c77b d33b a0ce 9fbb 6055 6abb
00000350: 0e7a 7d3b 0bf7 adbb ea96 1bbc 5cec aebb
00000360: 16bf 39ba 621f 7fbb 4a67 32bb 6d0f 0b3b
00000370: d0c8 24bc c509 be3b 1fee 01bb 2574 11bb
00000380: 8a62 db37 ea0f 90b9 e084 d2b8 4b81 2db9
00000390: 0518 4d39 061d 7db7 fc84 31b9 554a fb38
000003a0: 3a40 0dba 210e 31b8 48b7 9639 6a91 b138
000003b0: 418d ee39 2bf6 76b9 acce 5ab9 2084 b5b7
000003c0: 5035 c03b 9ba3 813b e956 09bb 1681 34bb
000003d0: 2d01 8d3b 3750 86bb 72b3 16bc 9f45 97bb
000003e0: 5dec d33b 3a2d 6fbb a53c 55bb cd39 d93a
000003f0: 72c7 e7bb 8097 253b 2cfc 26ba ab28 79bb

bias_ih_l1 f4 [64]
0.04066545 0.05992136 0.03341518 0.007599841 0.016327785 0.036638178 0.018509682 0.018255176
0.0026517303 0.014308363 0.09060305 0.0048956624 0.06919985 0.014365541 0.0014857443 0.02758317
-0.012152893 0.014419179 0.016157646 0.03441 0.023873705 0.025926357 -0.019189013 0.13108931
0.16085868 0.010841356 0.0367722 0.0043943077 0.023261098 0.033576246 0.0028370887 0.031006325
-0.14466394 0.054781415 -0.04092237 0.08032384 0.08143122 0.17207839 -0.08968453 0.13969634
-0.14244227 -0.03567115 0.0047343667 0.0428111 -0.08405697 -0.09997975 -0.084566765 0.09004575
0.09796844 0.10051536 0.023266627 0.0028731907 0.025577055 0.05779587 0.037749607 -0.020401502
0.17083184 0.015222237 0.0969054 0.0051181978 0.0020620478 0.068831064 0.0028082512 0.03231399
00000000: d190 263d 1a70 753d 5bde 083d 1608 f93b
00000010: d9c1 853c ea11 163d 9ea1 973c e18b 953c
00000020: a7c8 2d3b a06d 6a3c 188e b93d cb6b a03b
00000030: a7b8 8d3d 725d 6b3c 4ebd c23a 1af6 e13c
00000040: ed1c 47bc 6c3e 6c3c 0a5d 843c 80f1 0c3d
00000050: ca92 c33c 8363 d43c 4732 9dbc 473c 063e
00000060: 23b8 243e f19f 313c 729e 163d 20fe 8f3b
00000070: 0f8e be3c 3f87 093d 73ee 393b fa00 fe3c
00000080: c922 14be 7a62 603d 379e 27bd d380 a43d
00000090: 69c5 a63d 5135 303e 86ac b7bd 8f0c 0f3e
000000a0: 63dc 11be e91b 12bd bf22 9b3b b15a 2f3d
000000b0: 1026 acbd 2fc2 ccbd 5731 adbd e869 b83d
000000c0: ada3 c83d ffda cd3d a799 be3c 244c 3c3b
000000d0: f986 d13c 5dbb 6c3d 559f 1a3d 0d21 a7bc
000000e0: 8bee 2e3e b166 793c 5776 c63d 8eb6 a73b
000000f0: 6c23 073b 4df7 8c3d a30a 383b ad5b 043d

bias_hh_l1 f4 [64]
0.028621951 0.06259492 0.033259176 0.01835853 0.013248728 0.04071591 0.050213106 0.07149963
0.06742821 0.008825892 -0.019571034 0.0048898635 0.052191295 0.06448071 0.0028724256 0.030376187
-0.0051865075 -0.014933533 0.06954553 0.06970792 0.008078982 0.0130894175 0.059314758 0.1260607
0.1782563 0.013110118 0.030771539 0.0043998873 0.040369388 0.028117135 0.0026095088 0.04014281
0.13946842 -0.19126834 0.15660024 0.13365948 0.03817586 -0.09056095 -0.13765141 0.011214572
-0.070660196 -0.043340053 0.14374854 -0.03955083 0.014812578 0.0717527 -0.05933886 -0.013152113
0.017214436 0.11724183 0.048354097 -0.024108583 0.018509822 0.04303136 -0.054298308 0.029193658
0.22687598 0.015535791 0.008557943 0.0051178173 0.032584693 0.06723415 0.0016880078 0.03432685
00000000: 9578 ea3c c431 803d c63a 083d a164 963c
00000010: 3111 593c bac5 263d 42ac 4d3d 666e 923d
00000020: cd17 8a3d 799a 103c 6f53 a0bc 263b a03b
00000030: 8ac6 553d 760e 843d 4e3f 3c3b 7bd7 f83c
00000040: 94f3 a9bb c7ab 74bc e36d 8e3d 07c3 8e3d
00000050: b55d 043c ff74 563c 08f4 723d 0e16 013e
00000060: d288 363e d2cb 563c 9814 fc3c ee2c 903b
00000070: 5f5a 253d e855 e63c 4b04 2b3b ca6c 243d
00000080: cfd0 0e3e d9db 43be d05b 203e 08de 083e
00000090: 4a5e 1c3d 0578 b9bd 7ef4 0cbe 53bd 373c
000000a0: 4bb6 90bd 5785 31bd d132 133e 0d00 22bd
000000b0: 75b0 723c 14f3 923d 4e0d 73bd f67b 57bc
000000c0: 4a05 8d3c 7c1c f03d f20e 463d 5d7f c5bc
000000d0: e9a1 973c a741 303d e767 5ebd 8a27 ef3c
000000e0: 2d52 683e d589 7e3c 9d36 0c3c 5db3 a73b
000000f0: 8777 053d 0fb2 893d 2540 dd3a 509a 0c3d

weight_ih_l0 f4 [64, 112]
1.7408934e-06 0.000683726 0.00010037156 0.0010800976 0.0004988304 0.00030333077 0.001360692 0.00013664566
8.3030194e-05 0.00073604286 0.0018552569 5.9156464e-05 0.0033565066 -0.00022613638 0.0006381755 -9.054935e-05
0.0004172584 0.00033014448 0.00034869474 0.001198702 0.00044659228 0.00020741211 -0.00043596156 4.7894962e-05
0.00024224391 0.00058743876 0.00042560208 0.00023516115 0.0005299735 0.0008131338 0.00026410876 0.00025315516
0.0008879071 -4.9929917e-05 0.0022786984 0.00021971368 0.0008666084 0.000110152025 -9.368183e-05 -0.0012778478
-0.00019829955 -0.00027690094 0.00083865615 0.0010727226 0.0007922516 -4.657407e-05 0.00015604643 -0.0007833782
0.0001166319 0.0005398644 0.0006811435 0.00015903111 0.0007092844 0.00026288637 0.00030643307 0.0005170149
0.00037851257 -2.5795243e-06 0.0010846511 -0.00034349467 0.0010516025 0.0009994128 0.0007488783 0.0007989387
0.0003566717 0.0006861962 2.8337763e-05 0.00094773417 0.00012069409 0.00026263675 2.7484662e-05 -0.0010128404
0.00017186947 0.00085266307 0.001625219 0.0019370728 0.0014792306 0.0026931574 0.00019573451 9.614486e-05
0.00015347076 0.0010436096 0.0005943831 0.00066968286 0.0011704095 -0.00033097604 -0.00024428742 -0.0003158921
-0.00023356584 -0.00040960792 -0.00050870137 0.0004962524 -0.00028847912 -6.202022e-05 -0.0003925431 0.00068348454
-0.0001215682 0.00052668335 0.00064260955 0.0008413122 0.0012985964 0.0007268693 0.0007987097 0.0015737356
0.0016920365 0.0013967715 0.0015667587 0.00052545924 0.000848961 0.0011256492 0.0012292878 0.0016972395
0.00316278 -0.0012853689 0.002856187 0.0013944024 0.011500117 0.00801855 0.0059985756 0.0012245405
0.00072258443 0.0007556997 0.014477892 0.007924926 0.011690052 -0.0025529827 0.0019016572 -0.006100723
0.0010196579 -0.003998296 -0.0011535648 0.00674944 0.0014163506 -0.0012040792 -0.0005922425 -0.0029911972
0.0011099448 -0.00024582824 4.196295e-06 0.004273588 0.0012076411 -0.0008803539 -0.001758066 0.004164691
0.0050443443 0.012823941 0.0058458787 -0.00047967417 0.0037831664 0.0015239606 0.0024431557 0.00032866737
-0.002257073 -0.00055902154 0.004937383 2.8668837e-05 0.0024068204 0.00572643 -0.0010088353 0.00037833225
0.0030906484 0.00044037792 0.008088171 0.0007591194 0.0003060753 -0.00042067113 -0.0019912822 0.0042421175
0.0007916314 0.0019581867 0.006535484 -0.0044839596 0.0066015143 0.0061374274 0.009112714 0.0060796877
0.0010573856 0.002899632 0.0041737934 0.0025064133 -0.001926011 0.0009247335 0.003456937 -0.00055350695
-0.00086834625 0.005587167 0.0037183021 0.003963494 0.0051551997 0.0026578514 0.002802829 0.0019862475
0.0035839912 0.003875932 0.0066514136 0.0033916247 0.0040214336 -0.00058209803 0.0018205887 0.0008036519
0.004006991 0.003953153 0.00042461505 0.0025853922 0.0031555167 -0.0016273081 -0.0012894935 0.004932867
0.001478454 -0.001576044 0.006680672 0.0059785377 0.0038560445 0.0018889251 0.007197154 0.0036791142
0.0025587478 0.004218975 0.0031188964 0.003519238 0.00756916 0.004607674 0.00045830378 0.0031777998
0.0058675017 0.0007977331 -0.008784723 -0.0054510385 0.0025191593 0.006278927 0.010323941 0.0008951071
0.0020150398 0.0015193428 0.0030669863 -0.0021714512 0.0066542695 -0.005489214 -0.0044906978 0.002983589
-0.0029657928 0.0017308529 0.0008847427 0.011744526 0.0057057324 -0.0016090982 0.0007319397 -0.005457678
0.00026343632 -0.005245919 0.0022356594 -0.008110783 0.0067095337 0.0009563568 0.0018213234 0.005940157
00000000: a4a8 e935 133c 333a 927e d238 1092 8d3a
00000010: f1c3 023a 5e08 9f39 3f59 b23a 8a48 0f39
00000020: 7f20 ae38 00f3 403a 172c f33a c51e 7838
00000030: d6f8 5b3b 061f 6db9 3c4b 273a 50e5 bdb8
00000040: 79c3 da39 3e17 ad39 04d1 b639 c41d 9d3a
00000050: 9a24 ea39 c47c 5939 c591 e4b9 d3e2 4838
00000060: db02 7e39 59fe 193a 5823 df39 9795 7639
00000070: ebed 0a3a 7c28 553a 1478 8a39 e9b9 8439
00000080: 70c2 683a d76b 51b8 3756 153b f162 6639
00000090: 1b2d 633a 6b01 e738 0d77 c4b8 757d a7ba
000000a0: a1ee 4fb9 042d 91b9 43d9 5b3a 999a 8c3a
000000b0: 1baf 4f3a 8758 43b8 65a0 2339 9f5b 4dba
000000c0: 4698 f438 b085 0d3a c48e 323a 97c1 2639
000000d0: 45ef 393a 03d4 8939 c0a8 a039 4888 073a
000000e0: 1973 c639 e41b 2db6 da2a 8e3a 1317 b4b9
000000f0: edd5 893a bbfe 823a 5f50 443a de6f 513a
00000100: aaff ba39 d9e1 333a e2b6 ed37 5d71 783a
00000110: 251d fd38 82b2 8939 dd8e e637 49c1 84ba
00000120: dc37 3439 4085 5f3a 4d05 d53a 61e5 fd3a
00000130: bee2 c13a af7f 303b 153e 4d39 61a1 c938
00000140: feec 2039 bac9 883a 60d0 1b3a a88d 2f3a
00000150: 6d68 993a da86 adb9 b413 80b9 529e a5b9
00000160: 5ae9 74b9 a5c0 d6b9 5f5a 05ba ef16 023a
00000170: 033f 97b9 da10 82b8 3ece cdb9 df2b 333a
00000180: 6ef2 feb8 1f11 0a3a cc74 283a 828b 5c3a
00000190: aa35 aa3a 5f8b 3e3a 8060 513a ce45 ce3a
000001a0: 53c7 dd3a e013 b73a b35b cd3a f9be 093a
000001b0: cf8c 5e3a 858a 933a 0e20 a13a e875 de3a
000001c0: a546 4f3b d379 a8ba de2e 3b3b 61c4 b63a
000001d0: fd6a 3c3c 3d60 033c b38f c43b c380 a03a
000001e0: d26b 3d3a 261a 463a ae34 6d3c 8cd7 013c
000001f0: a287 3f3c f14f 27bb 0741 f93a 93e8 c7bb
00000200: 0ba6 853a 2304 83bb 3633 97ba 682a dd3b
00000210: d7a4 b93a 32d2 9dba b940 1bba f607 44bb
00000220: 917b 913a 82e2 80b9 e6cd 8c36 7409 8c3b
00000230: b649 9e3a 8dc7 66ba e86e e6ba f677 883b
00000240: 074b a53b 821b 523c c98e bf3b c77c fbb9
00000250: 00ef 773b a2bf c73a 5a1d 203b fd50 ac39
00000260: 67eb 13bb 4d8b 12ba c5c9 a13b dc7d f037
00000270: bfbb 1d3b c7a4 bb3b e53a 84ba e55a c639
00000280: 7a8c 4a3b 86e2 e639 3f84 043c a4ff 463a
00000290: bb78 a039 868d dcb9 2c80 02bb 7601 8b3b
000002a0: 7c85 4f3a ec54 003b 9d27 d63b 2eee 92bb
000002b0: 8451 d83b 791c c93b 7e4d 153c 1e38 c73b
000002c0: f997 8a3a c107 3e3b 51c4 883b a342 243b
000002d0: 3572 fcba d169 723a c78d 623b 3919 11ba
000002e0: bba1 63ba 8e14 b73b c2ae 733b 33e0 813b
000002f0: f3ec a83b 592f 2e3b abaf 373b b42b 023b
00000300: 65e1 6a3b 5903 7e3b 1af4 d93b 0546 5e3b
00000310: 3bc6 833b f097 18ba d2a0 ee3a 2bac 523a
00000320: 144d 833b 7389 813b de9e de39 af6f 293b
00000330: c9cc 4e3b 664b d5ba 3904 a9ba e3a3 a13b
00000340: afc8 c13a 4393 ceba 8ae9 da3b 9ce7 c33b
00000350: b1b5 7c3b cf95 f73a 1bd6 eb3b 4b1d 713b
00000360: aab0 273b 543f 8a3b 6666 4c3b 04a3 663b
00000370: b706 f83b f9fb 963b 7e48 f039 a242 503b
00000380: 2c44 c03b f61e 513a cced 0fbc a09e b2bb
00000390: 7b18 253b 75bf cd3b bf25 293c 9fa5 6a3a
000003a0: c20e 043b af24 c73a 7eff 483b e84e 0ebb
000003b0: 0f0c da3b ddde b3bb b426 93bb 5188 433b
000003c0: bf5d 42bb c9dd e23a 14ee 673a 1d6c 403c
000003d0: 27f7 ba3b 60e8 d2ba a4df 3f3a 52d6 b2bb
000003e0: d31d 8a39 f5e5 abbb 2484 123b 17e3 04bc
000003f0: a6db db3b 05b4 7a3a 79b9 ee3a a6a5 c23b

weight_hh_l0 f4 [64, 16]
2.2484624e-05 0.0003765644 -0.0003995364 0.00033914048 -0.00044577583 -0.00037047907 0.00052947184 -0.00025280187
0.00045204634 0.00035758744 0.00020603654 -0.00036914164 0.00063869817 0.00019563275 -0.0005288359 -0.0002479128
0.00042236244 -7.1577844e-05 -0.0014974824 -0.00092035177 0.00064340356 -0.0004570627 7.114957e-05 -0.0003169016
0.0003460253 0.00026458033 0.0008717381 -0.001346829 0.0010435376 3.4998848e-05 0.000696128 -0.00043820855
0.0011040216 0.0016558025 -0.0018791588 0.002377953 0.0013276716 -0.0014910277 0.0030489773 -0.0019906969
0.0046086186 0.0030406348 0.001522206 -0.0020245342 0.005203445 0.0008858102 -0.0036970705 -0.0019501437
0.0008456021 0.0008936644 -0.0021338356 -0.000411797 0.0010277019 -0.0012314362 0.0012475144 -0.0008410158
0.00019672138 0.000536915 0.0017007499 -0.0027234214 0.0001622701 -0.00011052835 -0.0011922618 -0.0012132972
0.00023296208 0.00044200275 -0.0005539813 -0.00021374306 0.0004358997 -0.00035607885 0.0007741963 -0.0009978176
0.0010954235 0.000537544 0.00033715094 -0.0007472409 0.0011718066 0.00034546462 -0.00074658 -0.00050559914
0.000103726205 0.000572267 -0.0010790671 0.0008679129 0.000519933 -0.00049806427 0.00093284657 -0.000735733
0.0014207804 0.00088549906 0.0005446477 -0.0011557647 0.0014043482 0.00029189565 -0.0008058012 -0.00084046525
0.0012625353 -0.00042751676 -0.0027564429 0.00020476276 0.0009652352 -0.0015100637 -0.00019789596 -0.0012099444
0.0023085065 0.001390828 0.0022976631 -0.0038614804 0.005525903 0.0004416505 0.001351328 -0.0014296692
0.000783233 0.00070248387 -0.001393308 0.0011235935 0.0008365308 -0.00095656206 0.0018568609 -0.0012444399
0.0022641683 0.0014020626 0.0011675662 -0.0022149018 0.0026296908 0.00054018426 -0.0014216087 -0.0012761867
0.0004064879 -0.00077514123 -0.0025425144 -0.0023039926 0.0010164715 -0.0010751152 -5.9038248e-05 -0.0008451259
0.0022383695 -0.0005394914 0.0018896636 -0.0032969888 0.0030626594 -0.00012949278 0.0010128502 -0.00060138997
0.00074601185 0.00059874245 -0.001912131 2.5514819e-05 0.0009377213 -0.0009234326 0.0016296132 -0.00088754576
0.0013632204 0.0010104267 0.0013905275 -0.0022301998 0.0017747678 0.0002780683 -0.0006081584 -0.0010755613
0.00016208424 0.00053838146 -0.0008373469 0.00083401974 0.0007870758 -0.00052182854 0.0010384691 -0.00057353394
0.0016008411 0.00083953695 0.0005202639 -0.00067130354 0.0014425595 0.0004547127 -0.0011864472 -0.0006289852
0.0011314903 0.0023169147 -0.0016962506 0.003174123 0.0014302135 -0.0018334124 0.0044312696 -0.0024081676
0.0059134825 0.0031754908 0.0014275936 -0.0012804718 0.005616441 0.001290942 -0.00429101 -0.0023637903
0.0012069697 0.00075217907 -0.004065722 -0.0015336984 0.000985052 -0.0024370363 0.002895391 -0.0025025695
-0.00037688177 0.00083853875 0.0024596602 -0.003899228 0.0009412198 0.00032344568 5.6327597e-05 -0.0017533603
0.00022442259 0.00013462653 -0.00048469056 0.00021612343 0.0003615873 -0.00025957866 0.00018267398 -0.0003188849
-0.00015905812 -0.00068636733 0.0002624653 -0.00061978516 0.0005150927 9.198826e-05 -0.00016728912 -0.0002612483
0.0007979948 -0.00018678707 -0.0026066652 -0.0025747798 0.0010863462 -0.0010846962 0.0016264382 -0.000745357
-0.0005259073 0.0006981944 0.00241407 -0.0030898687 4.774829e-07 0.00023496686 0.00027721294 -0.0011021551
0.00071117724 0.0006915016 -0.0014657957 0.0010139866 0.0007561085 -0.00061682286 0.0014951274 -0.0009615536
0.0022724282 0.001105571 0.0011292461 -0.0016245913 0.0020016818 0.00047420015 -0.0013226043 -0.0015584339
00000000: 5d9d bc37 9e6d c539 de78 d1b9 aace b139
00000010: 05b7 e9b9 dc3c c2b9 41cc 0a3a 7e8a 84b9
00000020: a200 ed39 937a bb39 830b 5839 5a89 c1b9
00000030: 4f6e 273a c422 4d39 94a1 0aba 4bfa 81b9
00000040: 8770 dd39 101c 96b8 2c47 c4ba c343 71ba
00000050: 15aa 283a eba1 efb9 2236 9538 d025 a6b9
00000060: bb6a b539 5fb7 8a39 5b85 643a 1588 b0ba
00000070: 50c7 883a bacb 1238 5c7c 363a 5bbf e5b9
00000080: d1b4 903a 8307 d93a 1b4e f6ba 6ed7 1b3b
00000090: 4405 ae3a 966e c3ba 5ad1 473b 5a76 02bb
000000a0: e503 973b 6345 473b c284 c73a 0cae 04bb
000000b0: a981 aa3b b735 683a 8d4a 72bb f79b ffba
000000c0: 65ab 5d3a cd44 6a3a d2d7 0bbb 75e6 d7b9
000000d0: f4b3 863a 2468 a1ba a383 a33a 9d77 5cba
000000e0: fe46 4e39 c1bf 0c3a b2eb de3a 6e7b 32bb
000000f0: 0c27 2a39 75cb e7b8 ab45 9cba 8007 9fba
00000100: 4847 7439 9bbc e739 0e39 11ba 3720 60b9
00000110: 7889 e439 18b0 bab9 6ff3 4a3a 34c9 82ba
00000120: 5094 8f3a f8e9 0c3a a2c3 b039 7de2 43ba
00000130: 4e97 993a 7a1f b539 23b6 43ba 2f8a 04ba
00000140: 9587 d938 3004 163a 7c6f 8dba a684 633a
00000150: 1d4c 083a 8790 02ba 468a 743a 35de 40ba
00000160: 7b39 ba3a d620 683a b0c6 0e3a 077d 97ba
00000170: 1b12 b83a 9209 9939 673c 53ba ab52 5cba
00000180: a87b a53a 5424 e0b9 70a5 34bb 96b5 5639
00000190: d607 7d3a 54ed c5ba 4b82 4fb9 ff96 9eba
000001a0: 504a 173b 724c b63a 6494 163b e410 7dbb
000001b0: a212 b53b 548d e739 0b1f b13a bd63 bbba
000001c0: e051 4d3a e526 383a a99f b6ba 8b45 933a
000001d0: a24a 5b3a cbc1 7aba ea61 f33a 791c a3ba
000001e0: 7162 143b 6ac5 b73a 0509 993a e327 11bb
000001f0: e456 2c3b 279b 0d3a 4655 baba b845 a7ba
00000200: e21d d539 d932 4bba 50a0 26bb 95fe 16bb
00000210: 203b 853a e1ea 8cba d69f 77b8 708b 5dba
00000220: 9cb1 123b a86c 0dba 97ae f73a 4b12 58bb
00000230: e6b6 483b 74c8 07b9 9dc1 843a 99a6 1dba
00000240: 0290 433a edf4 1c3a 78a0 faba a808 d637
00000250: 69d1 753a 8312 72ba bf98 d53a 30aa 68ba
00000260: 16ae b23a 4b70 843a 5c42 b63a 8b28 12bb
00000270: 539f e83a b2c9 9139 d26c 1fba d9f9 8cba
00000280: 28f5 2939 2b22 0d3a 6681 5bba 1ea2 5a3a
00000290: c353 4e3a 52cb 08ba 3e1d 883a 3659 16ba
000002a0: 50d3 d13a 5f14 5c3a 5262 083a 6bfa 2fba
000002b0: 4414 bd3a 8166 ee39 9082 9bba 7be2 24ba
000002c0: 844e 943a 61d7 173b ba54 deba f204 503b
000002d0: 0076 bb3a 1d4f f0ba 2f34 913b 59d2 1dbb
000002e0: e3c5 c13b e51b 503b 181e bb3a 81d5 a7ba
000002f0: 1f0a b83b d334 a93a 9a9b 8cbb d2e9 1abb
00000300: 2f33 9e3a e22d 453a c039 85bb 6106 c9ba
00000310: dc1c 813a afb6 1fbb 9ac0 3d3b 2602 24bb
00000320: 3798 c5b9 62d1 5b3a 4032 213b 318a 7fbb
00000330: 31bc 763a 2594 a939 4c41 6c38 02d1 e5ba
00000340: fb52 6b39 892a 0d39 111e feb9 319f 6239
00000350: 6d93 bd39 0f18 88b9 2c8c 3f39 0230 a7b9
00000360: d7c8 26b9 55ed 33ba 7f9b 8939 1479 22ba
00000370: 4907 073a d2e9 c038 556a 2fb9 27f8 88b9
00000380: 8630 513a 46dc 43b9 96d4 2abb a3bd 28bb
00000390: bb63 8e3a 5d2c 8eba 362e d53a 1064 43ba
000003a0: 0bdd 09ba 0807 373a 6035 1e3b 657f 4abb
000003b0: 602c 0035 7061 7639 e456 9139 3076 90ba
000003c0: 4c6e 3a3a e345 353a f11f c0ba bfe7 843a
000003d0: 9535 463a 48b2 21ba 27f8 c33a c510 7cba
000003e0: 05ed 143b cfe8 903a 3603 943a 3df0 d4ba
000003f0: a62e 033b 119e f839 3c5b adba 5d44 ccba

bias_ih_l0 f4 [64]
0.00079812563 0.011500834 0.01274183 0.012725724 0.0017647065 0.0032158736 0.03794103 0.014855829
0.012010402 0.013890706 0.001615259 0.012188114 0.029820496 0.0023219085 0.011322526 0.0063786716
0.0008492371 0.015186854 0.015897786 0.022355549 0.0023745154 0.003848364 0.038781878 0.015592907
0.06865412 0.017994285 0.0021121078 0.017648438 0.04910303 0.0030303774 0.017912293 0.011166475
-0.0014169783 0.00476605 -0.04584174 -0.019178584 -0.022347799 -0.01937068 0.052529532 -0.05242322
-0.10263884 -0.006110314 -6.563116e-05 -0.032652464 -0.105251975 -0.013632594 0.06399347 0.019687384
0.0009744225 0.008957094 0.021474114 0.027993016 0.0020154724 0.0037703016 0.06281535 0.014954454
0.06294239 0.014682003 0.002042219 0.0073444294 0.04549701 0.002616692 0.041780576 0.0109506035
00000000: 4e39 513a fe6d 3c3c 1cc3 503c 8e7f 503c
00000010: b94d e73a 68c1 523b 0e68 1b3d dd65 733c
00000020: 47c7 443c d895 633c 19b7 d33a a8b0 473c
00000030: 1d4a f43c 292b 183b 1e82 393c 2d04 d13b
00000040: 569f 5e3a 48d2 783c 133c 823c fc22 b73c
00000050: c29d 1b3b d634 7c3b bfd9 1e3d 6479 7f3c
00000060: 889a 8c3d c068 933c 4a6b 0a3b 7593 903c
00000070: 4220 493d 4c99 463b cdbc 923c 97f3 363c
00000080: e7b9 b9ba 862c 9c3b 8cc4 3bbd 681c 9dbc
00000090: bb12 b7bc 43af 9ebc 3529 573d bbb9 56bd
000000a0: 5034 d2bd 0739 c8bb 76a3 89b8 97be 05bd
000000b0: 598e d7bd 3e5b 5fbc 020f 833d 7047 a13c
000000c0: 6370 7f3a c6c0 123c 7bea af3c 9c51 e53c
000000d0: 0416 043b 2a17 773b 56a5 803d 8703 753c
000000e0: f1e7 803d c98c 703c c0d6 053b 8aa9 f03b
000000f0: 135b 3a3d cf7c 2b3b 1c22 2b3d 296a 333c

bias_hh_l0 f4 [64]
0.00083229766 0.010302519 0.0061291805 0.01579096 0.0022636876 0.0032706666 0.042421043 0.012818697
0.042221602 0.013855447 0.0011576384 0.008323072 0.033265244 0.0024198852 0.017854802 0.008452733
0.0010180214 0.014294761 0.021141239 0.027236108 0.0023768183 0.0039092745 0.046438016 0.012265893
0.00784178 0.013643454 0.0020963936 0.01816491 0.04972352 0.0030444134 0.028389798 0.011045879
-0.001197643 0.002080975 0.023935204 -0.023644974 0.007825886 0.011875136 -0.055792958 0.0050599123
-0.039893318 0.0065616514 0.015619542 -0.018757146 0.04946311 -0.023542073 0.02197297 0.0105075
0.00020553562 0.019254418 0.009987114 0.027715685 0.002271395 0.0038632944 0.061710853 0.014926767
0.06108588 0.0166938 0.0018675824 0.016934501 0.050924536 0.002381707 0.030740082 0.010544017
00000000: 8d2e 5a3a e6cb 283c 4bd7 c83b 0b5c 813c
00000010: 605a 143b ae58 563b b0c1 2d3d 8305 523c
00000020: 8ff0 2c3d f501 633c e6bb 973a 7f5d 083c
00000030: 2341 083d f096 1e3b 3c44 923c 557d 0a3c
00000040: 216f 853a 9334 6a3c 6430 ad3c 421e df3c
00000050: 65c4 1b3b 5f19 803b ca35 3e3d e2f6 483c
00000060: cf7a 003c cb88 5f3c a663 093b 94ce 943c
00000070: e4aa 4b3d c884 473b b991 e83c c6f9 343c
00000080: 3bfa 9cba f860 083b c313 c43c 1bb3 c1bc
00000090: 2538 003c ee8f 423c 2887 64bd 9fcd a53b
000000a0: 2d67 23bd 1f03 d73b 1ce9 7f3c 96a8 99bc
000000b0: d499 4a3d 4edb c0bc a800 b43c a627 2c3c
000000c0: 0c85 5739 71bb 9d3c fea0 233c 010c e33c
000000d0: afdb 143b 532f 7d3b 85c4 7c3d 668f 743c
000000e0: 3035 7a3d 70c1 883c abc9 f43a 39ba 8a3c
000000f0: 3f96 503d 6a16 1c3b a0d2 fb3c d0c0 2c3c
