model.pt (torch, 243255 bytes, 34 tensors)

weight_ih_l0 f4 [128, 13]
-0.17543651 0.10489364 0.09223585 0.06715131 -0.111916654 0.031122938 0.12544565 0.17332403
0.14026742 0.10470866 -0.008174151 0.16299827 0.0714737 0.14411786 0.18121354 -0.16763158
-0.013055359 0.1532181 -0.07115278 -0.028071674 -0.03837884 0.05381378 -0.115910135 0.119777024
0.12971078 0.02541467 -0.04269661 -0.09576963 -0.09146964 -0.1611494 0.111701295 -0.059362084
0.14772789 0.15441392 0.08696078 -0.1569261 0.12754898 0.14843746 0.09696947 -0.13839948
-0.12463676 -0.116863266 -0.10533178 -0.07222326 0.11548336 0.032274082 0.047452927 -0.16157755
-0.045541123 0.043845624 0.09269248 -0.044715255 -0.1238293 0.09781399 0.07294205 -0.15665044
0.1018576 -0.059601456 -0.17987113 0.0929932 -0.16301486 -0.06821283 0.07244813 0.039376386
0.12825245 0.106393024 1.21593475e-05 -0.171947 -0.14114878 -0.04065223 -0.04191439 0.050176606
-0.060840324 0.13733064 0.11379053 -0.090887845 0.057184562 -0.11667672 0.031482667 -0.13283256
0.074268416 0.16409357 -0.031559303 0.0711917 -0.08353133 -0.06381072 -0.09820886 0.074821375
-0.041794352 -0.030069351 -0.06746872 -0.007863296 -0.13878264 -0.082228415 0.0361031 0.14034083
0.16975684 -0.12802851 0.18980902 0.039043035 0.16258156 0.05989147 -0.118405156 0.014388478
-0.1230109 -0.025492653 0.014856031 -0.0077259503 0.15882182 -0.12558784 -0.043908004 -0.085071
0.15641192 -0.034824654 0.15964182 -0.055469204 0.14337225 -0.058585085 -0.1507308 -0.07289887
-0.12718505 -0.08139909 -0.072338745 -0.10896471 0.024242654 -0.09550573 0.17143749 0.056592643
0.11573358 -0.07418654 0.048825886 0.105284944 0.0910319 -0.057015255 0.05493539 0.0901496
0.14987169 -0.04258348 -0.0077842567 0.10680564 0.031163398 -0.051019337 0.0020044057 0.09580823
-0.1670681 -0.0507685 0.12602465 0.0014068891 0.06723844 0.16550443 -0.021696128 -0.09818617
0.10324316 -0.071971975 0.032942057 -0.04402284 -0.03619888 -0.14160065 -0.10353478 -0.0204174
-0.05853999 0.093670115 0.1454152 0.052087974 -0.06752401 -0.038629558 0.0054396405 -0.1368066
0.12699129 -0.17610137 0.09861736 0.11928193 -0.14260213 0.05263059 -0.15094732 0.066646785
0.16962259 -0.12518165 0.10388236 -0.1622879 -0.024739742 0.105575725 0.09211998 -0.034999564
-0.038783506 -0.17652704 0.14486186 0.06776397 0.058832347 0.043341354 -0.10699416 0.1702149
0.017838627 0.15000983 -0.15138009 0.05725695 -0.0033854889 -0.044705573 0.09017809 0.15949358
0.031403393 -0.014354268 0.10216366 0.0032131441 0.17627771 0.11184768 -0.15680254 0.07356214
-0.004644379 0.10281716 -0.13905966 -0.05987198 -0.11889535 -0.1249744 0.055843115 0.0627276
-0.10301083 0.0021835715 0.039750457 0.07536255 0.10059427 0.068304196 0.0021651238 -0.03407979
-0.08701065 -0.037649363 0.044392914 0.05028166 0.13486166 -0.071617566 0.08791296 -0.12897654
0.016192034 0.15006463 -0.17457701 0.02860719 0.09113102 -0.11168303 -0.084621154 -0.05219683
0.027503222 0.11096375 -0.03444834 -0.13721219 -0.01835908 -0.14953315 -0.16930091 -0.13469139
0.059785713 -0.030926758 0.05135407 -0.103439085 -0.09207725 0.0074957 0.13025919 0.0817738
00000000: a1a5 33be 7ad2 d63d 26e6 bc3d a086 893d
00000010: 8f34 e5bd 88f5 fe3c d374 003e db7b 313e
00000020: 43a2 0f3e 7e71 d63d e0ec 05bc 05e9 263e
00000030: ce60 923d a293 133e 0b90 393e 9da7 2bbe
00000040: 25e6 55bc 35e5 1c3e 8cb8 91bd 91f6 e5bc
00000050: 2133 1dbd d76b 5c3d 4b62 edbd a84d f53d
00000060: e7d2 043e 6d32 d03c a4e2 2ebd de22 c4bd
00000070: 6f54 bbbd 5904 25be a6c3 e43d a825 73bd
00000080: fb45 173e af1e 1e3e 7e18 b23d 3cb1 20be
00000090: 339c 023e fdff 173e ee97 c63d 98b8 0dbe
000000a0: 8f41 ffbd 0256 efbd 30b8 d7bd cae9 93bd
000000b0: 8a82 ec3d d431 043d 005e 423d 9674 25be
000000c0: 5489 3abd 7897 333d 8ed5 bd3d 5827 37bd
000000d0: 379a fdbd b452 c83d a462 953d f968 20be
000000e0: b89a d03d a820 74bd 2330 38be 3873 be3d
000000f0: 5eed 26be 2bb3 8bbd af5f 943d 2249 213d
00000100: 9c54 033e 96e4 d93d 0000 4c37 e012 30be
00000110: 4e89 10be f482 26bd 6cae 2bbd fc85 4d3d
00000120: b433 79bd 67a0 0c3e 020b e93d 6823 babd
00000130: 5c3a 6a3d 34f4 eebd f8f3 003d 4205 08be
00000140: 0a1a 983d 2508 283e 5444 01bd f4cc 913d
00000150: 7912 abbd 32af 82bd ba21 c9bd f33b 993d
00000160: 8e30 2bbd 0054 f6bc 0a2d 8abd 0ed5 00bc
00000170: 091d 0ebe 5f67 a8bd d8e0 133d 82b5 0f3e
00000180: bdd4 2d3e e819 03be 4c5d 423e 97eb 1f3d
00000190: c87b 263e c250 753d 677e f2bd a7bd 6b3c
000001a0: 24ed fbbd f8d5 d0bc b666 733c f829 fdbb
000001b0: 30a2 223e 199a 00be e1d8 33bd b439 aebd
000001c0: 722a 203e 4ca4 0ebd 2579 233e ad33 63bd
000001d0: 2dd0 123e eaf6 6fbd 2d59 1abe 014c 95bd
000001e0: cc3c 02be 91b4 a6bd 5626 94bd e428 dfbd
000001f0: 8898 c63c 8298 c3bd 4f8d 2f3e b0cd 673d
00000200: ba05 ed3d 1def 97bd a7fd 473d a29f d73d
00000210: ef6e ba3d d488 69bd ee03 613d 5aa0 b83d
00000220: f777 193e 046c 2ebd 1413 ffbb eabc da3d
00000230: 624a ff3c a7f9 50bd 595c 033b 1b37 c43d
00000240: e613 2bbe a1f2 4fbd 9b0c 013e 5d67 b83a
00000250: 4fb4 893d fe79 293e 14bc b1bc d515 c9bd
00000260: 2671 d33d 0b66 93bd 40ee 063d 4b51 34bd
00000270: 4745 14bd c3ff 10be 0b0a d4bd 6442 a7bc
00000280: a1c7 6fbd 1ed6 bf3d b9e7 143e 335a 553d
00000290: 074a 8abd 073a 1ebd 033f b23b 0817 0cbe
000002a0: 010a 023e eb53 34be e6f7 c93d 164a f43d
000002b0: 4b06 12be 2c93 573d ef91 1abe 1c7e 883d
000002c0: 8bb1 2d3e 9e2f 00be 46c0 d43d cd2e 26be
000002d0: 00ab cabc 1638 d83d 66a9 bc3d b45b 0fbd
000002e0: 74db 1ebd 81c3 34be ab56 143e d6c7 8a3d
000002f0: 30fa 703d b486 313d c11f dbbd d14c 2e3e
00000300: 5022 923c 2d9c 193e 6203 1bbe 4386 6a3d
00000310: 14df 5dbb 311d 37bd 4aaf b83d 4952 233e
00000320: d8a0 003d 2a2e 6bbc 2e3b d13d 9d93 523b
00000330: 2582 343e 6510 e53d d890 20be bfa7 963d
00000340: e02f 98bb ce91 d23d a865 0ebe 523c 75bd
00000350: 687f f3bd 94f2 ffbd c0bb 643d 5477 803d
00000360: 58f7 d2bd 401a 0f3b 60d1 223d ae57 9a3d
00000370: 5e04 ce3d 12e3 8b3d c0e4 0d3b 4097 0bbd
00000380: a432 b2bd 3836 1abd 58d5 353d 24f4 4d3d
00000390: 2d19 0a3e 3bac 92bd b60b b43d 6d12 04be
000003a0: 28a5 843c 8baa 193e 51c4 32be a059 ea3c
000003b0: e6a2 ba3d 13ba e4bd db4d adbd 58cc 55bd
000003c0: 704e e13c f640 e33d b419 0dbd 5a81 0cbe
000003d0: c865 96bc 381f 19be 385d 2dbe 8aec 09be
000003e0: dde1 743d 1d5a fdbc a558 523d dfd7 d3bd
000003f0: ff92 bcbd 7d9e f53b aa62 053e 0679 a73d

weight_hh_l0 f4 [128, 32]
-0.10891287 0.025211886 -0.13937832 0.006886795 -0.0676855 0.08937214 0.0033430904 -0.09865654
-0.10901488 -0.07009902 -0.11539594 -0.020147204 -0.15079403 -0.06481979 0.1650015 -0.12759684
-0.009956643 0.13866971 -0.17354105 0.15342902 -0.051797718 0.016682968 -0.13896984 -0.055583917
0.037840962 0.13298135 -0.07543879 -0.013832301 0.089200065 0.046098024 -0.13521251 -0.04041484
0.13043383 -0.04608258 0.090578526 -0.13233227 -0.06322858 -0.03958857 -0.09714507 0.07073581
0.13416329 -0.11776234 0.046139583 0.15411834 0.021392526 -0.03067404 0.06222345 -0.16014883
0.10407345 0.16963999 0.12339534 0.042383306 0.12540297 -0.107380725 -0.15495309 0.15462725
0.17629845 -0.050466314 -0.0023175103 0.10566649 -0.11206926 0.1654528 0.05150038 -0.091825314
0.15879412 0.0143877715 0.12004201 0.15015869 0.17653598 -0.046369776 -0.012087077 0.1728874
-0.04746218 -0.14729744 0.098725244 0.08213164 -0.14760791 -0.06690144 0.17527609 0.08263503
-0.08102449 0.0022765398 0.06814878 -0.11832976 0.13033088 0.16515689 -0.111647636 -0.13643178
-0.14804582 0.067353696 -0.06192042 0.1519471 0.04677823 -0.14182696 0.037767664 -0.07124187
-0.16428502 0.04687512 0.16691668 -0.16581199 -0.14258789 0.08228637 0.016847342 0.029055998
0.074652955 0.04340601 0.0262129 -0.17491928 0.054258898 -0.16991927 -0.1063994 0.1464305
-0.07256433 -0.1308309 -0.13315609 -0.040450245 -0.063946255 0.13459335 0.120097324 0.06912406
-0.040069386 0.13959356 -0.16564126 0.07063039 -0.055809066 0.16244353 0.15701093 -0.12117857
-0.04873491 0.077118844 -0.0863894 0.099779174 0.09407304 0.14465876 0.03582354 0.11245809
0.000758936 0.1485046 -0.2529696 0.15044238 0.084750704 0.022238666 0.11136839 0.16481003
-0.09531809 0.08432378 -0.15716408 -0.15259735 -0.1657007 0.05696532 -0.0038186884 -0.1320436
0.06814018 -0.1297241 -0.09984563 -0.045569986 0.13329409 -0.016626712 0.1102297 -0.069056116
-0.16043457 0.037454918 0.038634583 -0.011193946 0.15382285 -0.1655123 -0.07309736 -0.03430842
0.15006848 0.1192012 -0.11536844 -0.15220696 0.0790429 0.11062701 -0.07972848 0.083091155
-0.08057681 -0.03935778 -0.07574705 0.07797481 -0.08469462 0.044639096 0.014200583 -0.03292708
0.13894011 0.119807884 0.118461 0.08360906 -0.1421765 -0.010876566 0.14999239 -0.095023036
-0.045290917 0.052238658 -0.058124676 -0.05242379 -0.03123273 0.0040719807 0.16481085 -0.058062464
-0.049494788 0.1376227 -0.05006905 0.03816542 0.05982265 0.16607012 0.027725875 0.09019567
-0.14487159 -0.09808654 -0.06669239 0.07464169 0.017301843 0.10861878 -0.10547927 0.11609508
0.0011745187 -0.16110344 -0.1112697 -0.028858036 0.11180405 -0.029674187 -0.15605555 -0.04716772
0.083603635 0.053079445 -0.072383516 0.069968924 -0.096484944 0.1255358 0.08035089 0.11965869
-0.028715461 0.1412801 -0.016271312 0.019523695 -0.16757925 0.13714378 0.00016635252 0.0146523025
-0.011161119 0.021705821 -0.10486979 0.045865327 0.14681797 -0.031049624 -0.04030968 0.015377313
0.007673835 0.08692388 -0.012335988 -0.11602104 0.097804956 0.079240955 -0.108611956 -0.058779888
00000000: b60d dfbd 2889 ce3c 31b9 0ebe a0aa e13b
00000010: b29e 8abd be08 b73d c017 5b3b 710c cabd
00000020: 3243 dfbd 1390 8fbd b554 ecbd c00b a5bc
00000030: c069 1abe 3dc0 84bd 27f6 283e bfa8 02be
00000040: 3021 23bc 6fff 0d3e bfb4 31be 7f1c 1d3e
00000050: d829 54bd b8aa 883c 1c4e 0ebe f6ab 63bd
00000060: 20ff 1a3d 432c 083e a77f 9abd e0a0 62bc
00000070: 86ae b63d 48d1 3c3d 2675 0abe 088a 25bd
00000080: 7290 053e 16c1 3cbd 3c81 b93d 1c82 07be
00000090: fc7d 81bd a027 22bd fff3 c6bd f0dd 903d
000000a0: 1a62 093e 622d f1bd dcfc 3c3d 33d1 1d3e
000000b0: 613f af3c 2048 fbbc 04de 7e3d 0efe 23be
000000c0: 7624 d53d 1bb6 2d3e b2b6 fc3d 1e9a 2d3d
000000d0: a369 003e 6dea dbbd 06ac 1ebe 9b56 1e3e
000000e0: 9587 343e c4b5 4ebd 5fe1 17bb ac67 d83d
000000f0: 9184 e5bd 756c 293e 10f2 523d e90e bcbd
00000100: ed9a 223e b0ba 6b3c 96d8 f53d 33c3 193e
00000110: d9c5 343e 3cee 3dbd e008 46bc 6509 313e
00000120: b467 42bd 24d5 16be 7630 ca3d a234 a83d
00000130: 8726 17be 9f03 89bd 937b 333e 8e3c a93d
00000140: 2bf0 a5bd 0032 153b 9691 8b3d e056 f2bd
00000150: 7575 053e e31e 293e 84a7 e4bd c6b4 0bbe
00000160: 5399 17be bcf0 893d 44a0 7dbd 0598 1b3e
00000170: 889a 3f3d 163b 11be 44b2 1a3d 42e7 91bd
00000180: 553a 28be 2000 403d 35ec 2a3e 9eca 29be
00000190: 8f02 12be c285 a83d 7003 8a3c d806 ee3c
000001a0: a6e3 983d 80ca 313d 70bc d63c 0a1e 33be
000001b0: 943e 5e3d 51ff 2dbe eee7 d9bd e1f1 153e
000001c0: 9c9c 94bd 89f8 05be 125a 08be 28af 25bd
000001d0: 41f6 82bd d7d2 093e 96f5 f53d ea90 8d3d
000001e0: cc1f 24bd 9df1 0e3e dd9d 29be aaa6 903d
000001f0: 0c98 64bd 9957 263e 79c7 203e 782c f8bd
00000200: 429e 47bd 7cf0 9d3d edec b0bd 0659 cc3d
00000210: 5ea9 c03d 6d21 143e b4bb 123d 6d50 e63d
00000220: 55f3 463a 9711 183e 3b85 81be 910d 1a3e
00000230: c791 ad3d dd2d b63c 1c15 e43d f6c3 283e
00000240: 2136 c3bd f2b1 ac3d 9fef 20be 7b42 1cbe
00000250: 72ad 29be 7854 693d f642 7abb 7036 07be
00000260: 148d 8b3d 65d6 04be de7b ccbd 98a7 3abd
00000270: 3f7e 083e be34 88bc 1cc0 e13d 4b6d 8dbd
00000280: f648 24be 546a 193d 4c3f 1e3d d066 37bc
00000290: bd83 1d3e 0e7c 29be 12b4 95bd fc86 0cbd
000002a0: 8dab 193e c21f f43d 4a46 ecbd 24dc 1bbe
000002b0: 3ee1 a13d 6a90 e23d af48 a3bd b22b aa3d
000002c0: 7405 a5bd a035 21bd 4521 9bbd 42b1 9f3d
000002d0: 5f74 adbd 7cd7 363d 90a9 683c 8cde 06bd
000002e0: 5146 0e3e d65d f53d ae9b f23d 3a3b ab3d
000002f0: b796 11be a033 32bc 9b97 193e 709b c2bd
00000300: f882 39bd 34f8 553d 2414 6ebd 54ba 56bd
00000310: c8db ffbc 406e 853b 2dc4 283e e8d2 6dbd
00000320: 0cbb 4abd f7ec 0c3e 3415 4dbd 5853 1c3d
00000330: 9808 753d 490e 2a3e 6021 e33c 82b8 b83d
00000340: 3859 14be 99e1 c8bd 0596 88bd bedd 983d
00000350: 98bc 8d3c 8673 de3d 8405 d8bd 42c3 ed3d
00000360: 4ff2 993a 4df8 24be 5ee1 e3bd b067 ecbc
00000370: 86f9 e43d 4817 f3bc 07cd 1fbe f032 41bd
00000380: 6238 ab3d d569 593d cf3d 94bd de4b 8f3d
00000390: e699 c5bd 758c 003e 028f a43d 9e0f f53d
000003a0: b03c ebbc bbab 103e 6a4b 85bc 28f0 9f3c
000003b0: e599 2bbe 6b6f 0c3e ea6e 2e39 3610 703c
000003c0: 20dd 36bc 68d0 b13c f9c5 d6bd 48dd 3b3d
000003d0: 7357 163e c85b febc c31b 25bd 20f1 7b3c
000003e0: cb74 fb3b 2605 b23d e21c 4abc 709c edbd
000003f0: f74d c83d 1549 a23d f26f debd 2ec3 70bd

bias_ih_l0 f4 [128]
-0.14356403 -0.08606227 -0.12316331 0.07315563 -0.18288413 -0.119007945 0.109450385 0.17788765
-0.10562077 -0.016052723 -0.0892851 -0.14685881 0.1614371 -0.07801685 -0.080184676 -0.1058407
0.14421229 -0.08542171 -0.16802046 -0.14954664 0.037308853 0.16187371 -0.13357133 0.12350835
-0.058488086 0.13359953 0.01607363 -0.034004077 -0.14498007 -0.054973785 0.13631958 0.07159887
-0.015374513 0.06572063 -0.03512299 0.15799747 -0.14597002 0.056704566 0.07892384 0.03056662
0.017715767 -0.14581494 0.02503188 -0.041857228 -0.02125345 -0.07168363 0.08205785 -0.09166742
-0.011113107 -0.08362455 0.037772655 -0.17330015 -0.092662565 0.03064464 -0.12107124 -0.01803422
-0.023714645 0.04381068 -0.12576556 -0.13889007 -0.127472 -0.03401181 -0.020230904 -0.10717724
-0.121337846 0.057475954 -0.104110114 0.16908176 -0.016662732 0.009765446 0.055924356 -0.17627105
0.06590143 0.11395408 0.16790481 0.06772724 0.17067124 -0.055825062 -0.043491855 0.17113648
0.14973466 0.1451207 -0.14589274 -0.04555927 -0.10992298 -0.09922371 -0.10626181 0.10200398
-0.051855586 0.12929992 -0.09169283 -0.10100016 -0.10043356 -0.14207551 0.04702456 0.0933616
0.024073735 0.18556316 0.06508914 0.13891982 0.053641584 0.069991946 0.15225725 -0.03632739
0.14427592 0.05399236 -0.046790786 -0.023815295 0.038472723 0.096997954 0.040219598 0.14853705
0.14939006 -0.07114042 -0.13546601 0.10472932 -0.13547325 0.06338924 0.13812146 -0.036056608
-0.051184036 0.050525457 -0.027376011 0.1387543 0.10777913 0.073704794 0.017814443 0.0036863387
00000000: 7302 13be 6a41 b0bd 0c3d fcbd 9ed2 953d
00000010: fa45 3bbe 70ba f3bd 8627 e03d 2e28 363e
00000020: b44f d8bd 0081 83bc 1bdb b6bd 2862 16be
00000030: c44f 253e 4cc7 9fbd dd37 a4bd 02c3 d8bd
00000040: 63ac 133e 94f1 aebd 8e0d 2cbe c122 19be
00000050: 2bd1 183d 39c2 253e ecc6 08be f2f1 fc3d
00000060: 3491 6fbd 51ce 083e d8ac 833c dc47 0bbd
00000070: a875 14be 312c 61bd 5c97 0b3e 6ea2 923d
00000080: 62e5 7bbc 8a98 863d 20dd 0fbd 17ca 213e
00000090: 2a79 15be 0c43 683d d2a2 a13d d966 fa3c
000000a0: a820 913c 8350 15be a80f cd3c 7c72 2bbd
000000b0: b71b aebc dece 92bd f20d a83d 21bc bbbd
000000c0: c013 36bc 5943 abbd 80b7 1a3d 9875 31be
000000d0: dfc5 bdbd 780a fb3c 33f4 f7bd 80bc 93bc
000000e0: 3745 c2bc d472 333d b0c8 00be 3339 0ebe
000000f0: 0588 02be f84f 0bbd 48bb a5bc be7f dbbd
00000100: fa7f f8bd e86b 6b3d af37 d5bd c523 2d3e
00000110: 4880 88bc 40ff 1f3c f010 653d 6680 34be
00000120: 54f7 863d c260 e93d 3def 2b3e 94b4 8a3d
00000130: 71c4 2e3e d2a8 64bd 8424 32bd 673e 2f3e
00000140: 0b54 193e 859a 143e e864 15be 5b9c 3abd
00000150: 4d1f e1bd cd35 cbbd cb9f d9bd 76e7 d03d
00000160: 8666 54bd 3367 043e 73c9 bbbd 2cd9 cebd
00000170: 1cb0 cdbd 3e7c 11be d39c 403d 5e34 bf3d
00000180: 4836 c53c 4504 3e3e 744d 853d ff40 0e3e
00000190: 47b7 5b3d f057 8f3d 53e9 1b3e 07cc 14bd
000001a0: 11bd 133e 1827 5d3d b2a7 3fbd 4b18 c3bc
000001b0: 9395 1d3d dda6 c63d 4ebd 243d 191a 183e
000001c0: b5f9 183e 12b2 91bd 9ab7 0abe 537c d63d
000001d0: 80b9 0abe 38d2 813d b66f 0d3e 18b0 13bd
000001e0: 5aa6 51bd c8f3 4e3d a843 e0bc 9b15 0e3e
000001f0: 4ebb dc3d 8af2 963d 98ef 913c 8096 713b

bias_hh_l0 f4 [128]
0.07464133 0.020326976 -0.06650654 -0.09457868 0.06002991 0.038013503 -0.17651154 0.04065366
0.062216986 -0.06423015 -0.041340448 0.05438775 0.077526584 0.09382461 0.11579053 0.019067295
0.061412513 -0.057424113 0.0021678656 -0.14121906 0.17959478 -0.16013955 0.030590517 -0.10253673
0.015405491 -0.042475283 -0.15541895 -0.034521475 -0.06809249 -0.07783479 0.14449567 -0.08508511
-0.11740362 0.08205593 0.03531456 -0.114189275 -0.093814656 0.009042233 -0.1711169 0.12390409
-0.15433574 -0.10563589 -0.13104667 -0.0982897 -0.12918994 0.17226176 0.071389705 -0.047250926
-0.028013453 0.06980887 0.015778333 0.103789136 -0.013322264 -0.12313659 0.05963506 -0.005549416
-0.027270334 0.09836216 0.08939227 -0.09357711 0.075384535 -0.1399159 -0.030918106 -0.1748284
-0.1560107 0.020702854 0.16557847 -0.040673688 0.1648566 0.09167756 0.12584864 0.020804659
0.03285201 0.021218076 -0.14667168 0.016582534 -0.035623357 -0.07319474 0.09291099 -0.04248263
-0.0070947707 0.07386066 -0.054910026 -0.07285667 0.017251015 -0.06494039 0.08411117 0.11211996
0.12215422 0.05132924 0.15248136 0.049532577 -0.0061573237 0.043437198 0.036381524 0.06621143
-0.09949193 0.028839542 0.02672242 0.026447162 0.048329383 -0.14021692 0.046765387 0.17502174
-0.06956004 0.0037682503 0.09268492 0.099930555 0.11210128 0.017876523 -0.13725819 -0.12981188
-0.019557506 -0.03423743 0.13205485 0.026279941 0.0126315355 -0.03380829 -0.056280233 0.049909964
-0.010515501 0.020208985 -0.09187885 -0.054118916 0.15206729 0.054828223 0.14136086 0.14456667
00000000: 8edd 983d c284 a63c 9534 88bd 78b2 c1bd
00000010: ece1 753d 0cb4 1b3d 71bf 34be 7484 263d
00000020: 3dd7 7e3d 198b 83bd 9a54 29bd b0c5 5e3d
00000030: 42c6 9e3d 1e27 c03d 9623 ed3d 0433 9c3c
00000040: b08b 7b3d 8c35 6bbd c012 0e3b bb9b 10be
00000050: b2e7 373e 9ffb 23be f798 fa3c c7fe d1bd
00000060: 5067 7c3c 90fa 2dbd 2526 1fbe 6466 0dbd
00000070: 1374 8bbd d967 9fbd acf6 133e 1a41 aebd
00000080: 4f71 f0bd f00c a83d 00a6 103d 11dc e9bd
00000090: e621 c0bd e025 143c 4539 2fbe 6dc1 fd3d
000000a0: 300a 1ebe a157 d8bd 1931 06be 1c4c c9bd
000000b0: 5e4a 04be 6365 303e c434 923d 308a 41bd
000000c0: 787c e5bc f4f7 8e3d 9041 813c 668f d43d
000000d0: a045 5abc 092f fcbd e543 743d e0d7 b5bb
000000e0: 0966 dfbc 1a72 c93d 4b13 b73d 5ba5 bfbd
000000f0: 3563 9a3d 1d46 0fbe f847 fdbc 3706 33be
00000100: 45c1 1fbe 0899 a93c 678d 293e 7499 26bd
00000110: 2bd0 283e 72c1 bb3d 77de 003e 886e aa3c
00000120: d48f 063d 88d1 ad3c 1a31 16be 18d8 873c
00000130: cce9 11bd 20e7 95bd 1e48 be3d 4402 2ebd
00000140: 407b e8bb 4244 973d 56e9 60bd e135 95bd
00000150: 0052 8d3c 78ff 84bd 7a42 ac3d 269f e53d
00000160: fe2b fa3d 9c3e 523d 1324 1c3e ace2 4a3d
00000170: 60c3 c9bb 34eb 313d cb04 153d dc99 873d
00000180: 6dc2 cbbd e740 ec3c fae8 da3c b8a7 d83c
00000190: 08f5 453d 0695 0fbe 108d 3f3d e638 333e
000001a0: 7f75 8ebd c0f4 763b 97d1 bd3d 64a8 cc3d
000001b0: 5b95 e53d c971 923c 698d 0cbe 68ed 04be
000001c0: 1037 a0bc 8c3c 0cbd 6339 073e 0849 d73c
000001d0: 80f4 4e3c 907a 0abd 1a86 66bd 646e 4c3d
000001e0: 3549 2cbc 508d a53c fa2a bcbd ccab 5dbd
000001f0: 87b7 1b3e 8f93 603d e7c0 103e 4909 143e

weight_ih_l1 f4 [128, 32]
-0.1287443 0.055363845 -0.08696665 -0.14372362 -0.07289166 -0.08124161 -0.014301643 0.1762951
0.059183914 0.129223 0.22219259 -0.20206259 -0.19382778 -0.07491092 0.05182247 -0.14254175
-0.009337842 -0.035579383 -0.09012884 0.102417655 -0.04401267 -0.17244676 0.030655416 0.13473351
-0.10689619 -0.14123285 -0.116274565 -0.19082701 -0.20406187 -0.15662162 -0.009607908 -0.013303921
0.05563425 0.12231227 -0.01653958 0.15091608 -0.008915193 0.07745077 0.15769787 -0.09153667
-0.048835926 -0.02349691 0.2253529 -0.10052949 0.08897931 0.013193608 -0.105185285 -0.0146527635
0.030973405 -0.041154012 -0.04204361 0.0702852 -0.13910331 0.109023646 -0.12116385 0.111742094
-0.0260151 0.142341 -0.12006147 -0.13107762 -0.10585953 0.037296526 0.05707897 -0.018718392
0.040559147 -0.009908106 0.0049607656 0.065507814 0.043902807 -0.14998305 0.060673192 0.06631816
0.07668665 0.077288374 0.56581205 0.084032185 -0.019713925 0.11113112 -0.10995309 0.03531046
-0.0603164 0.1272511 0.123810485 0.07347755 0.12626097 -0.005877629 0.1267658 -0.057705775
-0.060057584 0.09546359 -0.08693815 -0.063936636 -0.15157452 -0.045478504 0.058483697 -0.010057926
0.057487093 -0.14446898 0.19303077 0.011450499 0.09950531 -0.14144744 0.14156996 0.14932826
0.0921545 0.05338116 0.50382257 0.062744014 -0.047507282 0.14067902 0.046998106 -0.10095173
-0.008090556 0.03125088 0.02775231 -0.15304726 -0.1832913 -0.016610816 -0.2157204 -0.14485644
0.033834837 -0.0051072985 0.1120684 -0.21791573 -0.10704412 -0.13701506 -0.12509292 0.02904673
-0.071613275 0.04633893 -0.11027936 -0.1756637 0.02676827 0.088375494 -0.117895275 0.124356195
-0.018649679 -0.12967148 0.3014776 0.023854088 0.12889214 -0.07485156 0.028744852 -0.082965
0.047988668 -0.015154049 -0.12123452 -0.09678474 -0.13028143 -0.064364225 0.08703734 -0.071866214
0.17230922 0.10911785 0.17929156 0.003159658 -0.08331734 0.15952578 0.060867343 0.16567604
0.06688403 0.109894164 0.017088715 0.05480142 0.031501558 0.03607115 0.120629 -0.005547155
0.10220529 0.05560036 0.20464024 -0.008510744 -0.189136 -0.1665208 -0.051081266 -0.015486187
0.09804888 0.12932648 0.093364224 -0.10506087 0.0061037573 0.07142407 -0.052935433 0.07560198
0.11349924 0.1171457 -0.07824685 -0.113481395 0.032130398 0.025722131 0.042563867 0.1575735
-0.005889029 0.06482271 0.04348025 -0.13646704 -0.018641043 0.090041235 -0.09527348 0.16981691
0.080726326 0.13626812 0.33165827 -0.14544892 0.08151404 -0.13773544 0.14401342 -0.09132031
0.034173638 0.11394991 0.056239054 -0.062109455 0.08465486 -0.14574611 -0.18250355 -0.14268042
0.06837133 -0.038158327 -0.028960276 0.013599445 -0.16123047 -0.11317557 -0.009917782 -0.014105141
-0.076214574 -0.18909773 0.11814689 0.035510883 -0.05006583 0.117525145 0.08772822 0.18479702
0.04458756 -0.028252885 0.28799406 -0.0850864 -0.08675909 -0.10354163 0.1293421 0.12179972
-0.05460944 -0.066012606 0.006114453 -0.101749964 0.10374907 -0.04810536 -0.08496768 0.015448481
0.10105243 0.13407855 -0.08059406 0.05704205 -0.20063956 0.0067684376 -0.15133817 0.058639348
00000000: 8cd5 03be 33c5 623d 921b b2bd 492c 13be
00000010: 3948 95bd 0062 a6bd 7051 6abc b486 343e
00000020: d56a 723d 0953 043e 7486 633e 7fe9 4ebe
00000030: ca7a 46be e56a 99bd cc43 543d 77f6 11be
00000040: c0fd 18bc b0bb 11bd 7895 b8bd 59c0 d13d
00000050: a146 34bd e295 30be 1121 fb3c 95f7 093e
00000060: 64ec dabd 589f 10be 5c21 eebd 2868 43be
00000070: 98f5 50be 6b61 20be 7d6a 1dbc b0f8 59bc
00000080: bde0 633d db7e fa3d 037e 87bc bf89 1a3e
00000090: 0811 12bc 829e 9e3d 8d7b 213e 9477 bbbd
000000a0: 2e08 48bd 987c c0bc e9c2 663e 68e2 cdbd
000000b0: c93a b63d 012a 583c 626b d7bd 2512 70bc
000000c0: f0bb fd3c 1c91 28bd ec35 2cbd b0f1 8f3d
000000d0: 1971 0ebe ca47 df3d c124 f8bd 0ad9 e43d
000000e0: 9e1d d5bc d7c1 113e cae2 f5bd 3639 06be
000000f0: e2cc d8bd 3ec4 183d a3cb 693d 5057 99bc
00000100: 5921 263d 9c55 22bc eb8d a23b f628 863d
00000110: 6ed3 333d 2895 19be 7484 783d d1d1 873d
00000120: e40d 9d3d 5e49 9e3d 0fd9 103f 1119 ac3d
00000130: 197f a1bc b698 e33d 162f e1bd b3a1 103d
00000140: 540e 77bd 1d4e 023e 5a90 fd3d 667b 963d
00000150: 8e4a 013e 2099 c0bb e5ce 013e e45c 6cbd
00000160: f1fe 75bd 6a82 c33d a10c b2bd 36f1 82bd
00000170: 5a36 1bbe ab47 3abd 9a8c 6f3d 00ca 24bc
00000180: 9677 6b3d adef 13be dca9 453e e09a 3b3c
00000190: 71c9 cb3d 99d7 10be b7f7 103e 82e9 183e
000001a0: 80bb bc3d 34a6 5a3d 84fa 003f ef7f 803d
000001b0: ff96 42bd 290e 103e 1681 403d c8bf cebd
000001c0: 408e 04bc ec00 003d d058 e33c 6cb8 1cbe
000001d0: b7b0 3bbe 6813 88bc cfe5 5cbe 3f55 14be
000001e0: 6696 0a3d 205b a7bb 1e84 e53d 4d25 5fbe
000001f0: f339 dbbd ad4d 0cbe 5c18 00be 68f3 ed3c
00000200: fba9 92bd e4cd 3d3d 25da e1bd 2fe1 33be
00000210: 2249 db3c 36fe b43d 1473 f1bd 76ae fe3d
00000220: 36c7 98bc 9ac8 04be 465b 9a3e a669 c33c
00000230: 4dfc 033e c64b 99bd 537a eb3c 8ee9 a9bd
00000240: c48f 443d b048 78bc ce49 f8bd 1437 c6bd
00000250: 7f68 05be 64d1 83bd a240 b23d 982e 93bd
00000260: d471 303e 2e79 df3d 3598 373e 4412 4f3b
00000270: 48a2 aabd ba5a 233e 0950 793d fba6 293e
00000280: 7ffa 883d 3110 e13d a2fd 8b3c 7477 603d
00000290: c707 013d 58bf 133d 560c f73d e9c4 b5bb
000002a0: 0251 d13d 34bd 633d 368d 513e a670 0bbc
000002b0: deac 41be 6e84 2abe 973a 51bd c7b9 7dbc
000002c0: dacd c83d 296e 043e be35 bf3d 272a d7bd
000002d0: 0702 c83b c846 923d d3d2 58bd 36d5 9a3d
000002e0: 4a72 e83d 16ea ef3d e23f a0bd ef68 e8bd
000002f0: 2a9b 033d 38b7 d23c 7357 2e3d f35a 213e
00000300: c1f8 c0bb c5c1 843d 5918 323d 04be 0bbe
00000310: 1ab5 98bc 8a67 b83d be1e c3bd 7ce4 2d3e
00000320: d853 a53d df89 0b3e 1dcf a93e 90f0 14be
00000330: d5f0 a63d 850a 0dbe 4178 133e 2506 bbbd
00000340: a8f9 0b3d 925e e93d ec5a 663d 7c66 7ebd
00000350: 875f ad3d 783e 15be 36e2 3abe d11a 12be
00000360: 4506 8c3d e84b 1cbd 1a3e edbc 35d0 5e3c
00000370: 9a19 25be 98c8 e7bd 317e 22bc 4019 67bc
00000380: 6316 9cbd d6a2 41be fff6 f13d dc73 113d
00000390: d411 4dbd 06b1 f03d daaa b33d 6e3b 3d3e
000003a0: 72a1 363d 9872 e7bc f573 933e c741 aebd
000003b0: c0ae b1bd a20d d4bd 4172 043e 2272 f93d
000003c0: 26ae 5fbd 9e31 87bd c05b c83b 4962 d0bd
000003d0: 647a d43d 200a 45bd 8903 aebd a01b 7d3c
000003e0: 94f4 ce3d e34b 093e 800e a5bd eda4 693d
000003f0: 7574 4dbe c5c9 dd3b 65f8 1abe d02f 703d

weight_hh_l1 f4 [128, 32]
0.03429023 0.100213155 -0.112032294 -0.013847875 0.05354906 -0.050568502 0.06734601 -0.06099513
0.20624946 0.11661092 -0.11168182 -0.046710618 -0.08150736 0.1389403 0.1145123 0.16210392
-0.08816398 -0.12995774 0.100098684 -0.14035591 0.086080745 0.08284634 -0.16890332 0.06435766
-0.011261475 -0.065270334 -0.19164804 -0.15308402 0.21159972 0.108672395 0.055441268 -0.05260854
0.052280594 -0.15357076 -0.13980155 -0.042699322 -0.08718058 -0.009005341 0.09652745 0.07469363
-0.07558628 0.14073958 0.17018324 0.05921671 -0.019469043 0.101503424 0.071348704 0.12241754
-0.13380274 0.08953052 0.065296926 0.11115622 0.19973874 -0.048548475 0.08264603 -0.020921212
-0.1550966 0.14569032 -0.108777754 -0.08180017 -0.079628035 0.080481805 0.11683978 0.115006655
-0.09088444 -0.12887505 -0.16999207 -0.06347888 0.002893238 0.06678498 0.060635354 -0.0016118947
-0.10863194 -0.016704341 0.26470277 -0.22044146 -0.02209638 0.045654662 -0.019236976 0.13477759
-0.008422185 0.06484079 0.25242075 0.16661431 0.0038654318 -0.110528566 -0.0748519 0.09782191
0.08364369 -0.021628452 -0.10371654 0.11317372 0.06752487 0.13035604 -0.10962147 0.06749266
0.007328852 0.045460813 0.053161882 0.17691459 0.032515503 0.0011847013 -0.17628779 -0.18808
0.12044154 0.22081798 -0.07393363 -0.027010785 0.0025587175 0.22147577 -0.04104097 0.15352088
-0.10151927 0.120253704 0.02710781 0.036701992 -0.04375864 0.019559134 -0.19932981 -0.082973026
0.027393607 0.043590352 0.0039496915 0.014182531 0.07018028 0.16357175 0.19247557 0.02110907
-0.066369824 -0.087506615 -0.09401452 0.10580343 -0.02018267 -0.0021758561 0.10658424 0.12043088
0.11594388 -0.12546867 0.18770249 -0.030613359 -0.008627764 -0.0045971354 -0.10666711 -0.1143641
0.13189887 0.14139804 0.117565095 -0.0149002485 0.09991781 -0.17758144 -0.06361827 -0.05839999
-0.17927149 -0.12252775 -0.011140187 -0.03744287 -0.013274697 -0.08633683 0.09128012 -0.06622919
-0.1547561 -0.091608256 -0.095517516 -0.01896085 -0.10581874 0.112702094 -0.16168235 0.09815775
0.1490617 0.10852729 -0.04860057 0.076616764 0.09890253 0.14602168 0.023818914 0.06032118
-0.10116134 -0.0637131 0.057324518 -0.046630263 0.02952848 -0.1135431 0.020504994 0.124147624
-0.19820206 0.20108365 -0.20629336 -0.11213194 0.0914323 -0.09881884 -0.059621323 -0.12237307
-0.1037405 -0.0299434 -0.09422349 -0.07519563 0.20061398 0.12690869 -0.19623715 -0.11086301
-0.018327141 -0.09086819 0.104757704 0.13483052 0.20204875 -0.0732191 -0.14020593 0.19145578
-0.1876491 0.050320182 0.1506809 -0.12794295 0.14363024 0.122327134 -0.03923997 -0.12008666
-0.14393614 0.1660342 -0.06791568 0.00877626 -0.07548888 -0.14236249 0.07595838 -0.15226577
-0.009913028 -0.024339158 0.013829884 -0.028834732 0.12987837 -0.055661537 -0.102386 0.024062445
0.1642384 -0.090091094 0.19978029 -0.09478946 0.061261777 0.2148801 -0.10305946 0.038220882
0.06075874 -0.072305135 -0.050708104 0.12323769 0.19752876 -0.1567817 -0.14613816 0.14142644
-0.054903757 0.1111974 -0.20457578 -0.19828993 0.008952947 -0.09027994 -0.061242428 0.03153707
00000000: ea73 0c3d 8e3c cd3d 3071 e5bd 33e2 62bc
00000010: 4256 5b3d eb20 4fbd b4ec 893d 08d6 79bd
00000020: 0f33 533e b5d1 ee3d 70b9 e4bd a253 3fbd
00000030: 55ed a6bd 5e46 0e3e 6d85 ea3d 92fe 253e
00000040: 518f b4bd a413 05be 8a00 cd3d 76b9 0fbe
00000050: 1a4b b03d 58ab a93d fef4 2cbe f3cd 833d
00000060: 0d82 38bc 74ac 85bd 623f 44be 0fc2 1cbe
00000070: 99ad 583e a28f de3d 6216 633d 0d7c 57bd
00000080: 2d24 563d a741 1dbe 2328 0fbe 7ce5 2ebd
00000090: bb8b b2bd 238b 13bc 2fb0 c53d f9f8 983d
000000a0: fbcc 9abd 091e 103e 8444 2e3e 398d 723d
000000b0: 8b7d 9fbc 07e1 cf3d 451f 923d 0cb6 fa3d
000000c0: 9603 09be c75b b73d 65ba 853d dfa5 e33d
000000d0: 5088 4c3e c4da 46bd 5242 a93d f662 abbc
000000e0: a5d1 1ebe d82f 153e dfc6 debd d986 a7bd
000000f0: 0614 a3bd a5d3 a43d b249 ef3d 9c88 eb3d
00000100: 9f21 babd d2f7 03be 6712 2ebe 3701 82bd
00000110: 7b9c 3d3b 90c6 883d c75c 783d 3646 d3ba
00000120: 6c7a debd 8bd7 88bc 1f87 873e 68bb 61be
00000130: 7803 b5bc 6200 3b3d dd96 9dbc 2303 0a3e
00000140: 34fd 09bc 40cb 843d 4b3d 813e f19c 2a3e
00000150: 2f53 7d3b cd5c e2bd f44b 99bd db56 c83d
00000160: 624d ab3d 272e b1bc 5669 d4bd a0c7 e73d
00000170: 7b4a 8a3d 0e7c 053e 3981 e0bd 9739 8a3d
00000180: de26 f03b 1e35 3a3d 46c0 593d 1929 353e
00000190: fa2e 053d fb47 9b3a c984 34be 0b98 40be
000001a0: 0eaa f63d 1c1e 623e 846a 97bd b945 ddbc
000001b0: 28b0 273b 8bca 623e 931a 28bd 9434 1d3e
000001c0: 56e9 cfbd 9347 f63d 3311 de3c d454 163d
000001d0: 423c 33bd 7a3a a03c 1d1d 4cbe c3ed a9bd
000001e0: 8f68 e03c cc8b 323d 6a6c 813b d95d 683c
000001f0: aeba 8f3d 5a7f 273e 5118 453e eeec ac3c
00000200: e7ec 87bd ab36 b3bd af8a c0bd 78af d83d
00000210: 2056 a5bc cf98 0ebb d748 da3d 77a4 f63d
00000220: fc73 ed3d dc7a 00be 1535 403e dec8 fabc
00000230: 775b 0dbc 91a3 96bb 4974 dabd ba37 eabd
00000240: 7f10 073e a6ca 103e f8c5 f03d 2c20 74bc
00000250: b5a1 cc3d e9d7 35be 4c4a 82bd d434 6fbd
00000260: f292 37be d4ef fabd 5585 36bc b25d 19bd
00000270: 1d7e 59bc 5dd1 b0bd 12f1 ba3d 2ba3 87bd
00000280: 6278 1ebe 1c9d bbbd b09e c3bd c953 9bbc
00000290: 7fb7 d8bd 5bd0 e63d 0f90 25be ee06 c93d
000002a0: a1a3 183e 8e43 de3d 6411 47bd 40e9 9c3d
000002b0: 698d ca3d b586 153e e21f c33c 5713 773d
000002c0: ad2d cfbd 047c 82bd 1dcd 6a3d 60ff 3ebd
000002d0: b6e5 f13c 4989 e8bd 17fa a73c 1c41 fe3d
000002e0: 7bf5 4abe dfe8 4d3e 913e 53be 6ea5 e5bd
000002f0: dc40 bb3d 8861 cabd 7d35 74bd bb9e fabd
00000300: e675 d4bd dc4b f5bc 3ff8 c0bd 2b00 9abd
00000310: c06d 4d3e 5af4 013e 64f2 48be 250c e3bd
00000320: cd22 96bc 1a19 babd 358b d63d 0311 0a3e
00000330: dee5 4e3e e5f3 95bd 2592 0fbe fc0c 443e
00000340: 1627 40be 891c 4e3d 184c 1a3e 7a03 03be
00000350: ce13 133e a686 fa3d 17ba 20bd ffef f5bd
00000360: ff63 13be df04 2a3e 6017 8bbd 4dca 0f3c
00000370: ea99 9abd 79c7 11be 1190 9b3d 8feb 1bbe
00000380: 416a 22bc ea62 c7bc bd96 623c d136 ecbc
00000390: d6fe 043e 5afd 63bd c0af d1bd 9b1e c53c
000003a0: 1c2e 283e ae81 b8bd 3493 4c3e fa20 c2bd
000003b0: a1ed 7a3d 8709 5c3e d710 d3bd 808d 1c3d
000003c0: 28de 783d b714 94bd 4db3 4fbd 0b64 fc3d
000003d0: fb44 4a3e 628b 20be 3ea5 15be 18d2 103e
000003e0: c3e2 60bd 76bb e33d 507c 51be 840c 4bbe
000003f0: 62af 123c b0e4 b8bd 57d9 7abd 042d 013d

bias_ih_l1 f4 [128]
0.19000486 0.16041142 -0.014058744 -0.073247805 0.12320279 0.18164614 -0.068758175 0.073707655
-0.09135569 -0.09525178 0.18549848 0.10786576 0.10603586 0.07622909 0.14769405 0.08208798
-0.050002813 0.18202935 0.08935162 0.12720071 0.14779188 0.041651074 0.14921653 0.017297067
0.058120564 -0.05431682 0.18715283 0.09777995 -0.12176787 0.05621005 -0.048069824 0.13672397
0.09500155 0.026208324 0.13290392 -0.04430542 0.14016819 0.049798813 -0.14341287 0.11735752
0.11781197 0.15486816 0.1149882 0.11610676 -0.09165671 0.08490279 -0.10677385 0.07586209
0.071422495 0.13915084 -0.09287632 0.00862092 -0.021576265 0.13601369 0.15268852 -0.13810493
0.21571441 0.13378443 0.111192994 -0.062706284 -0.14338449 0.0715516 0.11612413 0.068824604
0.0140192015 0.097006366 -0.1454566 0.15381353 -0.14033084 -0.14928539 0.03382666 0.120467134
-0.04415973 0.13899186 0.07560547 0.12655859 -0.00041697666 0.2112378 -0.17244561 0.066775896
-0.038041245 -0.047838856 -0.02173769 -0.065510616 -0.037697505 0.08516706 0.04357834 0.017257242
-0.124110304 0.18231909 -0.022721285 -0.1477664 0.07007438 0.011923641 0.059297577 0.08868345
0.3432474 -0.02475642 0.023616951 0.18084413 0.28558302 0.23409443 0.010026103 0.29159087
0.32268625 0.031183258 0.077268876 0.28770262 0.04700331 0.07799125 0.26162097 0.27948228
0.10703804 0.33066973 0.30283827 0.26653606 -0.020698844 0.19680864 0.105885416 0.19731729
0.11152206 0.27865317 0.23646 0.21293391 0.17461286 0.018038552 0.31417543 0.059361603
00000000: a290 423e e442 243e a556 66bc f202 96bd
00000010: bf51 fc3d 7201 3a3e 16d1 8cbd 0af4 963d
00000020: b118 bbbd 5d13 c3bd 50f3 3d3e b9e8 dc3d
00000030: 5429 d93d ff1d 9c3d 1c3d 173e be1d a83d
00000040: c0cf 4cbd e765 3a3e fbfd b63d e740 023e
00000050: c156 173e 519a 2a3d 38cc 183e 94b2 8d3c
00000060: d40f 6e3d 507b 5ebd fea4 3f3e db40 c83d
00000070: 6f61 f9bd 823c 663d dde4 44bd 5e01 0c3e
00000080: 2c90 c23d d7b2 d63c f717 083e 9a79 35bd
00000090: 4088 0f3e d7f9 4b3d d3da 12be 2459 f03d
000000a0: 6747 f13d c295 1e3e ef7e eb3d 62c9 ed3d
000000b0: 83b6 bbbd 84e1 ad3d 40ac dabd 955d 9b3d
000000c0: f545 923d 8f7d 0e3e f135 bebd c23e 0d3c
000000d0: b5c0 b0bc 2c47 0b3e 615a 1c3e 616b 0dbe
000000e0: 3de4 5c3e c9fe 083e 27b9 e33d 276c 80bd
000000f0: 62d3 12be a589 923d 7dd2 ed3d eaf3 8c3d
00000100: cbb0 653c 46ab c63d 93f2 14be 4b81 1d3e
00000110: e3b2 0fbe 45de 18be d38d 0a3d 79b7 f63d
00000120: d5e0 34bd e253 0e3e 0ad7 9a3d 9398 013e
00000130: a99d dab9 b94e 583e 9595 30be cdc1 883d
00000140: 23d1 1bbd adf2 43bd 3d13 b2bc 6e2a 86bd
00000150: b368 1abd 116c ae3d 347f 323d 0f5f 8d3c
00000160: 8b2d febd dbb1 3a3e fd21 babc 1350 17be
00000170: 2883 8f3d 605b 433c 04e2 723d ab9f b53d
00000180: 20be af3e facd cabc 5678 c13c 342f 393e
00000190: f037 923e 73b6 6f3e 8644 243c 664b 953e
000001a0: 2237 a53e 0874 ff3c 253f 9e3d c24d 933e
000001b0: 8b86 403d e0b9 9f3d 2ff3 853e 4d18 8f3e
000001c0: c336 db3d 8b4d a93e 9e0d 9b3e 6a77 883e
000001d0: 9f90 a9bc 3488 493e 74da d83d 8b0d 4a3e
000001e0: ae65 e43d a1ab 8e3e 9222 723e 590b 5a3e
000001f0: b7cd 323e 96c5 933c 9adb a03e 2725 733d

bias_hh_l1 f4 [128]
0.17314836 0.20269519 0.15954748 -0.10497145 0.032585587 -0.10298395 -0.015858607 0.19062233
0.106212236 -0.06912208 0.016211633 0.15411365 -0.045912027 -0.12973621 0.1333333 -0.032869093
0.20120886 -0.049838234 -0.07777002 0.18399094 0.12935062 -0.08544531 -0.13658533 0.01093256
0.021682994 -0.015227801 -0.07251612 0.16404942 -0.057081044 0.050949953 0.112278774 -0.119129084
-0.0077975597 0.21501495 -0.1196231 -0.092687085 0.11703915 0.15450554 0.1286416 -0.08277245
-0.13229065 -0.019912982 0.134708 -0.109351516 0.09819852 0.0074407356 0.044015937 -0.06038743
0.09726959 0.13429092 -0.06580579 0.11767572 0.0019844545 -0.0025376847 -0.0524794 0.19568245
0.046826437 0.20581041 0.10391367 -0.042271987 0.031699114 -0.040198192 -0.06921137 -0.03405821
0.006174841 -0.03379179 -0.057073023 0.08541319 0.013502445 -0.05652145 -0.117618054 0.06999871
-0.08487478 0.11005431 0.14244412 -0.14081836 0.029086465 -0.027529055 -0.19083814 0.085407384
0.02559661 0.054335527 0.049379013 0.046585366 0.16278513 -0.16980833 -0.12930273 -0.01095929
0.07810518 0.0018441221 -0.06871193 0.052317847 -0.08352788 0.13268118 0.20247793 -0.051089697
0.10895895 0.2434918 0.2793593 0.1960493 0.1374261 0.3239373 0.03391387 0.2574972
0.1186718 0.1777761 0.23164672 0.026632478 0.33356735 0.24909824 0.29556075 0.06842316
0.22719456 0.25172725 0.32623512 0.29542205 0.30340979 0.09957031 0.31286076 0.25534245
0.34949863 0.31490314 0.08106359 0.13228829 0.2112375 0.05073274 0.23546803 0.010977249
00000000: ce4d 313e 548f 4f3e 6a60 233e 46fb d6bd
00000010: 7778 053d 40e9 d2bd e9e9 81bc 8032 433e
00000020: cd85 d93d e18f 8dbd 42ce 843c f8cf 1d3e
00000030: 400e 3cbd 92d9 04be 8688 083e bea1 06bd
00000040: b209 4e3e 2d23 4cbd e345 9fbd 1f68 3c3e
00000050: 7d74 043e f3fd aebd 06dd 0bbe 7b1e 333c
00000060: 89a0 b13c 077e 79bc 5583 94bd 92fc 273e
00000070: d0cd 69bd e6b0 503d 6af2 e53d f3f9 f3bd
00000080: ac82 ffbb e12c 5c3e f5fc f4bd bad2 bdbd
00000090: 39b2 ef3d b336 1e3e a0ba 033e 9a84 a9bd
000000a0: 3377 07be 8d20 a3bc e5f0 093e b0f3 dfbd
000000b0: 4e1c c93d 6ad1 f33b 0e4a 343d cf58 77bd
000000c0: 4735 c73d 8f83 093e 30c5 86bd f8ff f03d
000000d0: 9f0d 023b 494f 26bb a4f4 56bd fb60 483e
000000e0: 14cd 3f3d f7bf 523e b1d0 d43d 6425 2dbd
000000f0: eed6 013d dca6 24bd b1be 8dbd 9f80 0bbd
00000100: 5256 ca3b 4369 0abd 67c5 69bd 1ced ae3d
00000110: 5c39 5d3c 0983 67bd bce1 f0bd 7c5b 8f3d
00000120: d4d2 adbd 2764 e13d dfdc 113e b032 10be
00000130: bd46 ee3c 9d84 e1bc 136b 43be 11ea ae3d
00000140: fbaf d13c ee8e 5e3d a641 4a3d 4cd0 3e3d
00000150: 25b1 263e 3ce2 2dbe ef67 04be 988e 33bc
00000160: 9cf5 9f3d 78b6 f13a d7b8 8cbd 3d4b 563d
00000170: aa10 abbd 93dd 073e 6056 4f3e 6e43 51bd
00000180: df25 df3d ea55 793e 2f08 8f3e 26c1 483e
00000190: 6db9 0c3e 1cdb a53e 45e9 0a3d acd6 833e
000001a0: 330a f33d f00a 363e cc34 6d3e 5b2c da3c
000001b0: 57c9 aa3e 9c13 7f3e bd53 973e 7121 8c3d
000001c0: b1a5 683e 65e2 803e 4a08 a73e 8f41 973e
000001d0: 8758 9b3e 85eb cb3d 492f a03e 3fbc 823e
000001e0: 7cf1 b23e fc3a a13e ab04 a63d 9576 073e
000001f0: a54e 583e 22cd 4f3d 881e 713e ebd9 333c

weight_ih_l0 f4 [128, 13]
-0.12412259 0.1418493 -0.0035350919 -0.1600817 0.14889024 -0.02515155 0.1065719 -0.061028548
-0.17249072 -0.044669226 -0.009911522 -0.10337855 0.04368864 -0.026864752 -0.0428555 -0.12802266
0.14090188 -0.17284998 0.17671172 -0.10410644 -0.16862361 0.04095611 0.07065436 0.060519993
0.009961873 0.080102816 -0.0062837303 0.013921171 0.042755783 0.0038958192 -0.16235676 -0.06754951
-0.10085911 -0.08619169 0.102911726 -0.16107845 -0.055706456 0.15929599 -0.06762873 0.16090547
-0.03843282 -0.021604642 0.052667394 0.041516095 0.13212706 0.012144387 -0.14944676 -0.02291067
-0.1481427 -0.09503855 -0.12642032 -0.049493387 -0.09866889 -0.1188723 0.041820124 -0.023127452
-0.108125545 0.10567008 -0.006820753 0.17192419 -0.014390349 0.0070455223 0.06592058 0.12822108
-0.035905167 -0.1416494 -0.00076778233 -0.008128524 0.0036666095 0.10352759 0.1160766 -0.11262044
0.07175745 0.17128594 0.11264296 -0.073927574 0.08458163 -0.014472872 -0.096655704 -0.16522102
-0.00041921437 -0.14243603 0.13652097 0.12255116 -0.11043461 0.046123654 -0.104157865 0.16235949
0.119524196 0.044540748 0.16591273 0.049505964 0.12581359 -0.021653473 0.17230438 -0.11506189
0.044179633 -0.09037304 -0.14038226 0.0015503466 0.10311408 0.1434056 -0.077964336 -0.021881193
0.11466952 0.0074947625 -0.072649576 0.031196445 0.11657347 0.040881112 0.056826726 -0.1451819
-0.15218467 -0.017718539 0.0008352846 0.14043246 0.08508216 0.06967342 0.11161567 0.074165985
-0.06765035 0.1348093 -0.05373873 -0.0671759 -0.14362282 0.014555156 -0.07311039 0.06125547
-0.066540346 -0.09912132 0.15869184 -0.088319205 -0.022877157 -0.15412161 0.07130171 -0.008667201
0.10930924 -0.10761666 -0.13499632 -0.06040149 0.10144423 0.045526475 -0.036994874 0.056348875
0.028657392 0.12282203 -0.12421757 -0.090749435 0.027712628 -0.070710674 -0.032401815 -0.15724656
0.083163306 0.16224797 0.05243647 0.030420959 -0.041117787 -0.02852793 -0.023063406 -0.108104154
-0.14375964 0.09173684 0.12629323 0.096243456 0.16152938 -0.077700116 -0.075625524 0.03204663
0.049224973 -0.14183797 0.0022578835 0.047047794 -0.061835155 0.1759154 0.08232735 -0.110993594
0.10706718 0.042173505 0.11690076 0.11316873 -0.11965956 0.08133276 0.05791478 -0.14630324
-0.0072749704 0.066753924 -0.008976787 0.026262969 -0.04641466 -0.03877476 -0.17162243 -0.008381233
-0.063020624 -0.12434618 0.0344896 -0.14600837 -0.028587341 -0.051345393 0.0088272095 -0.16857648
-0.12729642 -0.1619541 0.12374799 -0.03050147 -0.00602518 0.027410686 0.15357451 0.056327492
0.1747437 -0.0074894577 -0.046505734 -0.062261537 0.107031 -0.05401873 0.09180148 -0.06671227
0.17051516 0.16212095 -0.10069249 -0.075701214 0.060427427 0.13498907 -0.15821008 0.05154808
-0.06802912 -0.033915743 0.082665935 0.15416695 -0.05836226 0.10760681 0.029956922 0.053215265
0.015990004 0.07185471 -0.17616063 -0.0047175586 0.054384694 -0.14715938 0.13533165 -0.08239938
0.14079092 0.062262014 -0.046111092 -0.05251476 -0.080708176 -0.04588808 -0.053598754 0.08860125
0.10695897 -0.074136175 0.084746644 0.062933505 0.072931245 -0.15966582 -0.06418105 0.14566274
00000000: fc33 febd f140 113e 00ad 67bb 75ec 23be
00000010: af76 183e a00a cebc 5e42 da3d 12f9 79bd
00000020: 68a1 30be 14f7 36bd f063 22bc 22b8 d3bd
00000030: dcf2 323d 7813 dcbc 4089 2fbd 5f18 03be
00000040: 9548 103e 96ff 30be ebf3 343e c235 d5bd
00000050: abab 2cbe 98c1 273d 3cb3 903d d0e3 773d
00000060: 2037 233c f20c a43d c0e7 cdbb a015 643c
00000070: b020 2f3d 0051 7f3b da40 26be 6657 8abd
00000080: 398f cebd 4585 b0bd 62c3 d23d c0f1 24be
00000090: 742c 64bd 7d1e 233e ee80 8abd 67c4 243e
000000a0: bc6b 1dbd 38fc b0bc c4b9 573d c80c 2a3d
000000b0: 514c 073e 40f9 463c 9208 19be 28af bbbc
000000c0: b8b2 17be 92a3 c2bd 5474 01be 94b9 4abd
000000d0: ea12 cabd 5273 f3bd 944b 2b3d c875 bdbc
000000e0: ed70 ddbd 8e69 d83d a080 dfbb e50c 303e
000000f0: 80c5 6bbc 20de e63b 5e01 873d 634c 033e
00000100: 4c11 13bd 8a0c 11be 0045 49ba 802d 05bc
00000110: 804b 703b 4606 d43d 92b9 ed3d 8ca5 e6bd
00000120: 92f5 923d 9565 2f3e 5ab1 e63d 5767 97bd
00000130: 2239 ad3d a01f 6dbc 6df3 c5bd b32f 29be
00000140: 00ca dbb9 c0da 11be 27cc 0b3e 1afc fa3d
00000150: 8a2b e2bd 28ec 3c3d b850 d5bd 9141 263e
00000160: 1ac9 f43d 5c70 363d 07e5 293e c4c6 4a3d
00000170: 47d5 003e a062 b1bc 8f70 303e 91a5 ebbd
00000180: b4f5 343d 8015 b9bd 5ec0 0fbe 0035 cb3a
00000190: 7a2d d33d ebd8 123e c4ab 9fbd 3040 b3bc
000001a0: dad7 ea3d a096 f53b 4dc9 94bd b08f ff3c
000001b0: 12be ee3d f472 273d 24c3 683d 90aa 14be
000001c0: 4cd6 1bbe 7826 91bc 00f7 5a3a 87cd 0f3e
000001d0: 8e3f ae3d f0b0 8e3d c296 e43d 56e4 973d
000001e0: 448c 8abd 730b 0a3e 241d 5cbd 8593 89bd
000001f0: dc11 13be c078 6e3c e6ba 95bd 04e7 7a3d
00000200: 4e46 88bd 1e00 cbbd 1d80 223e b3e0 b4bd
00000210: e068 bbbc 0ed2 1dbe a206 923d e000 0ebc
00000220: 86dd df3d 2066 dcbd 7a3c 0abe 8e67 77bd
00000230: fec1 cf3d f879 3a3d f087 17bd 14ce 663d
00000240: e8c2 ea3c 1e8a fb3d c865 febd d7da b9bd
00000250: 9805 e33c c2d0 90bd c4b7 04bd 3e05 21be
00000260: 8651 aa3d 5524 263e a0c7 563d 6035 f93c
00000270: 206b 28bd 68b3 e9bc 78ef bcbc b665 ddbd
00000280: ba35 13be 86e0 bb3d 0353 013e 4a1b c53d
00000290: f567 253e 3d21 9fbd 8ee1 9abd 5443 033d
000002a0: 20a0 493d f93d 11be 00f9 133b 30b5 403d
000002b0: dc46 7dbd 2b23 343e 3e9b a83d 9c50 e3bd
000002c0: 0a46 db3d 20be 2c3d aa69 ef3d 02c5 e73d
000002d0: 1210 f5bd ca91 a63d 0c38 6d3d 84d0 15be
000002e0: e062 eebb 48b6 883d 6013 13bc 7025 d73c
000002f0: 4c1d 3ebd 48d2 1ebd cabd 2fbe 7051 09bc
00000300: f510 81bd 36a9 febd f844 0d3d 3883 15be
00000310: 0030 eabc 8c4f 52bd 00a0 103c 509f 2cbe
00000320: fe59 02be 4cd7 25be 966f fd3d 38de f9bc
00000330: e06e c5bb 608c e03c a342 1d3e a8b7 663d
00000340: 03f0 323e 206a f5bb cc7c 3ebd f405 7fbd
00000350: 1233 db3d be42 5dbd 6a02 bc3d 71a0 88bd
00000360: 879b 2e3e 0903 263e dd37 cebd 3d09 9bbd
00000370: c082 773d 933a 0a3e d301 22be 1424 533d
00000380: da52 8bbd 3ceb 0abd c24c a93d f1dd 1d3e
00000390: 440d 6fbd f660 dc3d 3868 f53c 40f8 593d
000003a0: 78fd 823c 9028 933d 7463 34be c095 9abb
000003b0: 7cc2 5e3d f3b0 16be 6194 0a3e 02c1 a8bd
000003c0: 7f2b 103e 7406 7f3d fcde 3cbd b819 57bd
000003d0: 544a a5bd 24f5 3bbd 5e8a 5bbd 9274 b53d
000003e0: 4e0d db3d b5d4 97bd a68f ad3d 48e3 803d
000003f0: fa5c 953d 707f 23be 5b71 83bd 9d28 153e

weight_hh_l0 f4 [128, 32]
0.06565744 0.14906989 -0.13458338 0.15247129 0.15474032 0.10025762 0.097108886 0.1715319
-0.16449682 0.1362318 0.08328818 0.17613544 0.04608439 0.117662385 -0.006017953 0.10997926
0.023511976 0.13795532 -0.054198906 0.15447034 -0.050449952 0.16820936 -0.066234 0.051401958
-0.112569466 -0.13745691 -0.05748739 -0.120717846 0.13451366 0.1363949 -0.07439591 0.10344602
-0.031395465 0.14561407 -0.00046165287 0.11904897 0.063261 0.004667759 -0.0022424012 0.16936253
-0.0042245537 0.14223905 -0.17636019 -0.019406289 0.033378765 -0.071101435 -0.09063412 0.0729924
0.15070687 -0.0132723 -0.13847448 0.13409786 0.1140428 0.17242794 0.05881034 -0.09631037
-0.032895237 -0.13823566 0.15848209 -0.07850444 0.032117546 -0.059211582 -0.055558987 -0.05972722
-0.13830861 -0.11238206 0.058729887 -0.056931436 0.035489857 0.03701265 0.05013363 0.0074457526
-0.04415439 -0.013625786 0.14424096 0.021041349 0.14537133 0.17373617 -0.034467414 -0.024516359
0.055427358 -0.10100153 -0.09203693 -0.009324342 -0.11115232 0.027621865 0.0041688085 0.0029575527
0.08882286 -0.12463108 -0.05344461 0.0315454 -0.009636313 -0.10851818 -0.06956748 0.124677315
-0.03219214 0.052238867 0.014655709 0.049681783 0.06168273 0.13765343 -0.04978569 -0.15365535
-0.09761258 0.07786094 -0.106668845 0.17155935 -0.05736614 -0.16376078 -0.12151499 -0.108888194
0.15570827 -0.10813577 -0.1392047 0.16190456 0.16339381 0.13065149 0.12540682 -0.15842924
0.15938158 0.06825207 0.13800676 -0.17432421 -0.034444273 -0.119317204 -0.017776564 0.15917416
-0.15109491 -0.08945363 -0.14062911 0.102589324 0.039219186 0.0045187473 0.15005566 0.012510687
-0.1401023 0.064836144 0.10803546 0.060203776 -0.029338717 0.0052563697 -0.013851389 0.09987904
-0.15646853 0.09395526 -0.06245832 0.016418725 -0.003469929 0.10807769 -0.010426924 0.13853891
0.1511799 -0.07351957 0.09729661 0.16114347 0.066560805 -0.1470232 0.15553655 0.11923437
-0.1206907 0.011489898 -0.06603766 0.026091471 0.12916775 -0.018427402 -0.023333848 0.05369845
-0.16769119 0.097889915 -0.0019856244 0.031639054 0.001722455 -0.019911587 0.107428655 -0.16383618
0.14616425 0.11190604 0.17676266 -0.021092638 -8.800626e-05 -0.0019746274 -0.12416902 0.16334815
-0.03147377 0.14773847 -0.17509739 0.14407383 0.0029817224 0.110703215 0.10562067 -0.006152153
-0.15684298 -0.10794115 0.04778835 0.14997248 -0.005455658 0.17454596 -0.037511215 -0.14510441
0.089799985 -0.056954086 -0.06343642 0.105296806 -0.0688418 0.13583608 0.0632865 0.17379625
-0.105976984 0.12677349 0.15699188 0.12850882 0.09568535 -0.1253879 -0.022643387 -0.0671779
0.010071963 0.15000959 -0.14372282 0.1619898 -0.13278061 -0.0076546967 -0.101400636 -0.00535509
0.04035425 -0.115434214 -0.07342932 0.15955703 -0.15074077 -0.120103 0.13019915 0.019646883
-0.12241031 -0.083283626 -0.075723216 0.03178619 -0.11385132 0.17606775 -0.119509175 0.15592392
0.019534603 0.16474812 -0.013123542 -0.055900082 0.17547278 0.016110376 0.07852067 -0.034875005
-0.0685191 -0.0496732 0.010469973 -0.11747643 -0.15913503 -0.019061506 0.14873172 0.1230969
00000000: 6877 863d c7a5 183e 3ad0 09be 6f21 1c3e
00000010: 3f74 1e3e de53 cd3d 06e1 c63d 0fa6 2f3e
00000020: db71 28be 5980 0b3e fe92 aa3d d95c 343e
00000030: fcc2 3c3d faf8 f03d 4032 c5bb ce3c e13d
00000040: 309c c03c 2944 0d3e acff 5dbd 792d 1e3e
00000050: 9ca4 4ebd 133f 2c3e b1a5 87bd dc8a 523d
00000060: d28a e6bd 81c1 0cbe e677 6bbd eb3a f7bd
00000070: f3bd 093e 1bab 0b3e e25c 98bd 82db d33d
00000080: 8898 00bd db1b 153e 000a f2b9 f2cf f33d
00000090: fc8e 813d 00f4 983b 40f5 12bb 5f6d 2d3e
000000a0: 206e 8abb 1da7 113e c497 34be f0f9 9ebc
000000b0: 2cb8 083d a19d 91bd 629e b9bd 0a7d 953d
000000c0: e752 1a3e 1074 59bc 41cc 0dbe f350 093e
000000d0: 468f e93d f390 303e 1ce3 703d 5f3e c5bd
000000e0: 28bd 06bd a68d 0dbe 2149 223e f0c6 a0bd
000000f0: b08d 033d d887 72bd d291 63bd 88a4 74bd
00000100: c6a0 0dbe 9128 e6bd c08e 703d f030 69bd
00000110: d05d 113d 949a 173d ec58 4d3d 80fb f33b
00000120: 3cdb 34bd b03e 5fbc e7b3 133e e85e ac3c
00000130: 39dc 143e e5e7 313e b42d 0dbd 88d6 c8bc
00000140: cc07 633d e4d9 cebd dc7d bcbd 20c5 18bc
00000150: d4a3 e3bd 4047 e23c 809a 883b 80d3 413b
00000160: c2e8 b53d 943e ffbd bce8 5abd c035 013d
00000170: a0e1 1dbc c83e debd 6579 8ebd d256 ff3d
00000180: e8db 03bd 6cf8 553d 801e 703c 207f 4b3d
00000190: 08a7 7c3d 05f5 0c3e 14ec 4bbd d457 1dbe
000001a0: 1be9 c7bd 8e75 9f3d 3275 dabd 41ad 2f3e
000001b0: c2f8 6abd e8b0 27be dadc f8bd c600 dfbd
000001c0: fd71 1f3e 4976 ddbd ad8b 0ebe 4fca 253e
000001d0: b550 273e 81c9 053e a56a 003e 463b 22be
000001e0: ed34 233e bec7 8b3d a551 0d3e 0c82 32be
000001f0: 7015 0dbd 945c f4bd 28a0 91bc 8dfe 223e
00000200: a0b8 1abe 7733 b7bd 1401 10be 5a1a d23d
00000210: 4ca4 203d 0012 943b 31a8 193e a0f9 4c3c
00000220: fa76 0fbe d0c8 843d b241 dd3d 3c98 763d
00000230: c057 f0bc a03d ac3b f0f0 62bc 628d cc3d
00000240: 4939 20be 9e6b c03d 4cd4 7fbd 9080 863c
00000250: c067 63bb d657 dd3d b0d5 2abc 25dd 0d3e
00000260: e7ce 1a3e 6e91 96bd 7243 c73d cb02 253e
00000270: 0851 883d 408d 16be f944 1f3e 2631 f43d
00000280: b02c f7bd 2040 3c3c c13e 87bd c8bd d53c
00000290: 8d44 043e 10f5 96bc a026 bfbc e8f2 5b3d
000002a0: 3db7 2bbe 827a c83d 4021 02bb f497 013d
000002b0: 00c4 e13a a01d a3bc 8e03 dc3d acc4 27be
000002c0: 15ac 153e fe2e e53d 4501 353e 78ca acbc
000002d0: 0090 b8b8 c068 01bb 544c febd bd44 273e
000002e0: a4ea 00bd c148 173e bb4c 33be 1788 133e
000002f0: 0069 433b 5eb8 e23d a64f d83d 0098 c9bb
00000300: 729b 20be 4010 ddbd b8bd 433d 6392 193e
00000310: 60c5 b2bb 2dbc 323e 5ca5 19bd 4096 14be
00000320: 0ee9 b73d b048 69bd f4ea 81bd daa5 d73d
00000330: eefc 8cbd 9d18 0b3e 5a9c 813d a5f7 313e
00000340: 760a d9bd e9d0 013e 7bc2 203e d197 033e
00000350: aef6 c33d b065 00be a07e b9bc 9194 89bd
00000360: e004 253c 1d9c 193e 132c 13be a7e0 253e
00000370: a4f7 07be 40d4 fabb 23ab cfbd c079 afbb
00000380: 804a 253d c668 ecbd 1c62 96bd eb62 233e
00000390: ca5b 1abe 90f8 f5bd ed52 053e 80f2 a03c
000003a0: 42b2 fabd 9b90 aabd c614 9bbd 3c32 023d
000003b0: e22a e9bd 1b4b 343e 3ac1 f4bd 85aa 1f3e
000003c0: 0807 a03c bbb3 283e 2004 57bc 7cf7 64bd
000003d0: 23af 333e e8f9 833c 72cf a03d 18d9 0ebd
000003e0: be53 8cbd 2076 4bbd 408a 2b3c 7c97 f0bd
000003f0: 4bf4 22be e026 9cbc 214d 183e 3a1a fc3d
