model.pt (torch, 27812 bytes, 34 tensors)

weight_ih_l0 f4 [8, 112]
00000000: c1c8 9c31 6e2a 6632 e814 65b7 98a9 bd31
00000010: 91e6 1f3b 58e1 4c3b 0cc3 272f 90ec 20b5
00000020: 1068 d4b0 53f4 093b 3caf 683b 1e4f 1e32
00000030: 4046 25b2 d192 6431 9c78 d7b1 870f f53c
00000040: 5dac a6b1 9977 0832 8216 4eb1 38e0 0a31
00000050: dec1 31b1 cdc6 4eb2 b0ad 4138 d037 a7b1
00000060: 63dd d1b2 768f b5b3 68e4 5031 9802 cab3
00000070: 5158 3f32 98c9 2bb0 d2c2 30b3 bdec 6734
00000080: 6327 08b6 c0e9 b5b6 c83f 03b2 b57e 9db3
00000090: ecbc d834 2910 77b4 0779 dbb2 8081 8032
000000a0: 7767 e432 f849 3130 1582 0000 4105 0080
000000b0: 762a 0080 fb12 0080 7641 0080 795b 0a3a
000000c0: 0d13 0000 0e05 0080 ff98 0000 cf5d 0080
000000d0: a44e 0080 4a61 0080 7c28 0000 6e2e 0000
000000e0: 740f 0080 1583 0080 4998 0080 1561 0000
000000f0: 2166 0080 7c5d 0080 2413 3431 377b 0000
00000100: a967 0080 1e8b 0080 5b19 0080 8976 0000
00000110: 846a 0080 df34 0000 e921 0000 8f1a 0080
00000120: c733 0000 c17b 0080 a298 0000 0554 0080
00000130: d42b 0080 0214 0080 4e85 0080 1735 0080
00000140: b576 0080 5e7e 0000 6151 0080 fe6e 0080
00000150: 0b4e 0080 b219 0080 e05b 0080 e6bd 0080
00000160: 5423 0000 e49d 0000 5b4a 0080 f99c 0000
00000170: 5808 0080 d460 0080 29bd 0000 6d4d 0080
00000180: 5a83 0000 fc4b 6db2 4301 ee31 4712 0000
00000190: fb13 0000 4e46 0080 8d29 0000 1338 0080
000001a0: 0aad 0000 c452 0080 5e32 0080 1f9d 0080
000001b0: 8e4f 0000 d451 0080 cf2d 0080 c784 0080
000001c0: 8db0 a3b6 8997 94ab 0ed4 8b37 683d f72a
000001d0: c836 313b ff1b 633b 0693 9234 caab a838
000001e0: b070 59b8 29e0 1c3b 5fdb 763b edc4 5d37
000001f0: 8e12 bc2b 2b12 fab4 0443 7eab 6fc3 de3c
00000200: 31e2 1bb1 78c7 08ad 167f 9d2b bb3d 1b2e
00000210: 6842 20aa 781c 51ab 384d c536 f652 a6ab
00000220: 70b9 2e2b b565 ed2c 28e6 bf35 d864 182d
00000230: dc1e 80b6 a034 06b5 783e 922b 71ed 892d
00000240: 1daa 4b2f 38e1 84b0 9fef b62c 90da 9a2d
00000250: db91 1b2d 2804 cfac 1335 382c f2e5 34ac
00000260: 9002 312b 94af 3aac 1921 0080 ca09 0080
00000270: 1a0c 0080 160f 0080 9c22 0080 8c40 0d3a
00000280: 4462 0000 4b05 0000 aaaf 0000 aa2d 0080
00000290: e430 0080 924f 0000 4618 0000 170e 0000
000002a0: 5f88 0000 137f 0080 0a00 0000 ca8d 0080
000002b0: d17a 0080 e965 0080 8651 a92b 2214 0080
000002c0: 0e24 0000 d55a 0080 1e10 0080 2294 0000
000002d0: 8662 0000 4a02 0000 a235 0000 6d66 0000
000002e0: d91a 0080 964f 0080 825c 0000 b909 0080
000002f0: 532c 0080 8da5 0080 588a 0000 fc0a 0080
00000300: 048d 0080 c662 0080 ca28 0080 d658 0080
00000310: f412 0000 4a34 0080 6436 0080 1e04 0000
00000320: 4776 0080 1f9e 0000 2d56 0000 4606 0080
00000330: 974b 0080 8d00 0080 1dac 0000 274c 0080
00000340: 1e25 0080 6df1 4e2b 9482 8f2b 1925 0080
00000350: 3b3f 0080 3e3c 0080 8319 0000 4e50 0080
00000360: 473d 0000 c6bf 0000 a281 0080 3c52 0080
00000370: 4d1f 0080 4877 0000 8b1c 0000 111e 0080
00000380: 415f 69b8 c318 b6b8 4af0 2838 02cc c630
00000390: 836a d33a bbf7 143b 4013 902e 33db 97b6
000003a0: b5f8 e132 5865 ba3a 4452 293b 3f47 85b5
000003b0: 8b81 a6ac 48fc 89b2 faea 062f 8c56 513a
000003c0: 2cd9 14b5 beee 9998 1087 4c31 2e8f 44b0
000003d0: ec4c 75b3 26d1 72ac d767 5c38 3c6e ba30
000003e0: ee24 2730 b21e 0180 3335 77b4 c748 1400
000003f0: c075 4630 fc8b 2e2e 402b 1e80 8b3b 0980
4.5630206e-09 1.3397409e-08 -1.3654331e-05 5.5199045e-09 0.0024398903 0.0031262245 1.5257856e-10 -5.994889e-07
-1.5454606e-09 0.002105017 0.0035504838 9.2148e-09 -9.620237e-09 3.3261822e-09 -6.2710352e-09 0.02991463
-4.8508313e-09 7.943435e-09 -2.998974e-09 2.0209097e-09 -2.586709e-09 -1.203598e-08 4.6176545e-05 -4.866685e-09
-2.4431477e-08 -8.454565e-08 3.0397818e-09 -9.40683e-08 1.1137744e-08 -6.249592e-10 -4.115538e-08 2.1599676e-07
-2.0288505e-06 -5.4214324e-06 -7.639706e-09 -7.33393e-08 4.0370594e-07 -2.3009547e-07 -2.5549992e-08 1.4960051e-08
2.6589744e-08 6.449734e-10 4.6665e-41 -1.885e-42 -1.5232e-41 -6.809e-42 -2.3483e-41 0.0005277913
6.834e-42 -1.813e-42 5.4885e-41 -3.3652e-41 -2.8211e-41 -3.4901e-41 1.4523e-41 1.6656e-41
-5.544e-42 -4.7023e-41 -5.463e-41 3.4826e-41 -3.6637e-41 -3.3536e-41 2.6204328e-09 4.4201e-41
-3.7186e-41 -4.9906e-41 -9.096e-42 4.2522e-41 -3.821e-41 1.8967e-41 1.2165e-41 -9.527e-42
1.8574e-41 -4.4395e-41 5.4754e-41 -3.014e-41 -1.5723e-41 -7.177e-42 -4.7821e-41 -1.9045e-41
-4.2584e-41 4.5332e-41 -2.9193e-41 -3.9816e-41 -2.7997e-41 -9.218e-42 -3.2959e-41 -6.8123e-41
1.2673e-41 5.664e-41 -2.6674e-41 5.6311e-41 -2.993e-42 -3.4735e-41 6.7858e-41 -2.7775e-41
4.712e-41 -1.38124925e-08 6.926855e-09 6.557e-42 7.168e-42 -2.522e-41 1.4906e-41 -2.0116e-41
6.2075e-41 -2.9691e-41 -1.8068e-41 -5.6364e-41 2.8539e-41 -2.9354e-41 -1.6433e-41 -4.7632e-41
-4.8783318e-06 -1.0558092e-12 1.6668837e-05 4.3918623e-13 0.0027040709 0.0034654138 2.7301593e-07 8.0428625e-05
-5.184178e-05 0.002393732 0.0037667376 1.3218477e-05 1.3363353e-12 -4.6579348e-07 -9.033193e-13 0.0271928
-2.2684044e-09 -7.774996e-12 1.1190794e-12 3.5297747e-11 -1.4233894e-13 -7.4291224e-13 5.880047e-06 -1.1818036e-12
6.2074564e-13 6.747237e-12 1.4297593e-06 8.6625915e-12 -3.8182898e-06 -4.999547e-07 1.0391263e-12 1.5680542e-11
1.8523179e-10 -9.668275e-10 5.1993544e-12 1.7604834e-11 8.843116e-12 -5.8837553e-12 2.6177435e-12 -2.5707184e-12
6.288659e-13 -2.6529655e-12 -1.1873e-41 -3.512e-42 -4.341e-42 -5.412e-42 -1.2416e-41 0.00053883414
3.5251e-41 1.899e-42 6.3016e-41 -1.6381e-41 -1.7539e-41 2.8544e-41 8.708e-42 5.054e-42
4.8921e-41 -4.5586e-41 1.4e-44 -5.0864e-41 -4.4058e-41 -3.6558e-41 1.20308e-12 -7.222e-42
1.2934e-41 -3.2584e-41 -5.782e-42 5.314e-41 3.5344e-41 8.21e-43 1.924e-41 3.6743e-41
-9.631e-42 -2.855e-41 3.3186e-41 -3.488e-42 -1.59e-41 -5.9388e-41 4.9628e-41 -3.94e-42
-5.0587e-41 -3.5433e-41 -1.4632e-41 -3.1868e-41 6.799e-42 -1.8758e-41 -1.9512e-41 1.477e-42
-4.243e-41 5.6723e-41 3.0914e-41 -2.25e-42 -2.7117e-41 -1.98e-43 6.1743e-41 -2.7318e-41
-1.3315e-41 7.352095e-13 1.0197004e-12 -1.3308e-41 -2.2683e-41 -2.1611e-41 9.152e-42 -2.8808e-41
2.1982e-41 6.8795e-41 -4.6503e-41 -2.95e-41 -1.1229e-41 4.279e-41 1.0239e-41 -1.0786e-41
-5.564024e-05 -8.6830485e-05 4.0278108e-05 1.4464379e-09 0.0016129765 0.0022730667 6.551781e-11 -4.525669e-06
2.6306546e-08 0.0014220877 0.0025836388 -9.930008e-07 -4.732386e-12 -1.6063623e-08 1.227071e-10 0.0007985614
-5.5450323e-07 -3.979064e-24 2.9762681e-09 -7.1507855e-10 -5.7113468e-08 -3.450637e-12 5.2548796e-05 1.3564612e-09
6.0806726e-10 -1.02847e-40 -2.3023021e-07 1.862818e-39 7.2199313e-10 3.968735e-11 -2.77058e-39 -8.4788e-40

weight_hh_l0 f4 [8, 2]
00000000: 7332 0938 1945 0a38 be4c 0038 a4d4 d737
00000010: 17ee 7538 1398 7438 2690 1439 344b 1039
00000020: f729 2a38 922a 2d38 b1ee c5b7 e5d5 bab7
00000030: 243c c738 fe72 c738 4f27 5625 739d 8da5
3.271033e-05 3.2966116e-05 3.058905e-05 2.5729016e-05 5.863429e-05 5.8315763e-05 0.0001416808 0.00013760926
4.057024e-05 4.128606e-05 -2.359538e-05 -2.227253e-05 9.5002615e-05 9.5104784e-05 1.857486e-16 -2.4566293e-16

bias_ih_l0 f4 [8]
00000000: 3085 7239 8873 a039 8bd4 9338 b65c 3939
00000010: ee86 b939 e0e5 a435 f743 ca38 b88d 7a25
0.00023128535 0.00030603656 7.0490954e-05 0.00017677512 0.0003538648 1.2285855e-06 9.64477e-05 2.173206e-16

bias_hh_l0 f4 [8]
00000000: 3085 7239 8873 a039 8bd4 9338 b65c 3939
00000010: ed86 b939 20ee a435 f743 ca38 b88d 7a25
0.00023128535 0.00030603656 7.0490954e-05 0.00017677512 0.00035386477 1.2288256e-06 9.64477e-05 2.173206e-16

weight_ih_l1 f4 [8, 2]
00000000: 8f5c 743e db79 743e 8637 793e ad21 793e
00000010: fdf3 c23e 250a c33e 7dc8 c53e 09bc c53e
00000020: fc99 86be 84ad 86be 224c 883e 2043 883e
00000030: 7926 8a3f b148 8a3f 5d81 8c3f baa1 8c3f
0.23863433 0.23874609 0.24337587 0.24329253 0.38076773 0.38093677 0.38629523 0.38620022
-0.26289356 -0.26304257 0.26620585 0.26613712 1.0792991 1.0803434 1.0976979 1.0986855

weight_hh_l1 f4 [8, 2]
00000000: 02cd 54be fff5 543e 3423 59be 8946 593e
00000010: b810 bebe d61c be3e e6c2 c0be fbcb c03e
00000020: 12bb 593e 81e5 59be 5e96 5cbe afb6 5c3e
00000030: 84fe 89bf 21ff 893f 4157 8cbf c457 8c3f
-0.2078133 0.20796965 -0.21204835 0.21218313 -0.3712213 0.37131375 -0.37648696 0.37655625
0.21262768 -0.21278955 -0.21541736 0.21554063 -1.0780797 1.0780984 -1.0964128 1.0964284

bias_ih_l1 f4 [8]
00000000: f11a 7a3e 1ad2 7e3e b439 c33e 43eb c53e
00000010: 2c22 8cbe 1ec1 8d3e 824b 8a3f e3a3 8c3f
0.2442434 0.24884835 0.38129961 0.38656053 -0.2736982 0.276864 1.0804293 1.0987514

bias_hh_l1 f4 [8]
00000000: f11a 7a3e 1ad2 7e3e b439 c33e 43eb c53e
00000010: 2c22 8cbe 1ec1 8d3e 824b 8a3f e3a3 8c3f
0.2442434 0.24884835 0.38129961 0.38656053 -0.2736982 0.276864 1.0804293 1.0987514

weight_ih_l0 f4 [8, 112]
00000000: 4edd 9ea0 9c61 27b8 e003 a2a3 10d3 4523
00000010: 3497 89a0 9959 c422 60e2 1820 c2b9 a821
00000020: 685f 1b21 0464 e9a3 cb7a 473a 9642 03a4
00000030: fbf0 4221 46ab 0a24 5463 dea2 5431 0080
00000040: eed7 009f 2c6e 99a0 27be f39e 2800 a69f
00000050: b854 d91e a013 aaa1 3d6b 3a22 2ebb 1ea2
00000060: 96aa 2f22 4615 7b32 fc56 5414 8c42 7ca0
00000070: 2e8a 8e21 9d3c d0a2 e733 d8b1 3acf 639f
00000080: e886 2f20 0843 ae22 137b 5e39 471d 0238
00000090: b6b7 8438 5059 8a2c 1533 0080 7001 1737
000000a0: d22d 0080 0005 1993 f889 0080 670d 0080
000000b0: b027 0080 3b4c 0000 9f13 01ac ba9f d3a2
000000c0: 5d10 0080 4d13 0080 0f31 0000 c320 0000
000000d0: efaf 0000 4220 0000 d67e 0080 493c 0080
000000e0: 0207 0080 8c48 0000 8a58 0080 4585 0080
000000f0: 2500 0080 4f0c 0000 0aa4 4738 7d65 0000
00000100: e266 0080 4105 0000 d2af 0000 d01b 0000
00000110: d5bb 0080 7b01 0000 ba1b 0080 1135 0000
00000120: 9613 0080 3237 0080 d640 0080 0d93 0080
00000130: 6d1e 0080 6c24 0080 0986 0080 fe85 0000
00000140: c269 7a2e c996 0080 f69b 0000 fe3f 0000
00000150: 7249 0080 3878 0080 c031 0000 160f 0000
00000160: 6928 0000 cb03 0000 810b 0080 d13f 0000
00000170: b422 0000 17ba 0080 7a02 0000 050a 0080
00000180: a989 0000 15a8 47b9 b0d0 aab3 fc04 0080
00000190: d737 0000 7a06 0080 9693 0000 4514 0080
000001a0: 374a 0000 3bb5 0080 0389 0000 bd7d 0000
000001b0: 7c39 0000 d6c0 0080 9b16 0000 322e 0000
000001c0: 5483 1dad 0f09 0429 8454 2baf 55f3 2dae
000001d0: 4e3f 0bad 9e13 712d 6efc 4aac a93c b02b
000001e0: 00da b9a9 cde1 af32 34bd 5339 f478 9dad
000001f0: e560 bcaa 75ef 8d2e 5087 9fab 3c00 0080
00000200: 387d 1529 0060 682c 700f 85a8 f630 bf2b
00000210: 904f 5aab 8438 07ac 1ff2 4bad ef7c 452c
00000220: 369e 37a9 d768 b1a9 3414 7023 8004 a22a
00000230: 3e47 f8ac 400c 23ad 9ce2 9cab aa15 8aa9
00000240: f8b2 8a2c 353b 0fad 0f8d 6a39 1572 d437
00000250: 9037 b7b1 228f eba9 fa3a 0000 940b e1b6
00000260: 5832 0000 a127 27a8 e342 0000 34b3 0000
00000270: 218b 0000 4b14 0080 bcbf 2cb4 8e42 802c
00000280: a819 0080 5f68 0000 3133 0080 3d1e 0080
00000290: 4300 0000 df8d 0000 bf5c 0080 9372 0080
000002a0: b805 0080 fada e5ad 9850 0000 3225 0000
000002b0: 7699 0080 d939 0080 38ff a4b4 5c67 0000
000002c0: fc0c 0000 831b 0080 2670 0000 f922 0000
000002d0: 2a12 0080 c102 0080 5270 0000 b44a 0000
000002e0: 442d 0000 db4e 0080 b827 0000 683f 0000
000002f0: 920c 0000 6398 0080 572f 0080 694a 0000
00000300: ae80 0000 e313 0080 277b 0000 7b37 0080
00000310: 7608 0000 975b 0000 6318 0080 6348 0080
00000320: 680f 0080 d411 0000 c16a 0080 3caa 0000
00000330: 7242 0080 9155 0000 e02b 0080 5114 0080
00000340: be3f 0080 36c8 5bb6 6a28 c523 304b 0000
00000350: 1522 0000 0555 0080 a016 0000 9a2d 0080
00000360: c856 0000 91ae 0000 4847 0000 1945 0080
00000370: 7c1b 0080 cdab 0000 93b8 0000 0d8c 0080
00000380: 4281 acae ab1a 402b 68a6 6334 93f1 a4b4
00000390: 9f6a 65b5 9751 3bb4 1442 0cb3 0739 4135
000003a0: d860 45b4 91fd e535 d192 f437 f20a 0db2
000003b0: 6a93 f233 3de4 f135 8968 acb2 3e20 0080
000003c0: 686c 8db7 75f4 33b1 7825 53b1 90ff 0b33
000003d0: 8bd6 8432 aad1 58b3 fdde ebb4 820b f832
000003e0: 3a56 772b d6e8 b633 1d09 35b1 76d1 33b3
000003f0: 8c91 56b2 a94d e7b1 b818 aeab 00c4 5131
-2.6912688e-19 -3.990681e-05 -1.7565716e-17 1.0724086e-17 -2.330876e-19 5.322077e-18 1.2949802e-19 1.1433292e-18
5.264231e-19 -2.5304269e-17 0.0007609545 -2.8462497e-17 6.604869e-19 3.0069054e-17 -6.027839e-18 -1.7696e-41
-2.7283667e-20 -2.5992114e-19 -2.5807271e-20 -7.030399e-20 2.3010808e-20 -1.1524843e-18 2.5264472e-18 -2.1512085e-18
2.380723e-18 1.461496e-08 1.07204194e-26 -2.1367249e-19 9.65887e-19 -5.644269e-18 -6.292328e-09 -4.8240534e-20
1.4867713e-19 4.7233767e-18 0.00021217419 3.1021682e-05 6.328469e-05 3.9321116e-12 -1.8325e-41 9.000636e-06
-1.6437e-41 -1.931378e-27 -4.9494e-41 -4.808e-42 -1.4237e-41 2.7346e-41 -1.8342894e-12 -5.736078e-18
-5.87e-42 -6.924e-42 1.7599e-41 1.1753e-41 6.3113e-41 1.1572e-41 -4.55e-41 -2.1626e-41
-2.514e-42 2.6025e-41 -3.1762e-41 -4.7808e-41 -5.2e-44 4.415e-42 4.759807e-05 3.6407e-41
-3.6907e-41 1.885e-42 6.3072e-41 9.977e-42 -6.7381e-41 5.31e-43 -9.946e-42 1.9037e-41
-7.026e-42 -1.98e-41 -2.3259e-41 -5.2752e-41 -1.0915e-41 -1.3066e-41 -4.8083e-41 4.8067e-41
5.693735e-11 -5.4092e-41 5.5948e-41 2.2956e-41 -2.6347e-41 -4.3126e-41 1.7847e-41 5.412e-42
1.4496e-41 1.36e-42 -4.127e-42 2.2893e-41 1.2449e-41 -6.6756e-41 8.88e-43 -3.594e-42
4.9383e-41 -0.00019040734 -7.954202e-08 -1.788e-42 2.0032e-41 -2.323e-42 5.2944e-41 -7.271e-42
2.6623e-41 -6.5013e-41 4.915e-41 4.5106e-41 2.0622e-41 -6.9176e-41 8.11e-42 1.6572e-41
-8.9535775e-12 2.9317745e-14 -1.5582385e-10 -3.9551768e-11 -7.915292e-12 1.370362e-11 -2.8846053e-12 1.2522389e-12
-8.2534674e-14 2.0475364e-08 0.00020193012 -1.7902548e-11 -3.3462743e-13 6.454474e-11 -1.1335186e-12 -8.4e-44
3.3193256e-14 3.3022474e-12 -1.4772661e-14 1.3584956e-12 -7.7559573e-13 -1.9216026e-12 -1.1592976e-11 2.8064736e-12
-4.077139e-14 -7.878566e-14 1.3014704e-17 2.8780103e-13 -7.0564934e-12 -9.268197e-12 -1.1147363e-12 -6.132189e-14
3.9420654e-12 -8.1417555e-12 0.00022368527 2.5325493e-05 -5.3323177e-09 -1.0460926e-13 2.1157e-41 -6.7068704e-06
1.806e-41 -9.278955e-15 2.3994e-41 6.4286e-41 4.991e-41 -7.28e-42 -1.6088501e-07 3.645368e-12
-9.204e-42 3.7441e-41 -1.8364e-41 -1.0847e-41 9.4e-44 5.0894e-41 -3.3271e-41 -4.1101e-41
-2.052e-42 -2.6131531e-11 2.8912e-41 1.3343e-41 -5.5051e-41 -2.0752e-41 -3.0733077e-07 3.7078e-41
4.658e-42 -9.87e-42 4.0231e-41 1.2546e-41 -6.516e-42 -9.88e-43 4.0293e-41 2.6798e-41
1.6238e-41 -2.8288e-41 1.4248e-41 2.2746e-41 4.51e-42 -5.4666e-41 -1.6982e-41 2.6693e-41
4.6162e-41 -7.134e-42 4.4179e-41 -1.9903e-41 3.035e-42 3.2856e-41 -8.748e-42 -2.5967e-41
-5.527e-42 6.396e-42 -3.8296e-41 6.1069e-41 -2.3836e-41 3.0695e-41 -1.574e-41 -7.288e-42
-2.2866e-41 -3.275008e-06 2.1375899e-17 2.6972e-41 1.2226e-41 -3.0499e-41 8.116e-42 -1.6359e-41
3.1131e-41 6.2623e-41 2.5571e-41 -2.4788e-41 -9.86e-42 6.163e-41 6.6213e-41 -5.0241e-41
-7.844615e-11 6.824911e-13 2.120156e-07 -3.072315e-07 -8.54643e-07 -1.7445414e-07 -3.2656388e-08 7.198109e-07
-1.8382286e-07 1.7135627e-06 2.9155433e-05 -8.209769e-09 1.12958176e-07 1.8022325e-06 -2.0070972e-08 -1.1566e-41
-1.685899e-05 -2.6186886e-09 -3.072584e-09 3.2595892e-08 1.5464385e-08 -5.0482107e-08 -4.3934406e-07 2.8876233e-08
8.787169e-13 8.517388e-08 -2.6344147e-09 -4.186719e-08 -1.2489533e-08 -6.7318138e-09 -1.2370304e-12 3.0524916e-09

weight_hh_l0 f4 [8, 2]
00000000: bf39 3437 d63b 34b7 75a5 5b37 fea5 5bb7
00000010: 150e 08b8 150e 0838 969c 96b8 969c 9638
00000020: 0c69 87b7 1869 8737 a6b8 0fb7 a6b8 0f37
00000030: 28c8 50ba 28c8 503a 620e 34ba 620e 343a
1.0742281e-05 -1.0742768e-05 1.3091941e-05 -1.3092065e-05 -3.243804e-05 3.243804e-05 -7.181724e-05 7.181724e-05
-1.614217e-05 1.6142192e-05 -8.566456e-06 8.566456e-06 -0.0007964396 0.0007964396 -0.0006868598 0.0006868598

bias_ih_l0 f4 [8]
00000000: 3aa9 0d37 e925 a836 fabc 3f38 9393 5438
00000010: 0aa9 43b7 602a 4937 71d5 503a f418 343a
8.443656e-06 5.0112035e-06 4.5713947e-05 5.0682178e-05 -1.1662263e-05 1.19904e-05 0.00079663756 0.00068701734

bias_hh_l0 f4 [8]
00000000: d2a6 0d37 e925 a836 fabc 3f38 9393 5438
00000010: 28a9 43b7 602a 4937 71d5 503a f418 343a
8.443096e-06 5.0112035e-06 4.5713947e-05 5.0682178e-05 -1.16622905e-05 1.19904e-05 0.00079663756 0.00068701734

weight_ih_l1 f4 [8, 2]
00000000: 7861 79be 466d 5a3e c68e 79be b1a1 5a3e
00000010: 42f0 c6be 0b6d ae3e 6709 c7be dd97 ae3e
00000020: bcf4 8c3e 6559 60be 90f6 8c3e 2223 60be
00000030: 5008 8abf 837f 873f 2cf9 89bf 0190 873f
-0.24353588 0.21330747 -0.2437087 0.21350743 -0.38855177 0.34067568 -0.3887436 0.34100237
0.27530468 -0.21909101 0.27531862 -0.21888402 -1.0783787 1.0585788 -1.0779166 1.0590822

weight_hh_l1 f4 [8, 2]
00000000: 9132 58be 4f32 58be eb72 58be 2e6c 58be
00000010: 1233 c1be bb30 c1be 2150 c1be 064a c1be
00000020: 7cbb 633e 22bf 633e c1ca 633e 94c1 633e
00000030: 01b3 89bf 1ab2 89bf 19a4 89bf efa2 89bf
-0.2111304 -0.21112941 -0.21137588 -0.21135017 -0.37734276 -0.3773249 -0.37756446 -0.37751788
0.22239488 0.2224088 0.22245313 0.22241813 -1.0757753 -1.0757477 -1.0753204 -1.0752848

bias_ih_l1 f4 [8]
00000000: ab0d 7f3e 8144 7f3e f823 c73e 153f c73e
00000010: d46c 92be db73 92be 7c0d 8a3f 6afe 893f
0.24907558 0.24928476 0.3889463 0.38915315 -0.28598654 -0.28604016 1.0785365 1.0780766

bias_hh_l1 f4 [8]
00000000: ab0d 7f3e 8144 7f3e f823 c73e 153f c73e
00000010: d46c 92be db73 92be 7c0d 8a3f 6afe 893f
0.24907558 0.24928476 0.3889463 0.38915315 -0.28598654 -0.28604016 1.0785365 1.0780766

weight_ih_l0 f4 [8, 112]
00000000: c0f6 b2ae 80ae 3b2e fd1b cf38 fecd 1ab2
00000010: edd5 253b d94e 503b 7416 a934 a5af 12ad
00000020: 4fb1 6337 e8d7 0c3b 2113 643b f609 64b3
00000030: a247 042d 3328 e12d 0ecf 4534 7a0e 023a
00000040: f949 beb7 5e02 ceb2 ea2d cdaa c2ae 3c2e
00000050: d200 8233 8724 9f35 96c5 0db8 4156 43b6
00000060: 8899 c3b0 eecb 2780 5355 f2b8 b815 2600
00000070: 4c6f dc36 fbca 45b2 cedb 1200 22ba 0780
00000080: 5d1a 0000 c018 cab5 a4d9 0500 dbab 0300
00000090: 8303 0000 a443 0000 508d 1c2f 3146 8225
000000a0: 6c56 d2b3 f164 3731 8e16 0000 700e 0000
000000b0: 028c 0080 ab2c 0000 5151 0080 20e0 d239
000000c0: 0c06 0080 6fbb 0000 545e 0080 7105 0000
000000d0: bd54 0000 2424 0080 5924 0000 0f51 0080
000000e0: 0529 0080 40b9 3cb3 c57b 0000 3fb6 0000
000000f0: 6716 0000 7609 0000 5bb0 74b6 1685 0080
00000100: 0c3b 0000 1aaf 0000 6a66 0000 5476 0000
00000110: ca9b 0080 f71c 0000 3729 0000 c10b 0080
00000120: 5f29 0000 6862 0080 127d 0080 cc0e 0000
00000130: 552b 0080 4437 0080 af7b 0000 c54d 0080
00000140: d6b5 0000 0530 0000 aab0 0000 621d 0080
00000150: fb00 0080 fa88 0080 b609 0080 d398 0000
00000160: c41e 0000 9349 0080 114b 0000 b843 0000
00000170: 6348 0000 540a 0080 ba4c 0080 149d 0000
00000180: e813 0080 786d e0b1 7caf 42ae 2a3a 0000
00000190: d543 0080 03a2 0000 59ab 0080 3c28 0080
000001a0: f50d 0080 a42b 0080 dc9c 0000 130f 0080
000001b0: d6a8 0000 0730 0000 747a 0080 ad06 0080
000001c0: 164f 07aa bc4f d5a9 41bc 7b34 0e1d b6b2
000001d0: d91f 763a 94c5 843a 9466 2d2b 7201 04b4
000001e0: f4ef cb32 5348 183a 1cd4 1e3c 81c3 a02f
000001f0: bcc5 7fac 6ec8 612e 3642 362b 6502 8631
00000200: ac33 cbb6 3c50 0227 f4dd 43b5 623c 8433
00000210: 0e86 01ac 5064 19b0 9481 7719 f73d 8130
00000220: c021 8d32 90ff d71a bfdc 95b3 b6ae 3017
00000230: b634 afb8 503e eab5 0a37 24b0 858a 0680
00000240: 6ac2 0000 917f d22b 8ea6 0000 31ef 0200
00000250: 7905 0800 615f 0380 08a0 0e27 ac65 e4ad
00000260: 7c73 db2d 8c62 00b8 da33 0000 c950 0080
00000270: 685a 0080 334e 0000 0f1c 0080 9c09 1a3c
00000280: 3350 0080 05b4 0000 ad0f 0000 040a 0080
00000290: bc0e 0000 5e03 0080 6616 0000 de08 0000
000002a0: 9304 0000 b317 0080 a702 0080 2c49 0000
000002b0: 6aa2 0080 467b 0000 6463 1ab1 d385 0080
000002c0: 2b31 0080 af34 0000 f71a 0000 bf45 0000
000002d0: 0d29 0000 6428 0000 526b 0080 ce92 0000
000002e0: c38c 0000 ee35 0000 9707 0000 5d31 0080
000002f0: 9175 0000 762f 0080 5d3e 0000 9c37 0080
00000300: 433e 0080 be03 0080 2fb5 0000 0f12 0080
00000310: 041b 0080 3c3c 0080 aa50 0080 1e6e 0000
00000320: ce4a 0000 b572 0080 f5a1 0080 cf7a 0000
00000330: b33e 0080 3a01 0000 960e 0080 5a06 0000
00000340: 710f 0000 22e6 0fb1 2ce3 cc34 1b2d 0000
00000350: e575 0080 4684 0080 7e34 0000 e246 0080
00000360: 713b 0000 e598 0080 e792 0000 631a 0080
00000370: 0b63 0000 772c 0000 3e20 0080 819b 0080
00000380: 64e1 73ad e92e 052f e64d b2b8 449d 5f2f
00000390: 97c8 e33a ab68 123b fe2f 2a39 1b31 1dae
000003a0: aff5 3dae d132 c73a 763b 2e3b 147e 6131
000003b0: 6e90 2aaf 02f2 bd31 f3ba bfb0 0978 6337
000003c0: 2099 d5ae 486b 8d2e 3841 38b7 1f88 9732
000003d0: e0d3 bdae e698 b130 4e76 3638 fa47 9437
000003e0: 80a1 b9b7 a437 2cb1 d29d b42f 39dd 9537
000003f0: 32ee 0db8 da1b d530 588f 16b1 f8db 5933
-8.1383345e-11 4.2673864e-11 9.8757424e-05 -9.010817e-09 0.0025304512 0.0031785278 3.149504e-07 -8.33814e-12
1.3571537e-05 0.0021490995 0.003480144 -5.3094446e-08 7.519237e-12 2.559739e-11 1.8422381e-07 0.00049612636
-2.2684211e-05 -2.3982633e-08 -3.6447174e-13 4.2901467e-11 6.053746e-08 1.1857054e-06 -3.3801036e-05 -2.910747e-06
-1.4231754e-09 -3.65474e-39 -0.00011555352 3.49754e-39 6.5694676e-06 -1.1513062e-08 1.73189e-39 -7.0962e-40
9.457e-42 -1.5057376e-06 5.37252e-40 3.37157e-40 1.26e-42 2.4265e-41 1.4238322e-10 2.259897e-16
-9.794607e-08 2.6687383e-09 8.091e-42 5.179e-42 -5.0225e-41 1.6024e-41 -2.9171e-41 0.00040221307
-2.169e-42 6.7239e-41 -3.3839e-41 1.952e-42 3.0398e-41 -1.2965e-41 1.3039e-41 -2.9078e-41
-1.4715e-41 -4.3940645e-08 4.44e-41 6.5378e-41 8.036e-42 3.394e-42 -3.6461486e-06 -4.7742e-41
2.1182e-41 6.2815e-41 3.6739e-41 4.2448e-41 -5.5887e-41 1.039e-41 1.4785e-41 -4.217e-42
1.4841e-41 -3.5302e-41 -4.4867e-41 5.308e-42 -1.5545e-41 -1.9826e-41 4.437e-41 -2.7898e-41
6.523e-41 1.7226e-41 6.3375e-41 -1.054e-41 -3.52e-43 -4.9138e-41 -3.484e-42 5.4823e-41
1.1037e-41 -2.6393e-41 2.6929e-41 2.4293e-41 2.5967e-41 -3.705e-42 -2.7524e-41 5.6349e-41
-7.141e-42 -6.531703e-09 -4.4266354e-11 2.0865e-41 -2.4334e-41 5.8119e-41 -6.1468e-41 -1.4433e-41
-5.007e-42 -1.5655e-41 5.627e-41 -5.408e-42 6.0567e-41 1.7229e-41 -4.3928e-41 -2.395e-42
-1.2017847e-13 -9.472932e-14 2.3444683e-07 -2.1200801e-08 0.0009388901 0.0010129684 6.16043e-13 -1.2293984e-07
2.3741428e-08 0.0005809117 0.0096941255 2.9242744e-10 -3.6347444e-12 5.1337094e-11 6.4751275e-13 3.9001855e-09
-6.055887e-06 1.808462e-15 -7.2966145e-07 6.1577126e-08 -1.8406418e-12 -5.580363e-10 1.2795769e-23 9.403597e-10
1.6429908e-08 8.93348e-23 -6.978507e-08 5.7089183e-25 -8.3544684e-05 -1.7452494e-06 -5.974107e-10 -6.00704e-40
6.9743e-41 1.4956804e-12 5.9749e-41 2.69477e-40 7.36647e-40 -3.09722e-40 1.9793212e-15 -2.596575e-11
2.4948703e-11 -3.0609357e-05 1.8601e-41 -2.898e-41 -3.2432e-41 2.8053e-41 -1.0066e-41 0.009401705
-2.877e-41 6.4579e-41 5.623e-42 -3.593e-42 5.286e-42 -1.208e-42 8.035e-42 3.181e-42
1.641e-42 -8.502e-42 -9.51e-43 2.6249e-41 -5.8263e-41 4.4222e-41 -2.2466446e-09 -4.8007e-41
-1.7638e-41 1.89e-41 9.673e-42 2.502e-41 1.4726e-41 1.449e-41 -3.8499e-41 5.2664e-41
5.0496e-41 1.9346e-41 2.723e-42 -1.7708e-41 4.2175e-41 -1.7026e-41 2.2372e-41 -1.9949e-41
-2.2335e-41 -1.342e-42 6.4996e-41 -6.478e-42 -9.691e-42 -2.1608e-41 -2.8937e-41 3.9503e-41
2.6835e-41 -4.1149e-41 -5.8099e-41 4.4055e-41 -2.2492e-41 4.4e-43 -5.232e-42 2.279e-42
5.54e-42 -2.0940054e-09 3.816325e-07 1.6181e-41 -4.2293e-41 -4.7451e-41 1.883e-41 -2.5428e-41
2.1324e-41 -5.4848e-41 5.2699e-41 -9.466e-42 3.553e-41 1.5951e-41 -1.1566e-41 -5.5784e-41
-1.38629976e-11 1.2112945e-10 -8.502211e-05 2.0337604e-10 0.0017378506 0.002234022 0.00016230342 -3.574128e-11
-4.3191836e-11 0.001519764 0.0026585734 3.2813476e-09 -1.5512722e-10 5.528137e-09 -1.3950213e-09 1.3558202e-05
-9.713319e-11 6.4309946e-11 -1.098244e-05 1.7640614e-08 -8.6323615e-11 1.2921901e-09 4.350236e-05 1.7676492e-05
-2.2128923e-05 -2.5060922e-09 3.2853947e-10 1.7865199e-05 -3.3838856e-05 1.5505706e-09 -2.1909354e-09 5.072431e-08

weight_hh_l0 f4 [8, 2]
00000000: f0aa 62b6 303b 0c36 4644 5c36 0ffb 9536
00000010: 7502 ae38 c094 b138 fe91 9034 9dcd a334
00000020: c31a 2b35 b090 3235 62a8 a830 8d15 a430
00000030: 625f 0d39 771d 0d39 53ed 6c39 33c9 6c39
-3.3776123e-06 2.0896077e-06 3.2822295e-06 4.469773e-06 8.297424e-05 8.4677245e-05 2.6928313e-07 3.051072e-07
6.374141e-07 6.6520715e-07 1.2271466e-09 1.1938696e-09 0.00013482341 0.00013457784 0.00022595124 0.00022581666

bias_ih_l0 f4 [8]
00000000: 0d45 4039 e30b 0038 29db db38 981a ae34
00000010: 3c57 9c36 560c e331 3130 0e39 bedf 6d39
0.0001833627 3.052865e-05 0.000104835555 3.2429375e-07 4.6593177e-06 6.607972e-09 0.00013560128 0.00022685432

bias_hh_l0 f4 [8]
00000000: 0d45 4039 e30b 0038 29db db38 971a ae34
00000010: 3c57 9c36 560c e331 3630 0e39 bedf 6d39
0.0001833627 3.052865e-05 0.000104835555 3.2429372e-07 4.6593177e-06 6.607972e-09 0.00013560135 0.00022685432

weight_ih_l1 f4 [8, 2]
00000000: fe3f 773e d540 773e ab22 763e 8723 763e
00000010: f791 c43e 0191 c43e ae00 c43e 67f7 c33e
00000020: daa7 873e 65a8 873e 4709 87be ee09 87be
00000030: 0c32 8b3f 912f 8b3f 260d 8b3f 1305 8b3f
0.24145505 0.24145825 0.24036662 0.2403699 0.38392612 0.3839188 0.3828177 0.3827469
0.26495248 0.26495662 -0.26374266 -0.26374763 1.0874648 1.0873891 1.0863388 1.0860924

weight_hh_l1 f4 [8, 2]
00000000: 8193 573e a596 57be 287c 563e aa75 56be
00000010: 8499 bf3e f399 bfbe f80a bf3e 3507 bfbe
00000020: bba9 5b3e 44ae 5bbe 216d 5abe b064 5a3e
00000030: a1e6 8a3f 85e6 8abf c4c1 8a3f 83c1 8abf
0.21052362 -0.2105356 0.209458 -0.20943323 0.3742181 -0.3742214 0.37313056 -0.37310186
0.21451466 -0.21453196 -0.21330692 0.21327472 1.0851632 -1.0851599 1.0840383 -1.0840305

bias_ih_l1 f4 [8]
00000000: 4de0 7c3e 84c3 7b3e 04c1 c43e d82f c43e
00000010: 161c 8d3e 5b7e 8cbe 5234 8b3f 6f0f 8b3f
0.24694939 0.24586302 0.3842851 0.38317752 0.2756049 -0.27440152 1.0875342 1.0864085

bias_hh_l1 f4 [8]
00000000: 4de0 7c3e 84c3 7b3e 04c1 c43e d82f c43e
00000010: 161c 8d3e 5b7e 8cbe 5234 8b3f 6f0f 8b3f
0.24694939 0.24586302 0.3842851 0.38317752 0.2756049 -0.27440152 1.0875342 1.0864085

weight_ih_l0 f4 [8, 112]
00000000: 0d69 0000 5f7a 0380 d739 0400 204e da24
00000010: 51bd 0993 7fca 7b05 5fa9 0700 d6aa 0300
00000020: 4806 0400 269d 5933 567c 7b3a 56c3 0200
00000030: a2a1 0400 550b ec20 2f13 0080 c221 0080
00000040: b71e 0700 f0f2 0300 307b 0000 5626 0380
00000050: 7c56 0200 b14a 0200 ceef 8e86 412c 0400
00000060: f7a1 0280 82ab a128 d7e0 0500 fdc2 0700
00000070: ebca 0180 340b 0180 9e63 f234 c000 0480
00000080: 664d 0a80 3daf 0580 173c 1337 ea3a 1938
00000090: 2f72 0a80 be8d 1f80 d8d2 ff2d fee9 57b5
000000a0: 3442 0080 702c 0980 1027 0000 b21a 0000
000000b0: 4fb9 0080 7624 0080 665f 0080 01c0 0080
000000c0: 7c30 0000 7826 0000 38bf 0000 1977 0080
000000d0: b306 0000 067a 0080 75a4 0000 cb1d 0080
000000e0: e946 0000 1e3b 0000 1685 0000 cb3a 0080
000000f0: 0443 0080 450c 0000 8a85 e493 f703 0000
00000100: cc07 0000 6db6 0080 4158 0080 b403 0000
00000110: 0028 0080 9e9c 0080 c2a2 0000 b135 0000
00000120: cec3 0080 df07 0080 541d 0080 f182 0000
00000130: f647 0000 a028 0000 4433 0000 cd65 0000
00000140: 7c07 0000 db8c 0080 0766 0080 ec0f 0080
00000150: 3d47 0080 0b1d 0080 0f31 0000 9463 0000
00000160: 1511 0080 9c75 0080 6c2e 0080 30b7 0000
00000170: 6708 0080 7435 0080 b709 0000 a6b4 0080
00000180: f740 0000 2cba 1bb2 b809 e536 262d 0080
00000190: b098 0000 5432 0080 2d3a 0080 5301 0080
000001a0: 7257 0080 c38b 0000 2d9a 0080 2633 0080
000001b0: c19a 0000 341c 0080 4070 0000 3e06 0080
000001c0: e447 27b1 e278 2839 44a3 0000 a181 0000
000001d0: f7f0 bd37 1ab0 fc32 6269 0480 b7b2 1400
000001e0: 4086 0200 0e12 6136 331e cb39 d299 0000
000001f0: cca4 74b3 0f49 0080 0570 1200 be74 0000
00000200: 1cf3 a2b1 02d1 8db8 d088 d9ae 7b1c ee15
00000210: a7f3 ad30 1eb5 0600 8331 0000 5ea8 0680
00000220: af20 2c00 2009 a933 b262 c1b4 0caa 0b32
00000230: 185a 35a1 d1b8 0a00 4c33 0080 cc62 e338
00000240: 606e 9cb1 ac35 0000 c297 1f37 ed9d 1738
00000250: c67f 0e2f baf9 61ae 341b 0080 f8f9 f72a
00000260: 9d1e 0000 fece d435 7a3d 0080 3b1b 0080
00000270: 8f8f 0000 217d 0000 fe1f 0000 8721 9135
00000280: 9a84 0000 d85d 0080 d35d 0000 065d 0080
00000290: 8432 0000 8e26 0080 af84 0000 0caf 0080
000002a0: 7a5c 0080 a34d 0000 df19 0080 ee18 0080
000002b0: 1d2f 0080 8490 0080 a601 9f37 d29b 0080
000002c0: a601 0080 6417 0080 3f7c 0080 b622 0080
000002d0: 5e25 0000 0353 0000 91a6 0080 b120 0000
000002e0: c04b 0080 ce1d 0000 ed2f 0080 d196 0000
000002f0: f66c 0000 2009 0000 6e27 0000 8e35 0080
00000300: 4304 0080 8e6a 0000 7803 0000 c578 0000
00000310: 488c 0000 393f 0000 9c2b 0080 9c65 0080
00000320: 5e87 0000 5914 0000 0fb9 0000 4d19 0080
00000330: 742a 0080 1523 0080 18b1 0000 b165 0000
00000340: 153c 0000 f75d 6432 da44 4cae e06c 0000
00000350: 5903 0080 9e26 0000 1489 0080 c72f 0000
00000360: 1805 0080 7a1d 0080 c46e 0080 5e30 0080
00000370: 7f0e 0080 ca1b 0000 975e 0080 7806 0000
00000380: b7a6 0000 d063 0000 ee58 162a 1e83 1832
00000390: 77f2 4232 f351 5426 764a 0000 5b43 0300
000003a0: 3805 d416 17c1 6b38 4e90 e63b 01af 8c28
000003b0: 0e27 0080 3009 552e 5cb9 0000 38e5 0900
000003c0: dba8 0300 fa57 0600 6477 0000 9e87 0080
000003d0: cc0f 0080 e852 0000 61eb 0b2f 4f58 0000
000003e0: d534 0000 648e 0600 032e 0000 90c9 0400
000003f0: 2098 0080 6d41 0000 e310 3e1e 4196 0e80
3.7685e-41 -3.19405e-40 3.88091e-40 9.467478e-17 -1.7385171e-27 1.1839156e-35 7.03607e-40 3.36791e-40
3.69595e-40 5.0667175e-08 0.00095934176 2.53744e-40 4.25325e-40 3.9987454e-19 -6.882e-42 -1.211e-41
6.53867e-40 3.62656e-40 4.4191e-41 -2.89259e-40 2.14696e-40 2.10465e-40 -5.3766825e-35 3.83217e-40
-2.41773e-40 1.794897e-14 5.39835e-40 7.12797e-40 -1.64629e-40 -9.5854e-41 4.5148494e-07 -3.67611e-40
-9.4612e-40 -5.22041e-40 8.7758735e-06 3.653291e-05 -9.59316e-40 -2.897748e-39 2.9083777e-11 -8.0434245e-07
-2.3749e-41 -8.4246e-40 1.4013e-41 9.576e-42 -6.6476e-41 -1.308e-41 -3.4223e-41 -6.8878e-41
1.7393e-41 1.38e-41 6.8596e-41 -4.2724e-41 2.403e-42 -4.3774e-41 5.8996e-41 -1.0688e-41
2.5438e-41 2.1207e-41 4.7742e-41 -2.1091e-41 -2.404e-41 4.401e-42 -5.768697e-27 1.422e-42
2.797e-42 -6.5442e-41 -3.166e-41 1.328e-42 -1.4349e-41 -5.6184e-41 5.8387e-41 1.9261e-41
-7.0241e-41 -2.824e-42 -1.0521e-41 4.6973e-41 2.5815e-41 1.4574e-41 1.839e-41 3.6519e-41
2.685e-42 -5.053e-41 -3.66e-41 -5.712e-42 -2.5555e-41 -1.0419e-41 1.7599e-41 3.5722e-41
-6.128e-42 -4.219e-41 -1.6653e-41 6.5715e-41 -3.014e-42 -1.9175e-41 3.485e-42 -6.4804e-41
2.3305e-41 -9.064518e-09 6.8258632e-06 -1.6196e-41 5.4774e-41 -1.8054e-41 -2.087e-41 -4.75e-43
-3.137e-41 5.0137e-41 -5.5308e-41 -1.8349e-41 5.5515e-41 -1.0117e-41 4.0268e-41 -2.239e-42
-2.4342564e-09 0.00016066761 5.8569e-41 4.6502e-41 2.2642764e-05 2.9416743e-08 -4.05146e-40 1.900821e-39
2.31831e-40 3.3538122e-06 0.00038741677 5.518e-41 -5.696056e-08 -2.6208e-41 1.693224e-39 4.1879e-41
-4.742459e-09 -6.762335e-05 -9.89232e-11 9.617237e-26 1.2656657e-09 6.15986e-40 1.7761e-41 -6.11412e-40
4.052486e-39 7.8713356e-08 -3.6020862e-07 8.129529e-09 -6.1444423e-19 9.84655e-40 -1.8402e-41 0.00010842606
-4.5527457e-09 1.9254e-41 9.512472e-06 3.6148285e-05 1.2960219e-10 -5.138088e-11 -9.759e-42 4.4049465e-13
1.0982e-41 1.5855474e-06 -2.2054e-41 -9.768e-42 5.1499e-41 4.4888e-41 1.1477e-41 1.08131e-06
4.7568e-41 -3.3665e-41 3.3658e-41 -3.337e-41 1.8122e-41 -1.3831e-41 4.7598e-41 -6.2795e-41
-3.3174e-41 2.7851e-41 -9.281e-42 -8.943e-42 -1.6901e-41 -5.1842e-41 1.8955045e-05 -5.5898e-41
-5.91e-43 -8.391e-42 -4.4571e-41 -1.2452e-41 1.3405e-41 2.9779e-41 -5.9753e-41 1.1727e-41
-2.7174e-41 1.0692e-41 -1.7193e-41 5.4103e-41 3.9088e-41 3.273e-42 1.4145e-41 -1.9212e-41
-1.529e-42 3.8225e-41 1.244e-42 4.3324e-41 5.0323e-41 2.268e-41 -1.5644e-41 -3.645e-41
4.856e-41 7.3e-42 6.6387e-41 -9.076e-42 -1.523e-41 -1.2585e-41 6.3529e-41 3.648e-41
2.1553e-41 1.3292712e-08 -4.6445382e-11 3.9057e-41 -1.201e-42 1.3853e-41 -4.9174e-41 1.7139e-41
-1.827e-42 -1.0574e-41 -3.9735e-41 -1.7351e-41 -5.2e-42 9.969e-42 -3.3932e-41 2.32e-42
5.9806e-41 3.5806e-41 1.335353e-13 8.877377e-09 1.1347416e-08 7.3663337e-16 2.6712e-41 2.99669e-40
3.425374e-25 5.6208195e-05 0.0070362454 1.5619018e-14 -1.401e-41 4.8438753e-11 6.6494e-41 9.08748e-40
3.3608e-40 5.82573e-40 4.2829e-41 -4.865e-41 -5.667e-42 2.9741e-41 1.27256e-10 3.1679e-41
1.8953e-41 6.02093e-40 1.6506e-41 4.39649e-40 -5.4572e-41 2.347e-41 1.0062008e-20 -1.339598e-39

weight_hh_l0 f4 [8, 2]
00000000: 3677 77b6 1875 77b6 b460 76b6 8477 76b6
00000010: 5e49 feb6 ec48 feb6 7022 03b7 7022 03b7
00000020: 9812 ca35 88fd c935 48ff 0536 48ff 0536
00000030: a6cc cb3a a6cc cb3a a5cb cb3a a5cb cb3a
-3.6875258e-06 -3.6874026e-06 -3.6713145e-06 -3.6726424e-06 -7.578331e-06 -7.578279e-06 -7.816227e-06 -7.816227e-06
1.5055584e-06 1.5049454e-06 1.9967138e-06 1.9967138e-06 0.0015548661 0.0015548661 0.0015548362 0.0015548362

bias_ih_l0 f4 [8]
00000000: 02ea 9f36 90b1 9c36 e85f a137 9e42 a037
00000010: b0de 7d37 6b1b 7d37 37d0 cb3a 33cf cb3a
4.7658114e-06 4.6698333e-06 1.9237355e-05 1.9104507e-05 1.5131824e-05 1.5086359e-05 0.0015549724 0.0015549421

bias_hh_l0 f4 [8]
00000000: 02ea 9f36 90b1 9c36 e85f a137 aa42 a037
00000010: b0de 7d37 851b 7d37 37d0 cb3a 33cf cb3a
4.7658114e-06 4.6698333e-06 1.9237355e-05 1.910453e-05 1.5131824e-05 1.50863825e-05 0.0015549724 0.0015549421

weight_ih_l1 f4 [8, 2]
00000000: df4d 763e e24d 763e 4ff1 743e 55f1 743e
00000010: 38b9 c33e 36b9 c33e 662e c33e 6a2e c33e
00000020: 9db4 87be 9eb4 87be 8adc 86be 89dc 86be
00000030: 3e45 893f 8045 893f 0fd5 893f 5fd5 893f
0.24053143 0.24053147 0.23920177 0.23920186 0.38227248 0.38227242 0.38121337 0.3812135
-0.26504984 -0.26504987 -0.26340133 -0.2634013 1.0724256 1.0724335 1.0768145 1.0768241

weight_hh_l1 f4 [8, 2]
00000000: 9a17 57be 702e 57be c572 55be 3b81 55be
00000010: fcca bebe 50d3 bebe 3a3b bebe 5f3f bebe
00000020: f85e 5c3e c779 5c3e a452 5a3e 1d62 5a3e
00000030: 57f9 88bf 95f9 88bf 2f8c 89bf 448c 89bf
-0.21005097 -0.21013808 -0.20844562 -0.20850079 -0.3726424 -0.37270594 -0.3715456 -0.37157723
0.21520603 0.2153083 0.21320587 0.2132649 -1.0701092 -1.0701166 -1.0745906 -1.0745931

bias_ih_l1 f4 [8]
00000000: a2ff 7b3e 8896 7a3e a1fa c33e 486a c33e
00000010: c637 8dbe 8e51 8cbe b447 893f 6eda 893f
0.24609235 0.24471486 0.38277152 0.38167024 -0.27581614 -0.2740597 1.0725007 1.0769784

bias_hh_l1 f4 [8]
00000000: a2ff 7b3e 8896 7a3e a1fa c33e 486a c33e
00000010: c637 8dbe 8e51 8cbe b447 893f 6eda 893f
0.24609235 0.24471486 0.38277152 0.38167024 -0.27581614 -0.2740597 1.0725007 1.0769784

weight f4 [2, 8]
00000000: 3005 87c1 b3fe 8641 bcfb 86c1 f728 86c1
00000010: 4620 8541 afb2 84c1 5fb9 86c1 7062 85c1
00000020: 18e1 86c1 ef6b 8641 8aa5 86c1 2662 86c1
00000030: 5d29 8641 ae58 86c1 9031 85c1 cc71 86c1
-16.877533 16.874365 -16.872917 -16.770002 16.640759 -16.587248 -16.840513 -16.673065
-16.85991 16.802702 -16.83083 -16.797924 16.770197 -16.7933 -16.6492 -16.805565

bias f4 [2]
00000000: dafc a341 ac42 a341
20.498463 20.407555
