model.pt (torch, 78692 bytes, 34 tensors)

weight_ih_l0 f4 [64, 13]
0.009375389 0.0009141754 -0.0047514983 0.0053208075 0.00744915 0.0016179632 -0.00040068862 -0.002818642
-0.0068838075 0.011425003 -0.0030863548 0.010326888 0.0048585124 0.009389338 0.00093360106 -0.004747003
0.005395788 0.0074690236 0.0016253154 -0.00039543858 -0.002826547 -0.0068834703 0.011425397 -0.003087575
0.010376579 0.004863677 0.009393229 0.0009387388 -0.0047458718 0.005401015 0.0074815396 0.0016212527
-0.00039250235 -0.0028293196 -0.006888656 0.011426415 -0.0030846284 0.010378657 0.004863838 0.009419465
0.0009661588 -0.0047360538 0.005528785 0.007508488 0.0016435996 -0.00036800784 -0.0028411027 -0.006891306
0.011429967 -0.0030791948 0.010433603 0.004872709 0.009401121 0.0009451145 -0.00474498 0.0053788056
0.0074715805 0.0016331837 -0.00038785496 -0.0028276779 -0.00688901 0.011428662 -0.0030865911 0.010396265
0.0048649283 0.009377614 0.00092911563 -0.004748325 0.0053647626 0.0074691996 0.0016180304 -0.00039909815
-0.002821045 -0.0068878583 0.011424632 -0.0030866896 0.0103650605 0.0048621525 0.009394161 0.00092325563
-0.0047465866 0.0053659 0.0074728103 0.0016244727 -0.00039465938 -0.002828338 -0.006883899 0.011425871
-0.0030871795 0.010372009 0.0048613832 0.009402969 0.0009445012 -0.004745565 0.0054526743 0.007480254
0.0016343168 -0.00038633234 -0.0028341177 -0.0068892646 0.01142791 -0.003083158 0.010391564 0.0048656687
0.009394218 0.00093592046 -0.0047454606 0.005423953 0.0074867248 0.0016289633 -0.00038779818 -0.0028330877
-0.0068884217 0.011427508 -0.0030834512 0.010392334 0.0048639583 0.009412622 0.0009620634 -0.0047391974
0.0054506557 0.0074912882 0.0016376569 -0.00037791702 -0.0028381066 -0.006890672 0.011427564 -0.0030805557
0.010421428 0.0048691942 0.009395403 0.00093025446 -0.004747829 0.0053348583 0.0074675158 0.001624377
-0.00039379403 -0.0028281056 -0.0068879966 0.011425877 -0.0030852577 0.010371566 0.004860037 0.009392846
0.0009276065 -0.004749471 0.005373067 0.0074664936 0.0016202291 -0.00039245153 -0.0028244208 -0.006885654
0.011425728 -0.0030880272 0.010363957 0.0048617898 0.009396377 0.00093233405 -0.0047465 0.00538763
0.007472067 0.0016207331 -0.00039485947 -0.002829847 -0.006885825 0.0114241345 -0.0030855944 0.010379875
0.0048628193 0.00939652 0.000935696 -0.0047456734 0.0053894054 0.007481404 0.0016281204 -0.0003892025
-0.0028290576 -0.0068889526 0.011424 -0.0030839161 0.010387663 0.0048613776 0.009394734 0.0009294455
-0.0047499384 0.005368831 0.0074742115 0.0016238323 -0.000397317 -0.0028263426 -0.006882035 0.011424611
-0.0030857206 0.010369175 0.004862766 0.009393896 0.0009366414 -0.004744224 0.005380842 0.0074832826
0.0016206669 -0.00039100542 -0.0028304725 -0.0068859244 0.011426204 -0.0030847148 0.010382489 0.0048636366
0.017683387 0.003816337 -0.007872294 0.0070773456 0.012552782 0.0013834698 0.0014402752 -0.0054861135
-0.010743887 0.017966114 -0.0062789726 0.01729081 0.010581967 0.017689936 0.0038235006 -0.00787018
0.007134706 0.012577211 0.0013898427 0.0014472787 -0.005493713 -0.010752229 0.017966995 -0.006275352
0.017314749 0.010581919 0.017691238 0.0038273307 -0.007869277 0.007153972 0.012581584 0.0013876066
0.0014501325 -0.005496394 -0.010745678 0.017966479 -0.006272363 0.017325984 0.010580097 0.017707687
0.0038359372 -0.007863044 0.007228001 0.012608421 0.0014131682 0.0014630337 -0.0055067153 -0.010754427
00000000: 3b9b 193c 46a5 6f3a 75b2 9bbb 2b5a ae3b
00000010: 0018 f43b d611 d43a 8413 d2b9 f7b8 38bb
00000020: 9091 e1bb f02f 3b3c 7144 4abb 1c32 293c
00000030: 2834 9f3b bdd5 193c e8bc 743a bf8c 9bbb
00000040: 26cf b03b b6be f43b 8908 d53a de52 cfb9
00000050: 973d 39bb bc8e e1bb 9731 3b3c ea58 4abb
00000060: 8702 2a3c 7b5f 9f3b 0fe6 193c b215 763a
00000070: 4283 9bbb fffa b03b b427 f53b 3780 d43a
00000080: c6c8 cdb9 1b6c 39bb 3cba e1bb dc35 3b3c
00000090: 7a27 4abb 3e0b 2a3c d560 9f3b 1a54 1a3c
000000a0: d245 7d3a e630 9bbb cf2a b53b c309 f63b
000000b0: 0d6e d73a 2df1 c0b9 cb31 3abb 77d0 e1bb
000000c0: c244 3b3c 51cc 49bb b4f1 2a3c 3fab 9f3b
000000d0: 2907 1a3c 8fc1 773a c77b 9bbb b140 b03b
000000e0: 29d4 f43b 8d10 d63a 0359 cbb9 9050 39bb
000000f0: 34bd e1bb 483f 3b3c 6848 4abb 1955 2a3c
00000100: fa69 9f3b 90a4 193c e58f 733a d697 9bbb
00000110: e4ca af3b 30c0 f43b 1714 d43a 0c3e d1b9
00000120: 48e1 38bb 8bb3 e1bb 612e 3b3c 0f4a 4abb
00000130: 37d2 293c b152 9f3b f8e9 193c a306 723a
00000140: 4189 9bbb 6fd4 af3b 7ade f43b 42ec d43a
00000150: 49ea ceb9 a35b 39bb 5592 e1bb 9433 3b3c
00000160: 4752 4abb 5cef 293c 3d4c 9f3b e90e 1a3c
00000170: 6798 773a af80 9bbb 59ac b23b eb1c f53b
00000180: 9236 d63a a68c cab9 9bbc 39bb 57bf e1bb
00000190: 213c 3b3c cf0e 4abb 6141 2a3c 3070 9f3b
000001a0: 35ea 193c 8f58 753a cf7f 9bbb 6abb b13b
000001b0: 3353 f53b f082 d53a 6451 cbb9 53ab 39bb
000001c0: 45b8 e1bb 713a 3b3c ba13 4abb 9c44 2a3c
000001d0: d761 9f3b 6637 1a3c fb32 7c3a 454b 9bbb
000001e0: 6a9b b23b 7b79 f53b a6a6 d63a 2a23 c6b9
000001f0: 87ff 39bb 25cb e1bb ad3a 3b3c 26e3 49bb
00000200: a3be 2a3c c38d 9f3b 2def 193c 52dc 733a
00000210: ad93 9bbb 09d0 ae3b 10b2 f43b 0ce9 d43a
00000220: 2476 ceb9 bd57 39bb b4b4 e1bb 9a33 3b3c
00000230: 0932 4abb 80ed 293c f240 9f3b 74e4 193c
00000240: 9e2a 733a 73a1 9bbb 8e10 b03b 7da9 f43b
00000250: de5d d43a f4c1 cdb9 eb19 39bb 0da1 e1bb
00000260: fa32 3b3c 8060 4abb 96cd 293c a64f 9f3b
00000270: 43f3 193c e167 743a 8788 9bbb b78a b03b
00000280: 3ed8 f43b c76e d43a 2405 cfb9 f474 39bb
00000290: 7da2 e1bb 4b2c 3b3c af37 4abb 5a10 2a3c
000002a0: 4958 9f3b ddf3 193c 7f49 753a 9881 9bbb
000002b0: 9c99 b03b 9126 f53b a866 d53a e00d ccb9
000002c0: b667 39bb b9bc e1bb bb2b 3b3c 871b 4abb
000002d0: 0431 2a3c 314c 9f3b 5fec 193c 08a6 733a
000002e0: 5fa5 9bbb 05ed af3b 3bea f43b c5d6 d43a
000002f0: fc4e d0b9 293a 39bb b282 e1bb 4b2e 3b3c
00000300: cd39 4abb 79e3 293c d657 9f3b dbe8 193c
00000310: f188 753a 6f75 9bbb c651 b03b 5336 f53b
00000320: 8f6c d43a dcff ccb9 737f 39bb 52a3 e1bb
00000330: f934 3b3c ed28 4abb 511b 2a3c 245f 9f3b
00000340: c0dc 903c 831b 7a3b cbfa 00bc 14e9 e73b
00000350: 2faa 4d3c 8b55 b53a 9ec7 bc3a dbc4 b3bb
00000360: 2107 30bc ac2d 933c d7bf cdbb 75a5 8d3c
00000370: fd5f 2d3c 7cea 903c b293 7a3b edf1 00bc
00000380: 40ca e93b a510 4e3c 622b b63a 9db2 bd3a
00000390: 9b04 b4bb 1e2a 30bc 852f 933c 78a1 cdbb
000003a0: a9d7 8d3c c95f 2d3c 37ed 903c f4d3 7a3b
000003b0: 24ee 00bc de6b ea3b fd22 4e3c 5ae0 b53a
000003c0: 5f12 be3a 181b b4bb a40e 30bc 702e 933c
000003d0: 6588 cdbb 39ef 8d3c 2558 2d3c b60f 913c
000003e0: 5964 7b3b ffd3 00bc ded8 ec3b 8d93 4e3c
000003f0: 0e3a b93a 44c3 bf3a ad71 b4bb 5633 30bc

weight_hh_l0 f4 [64, 16]
-0.03738809 -0.037387565 0.03739141 -0.037386283 -0.03738731 0.037391208 0.03739141 0.03739017
-0.037388656 0.037386198 0.03738691 0.037397724 0.03739797 0.037386175 -0.037393734 -0.03738789
-0.037384585 -0.03738407 0.037385657 -0.037382543 -0.03738388 0.037393093 0.037390757 0.03738576
-0.037391942 0.03738928 0.03738562 0.037392545 0.037392553 0.0373831 -0.03738469 -0.03738367
-0.03738203 -0.037382387 0.037394237 -0.03738408 -0.037385426 0.03738814 0.037383575 0.037391044
-0.037381086 0.037385445 0.03738149 0.037381724 0.037387624 0.037388694 -0.037381683 -0.03738256
-0.037368543 -0.037376 0.037372492 -0.037370123 -0.03737348 0.037367668 0.037367802 0.037367214
-0.037371017 0.03737147 0.037370108 0.03737183 0.037373465 0.037368115 -0.037370667 -0.03736718
-0.037382014 -0.037384473 0.03738383 -0.037379254 -0.037382998 0.037380878 0.037380733 0.037378877
-0.03737841 0.037378278 0.03738016 0.03738124 0.037379086 0.037380192 -0.037380185 -0.03738359
-0.037384234 -0.03738408 0.037387867 -0.037382547 -0.037383568 0.03738399 0.037384283 0.03738413
-0.03738285 0.037384152 0.037386924 0.03738854 0.0373915 0.037387688 -0.037384097 -0.037383474
-0.037386443 -0.037383556 0.037387658 -0.037388276 -0.037383422 0.037384365 0.03738369 0.037385587
-0.03738591 0.037387993 0.037383486 0.037397057 0.037383284 0.037388545 -0.037383575 -0.037390888
-0.03738369 -0.03737803 0.037378848 -0.037381057 -0.03737853 0.03738234 0.037380114 0.037377823
-0.037377868 0.037377015 0.03737835 0.037388664 0.037377916 0.037377134 -0.03737885 -0.037377927
-0.037378732 -0.037377812 0.037377566 -0.03737962 -0.0373778 0.037381418 0.03738554 0.037383735
-0.037376992 0.03737953 0.037381165 0.03738801 0.037383236 0.03737715 -0.03737843 -0.03737839
-0.037374943 -0.037378 0.037371647 -0.037371334 -0.03737927 0.0373795 0.037371922 0.03737863
-0.037373222 0.037370905 0.0373785 0.03737509 0.037371706 0.037371874 -0.03737256 -0.037374467
-0.037384503 -0.037395142 0.037383635 -0.037382815 -0.037392784 0.037385996 0.03738421 0.037384186
-0.037383024 0.03739142 0.037383772 0.03738449 0.03738482 0.037392262 -0.037384022 -0.0373849
-0.037384562 -0.03739126 0.03738457 -0.037386253 -0.037384063 0.037385646 0.0373839 0.037392814
-0.037383754 0.037386592 0.037385233 0.037385385 0.037392113 0.037383057 -0.03738698 -0.037383538
-0.03738343 -0.03738443 0.037391983 -0.03738445 -0.03739021 0.037386272 0.037383582 0.03738231
-0.037391182 0.037381686 0.037382465 0.037384346 0.037387297 0.03738224 -0.03738281 -0.037390836
-0.037386745 -0.03738866 0.037378546 -0.03738061 -0.037378635 0.03738803 0.037380073 0.037378486
-0.037377965 0.037377834 0.037380412 0.037379365 0.037378773 0.037388142 -0.037387453 -0.037378527
-0.037384346 -0.03738352 0.037384138 -0.03738202 -0.03738341 0.037392348 0.037390508 0.037385948
-0.037388343 0.03738688 0.037384447 0.037389107 0.037383825 0.0373906 -0.037383556 -0.03738322
-0.03738284 -0.03737943 0.037386153 -0.03737801 -0.037388686 0.03737975 0.037379574 0.037384756
-0.03737905 0.03737843 0.037384547 0.037380498 0.037379812 0.037378907 -0.037380062 -0.03738047
00000000: 4124 19bd b423 19bd bc27 193d 5c22 19bd
00000010: 7023 19bd 8627 193d bc27 193d 6f26 193d
00000020: d924 19bd 4522 193d 0423 193d 5b2e 193d
00000030: 9d2e 193d 3f22 193d 2c2a 19bd 0b24 19bd
00000040: 9420 19bd 0a20 19bd b421 193d 701e 19bd
00000050: d71f 19bd 8029 193d 0d27 193d d021 193d
00000060: 4b28 19bd 8025 193d aa21 193d ed28 193d
00000070: ef28 193d 051f 193d b020 19bd 9f1f 19bd
00000080: e61d 19bd 461e 19bd b32a 193d 0d20 19bd
00000090: 7621 19bd 4e24 193d 851f 193d 5a27 193d
000000a0: e91c 19bd 7b21 193d 551d 193d 941d 193d
000000b0: c423 193d e324 193d 891d 19bd 751e 19bd
000000c0: c20f 19bd 9417 19bd e613 193d 6a11 19bd
000000d0: ef14 19bd d70e 193d fb0e 193d 5d0e 193d
000000e0: 5a12 19bd d412 193d 6611 193d 3413 193d
000000f0: eb14 193d 4f0f 193d fc11 19bd 540e 19bd
00000100: e21d 19bd 7620 19bd c91f 193d fd1a 19bd
00000110: ea1e 19bd b11c 193d 8a1c 193d 981a 193d
00000120: 1b1a 19bd f719 193d f01b 193d 121d 193d
00000130: d01a 193d f91b 193d f71b 19bd 891f 19bd
00000140: 3620 19bd 0d20 19bd 0524 193d 711e 19bd
00000150: 831f 19bd f41f 193d 4320 193d 1a20 193d
00000160: c21e 19bd 2020 193d 0823 193d ba24 193d
00000170: d427 193d d523 193d 1120 19bd 6a1f 19bd
00000180: 8722 19bd 801f 19bd cd23 193d 7324 19bd
00000190: 5c1f 19bd 5920 193d a41f 193d a121 193d
000001a0: f821 19bd 2724 193d 6d1f 193d a82d 193d
000001b0: 371f 193d bb24 193d 851f 19bd 3027 19bd
000001c0: a41f 19bd b519 19bd 901a 193d e11c 19bd
000001d0: 3b1a 19bd 391e 193d e41b 193d 7d19 193d
000001e0: 8919 19bd a418 193d 0a1a 193d db24 193d
000001f0: 9619 193d c418 193d 911a 19bd 9919 19bd
00000200: 711a 19bd 7a19 19bd 3819 193d 5f1b 19bd
00000210: 7719 19bd 421d 193d 9421 193d b01f 193d
00000220: 9e18 19bd 471b 193d fe1c 193d 2c24 193d
00000230: 2a1f 193d c818 193d 201a 19bd 151a 19bd
00000240: 7816 19bd ac19 19bd 0313 193d af12 19bd
00000250: 011b 19bd 3f1b 193d 4d13 193d 561a 193d
00000260: aa14 19bd 3c12 193d 331a 193d 9f16 193d
00000270: 1313 193d 4013 193d f813 19bd f815 19bd
00000280: 7e20 19bd a62b 19bd 951f 193d b91e 19bd
00000290: 2d29 19bd 0f22 193d 2f20 193d 2920 193d
000002a0: f11e 19bd bf27 193d ba1f 193d 7b20 193d
000002b0: d320 193d a128 193d fd1f 19bd e920 19bd
000002c0: 8e20 19bd 9427 19bd 9020 193d 5422 19bd
000002d0: 0820 19bd b121 193d dc1f 193d 3529 193d
000002e0: b51f 19bd af22 193d 4221 193d 6b21 193d
000002f0: 7928 193d fa1e 193d 1723 19bd 7b1f 19bd
00000300: 5e1f 19bd 6b20 19bd 5628 193d 7020 19bd
00000310: 7a26 19bd 5922 193d 871f 193d 311e 193d
00000320: 7f27 19bd 8a1d 193d 5b1e 193d 5420 193d
00000330: 6c23 193d 1f1e 193d b81e 19bd 2227 19bd
00000340: d822 19bd da24 19bd 3f1a 193d 691c 19bd
00000350: 571a 19bd 3124 193d d91b 193d 2f1a 193d
00000360: a319 19bd 8019 193d 341c 193d 1b1b 193d
00000370: 7c1a 193d 4f24 193d 9623 19bd 3a1a 19bd
00000380: 5420 19bd 761f 19bd 1c20 193d e41d 19bd
00000390: 591f 19bd b828 193d ca26 193d 0222 193d
000003a0: 8524 19bd fc22 193d 6f20 193d 5225 193d
000003b0: c81f 193d e326 193d 801f 19bd 261f 19bd
000003c0: c01e 19bd 2c1b 19bd 3922 193d af19 19bd
000003d0: e124 19bd 821b 193d 531b 193d c220 193d
000003e0: c61a 19bd 201a 193d 8a20 193d 4b1c 193d
000003f0: 931b 193d a01a 193d d61b 19bd 441c 19bd

bias_ih_l0 f4 [64]
0.05676542 0.056755748 0.056756467 0.056759052 0.056765493 0.056812987 0.05675562 0.056767717
0.056747206 0.056746814 0.056765873 0.056758285 0.056756165 0.05675658 0.056760296 0.056751505
0.094891146 0.09488451 0.094878 0.09486346 0.09489644 0.09488327 0.094884604 0.094875656
0.09487487 0.09486026 0.094895005 0.094886936 0.094880715 0.09487359 0.09488469 0.094881326
-0.12199562 -0.121999756 0.1220136 -0.12204395 -0.12202365 0.121995516 0.12200214 0.12202906
-0.12202317 0.12203331 0.122003205 0.12200565 0.12199916 0.12201902 -0.12200366 -0.12201759
0.13825758 0.13825642 0.13824625 0.13823308 0.13825716 0.13824877 0.13824943 0.1382487
0.13823697 0.13822079 0.13827105 0.1382684 0.13824746 0.13825329 0.13824362 0.13825688
00000000: db82 683d b778 683d 7879 683d 2e7c 683d
00000010: ef82 683d bcb4 683d 9578 683d 4485 683d
00000020: c26f 683d 596f 683d 5583 683d 607b 683d
00000030: 2779 683d 9679 683d 7c7d 683d 4474 683d
00000040: 4a56 c23d cf52 c23d 664f c23d c647 c23d
00000050: 1159 c23d 2952 c23d dc52 c23d 2b4e c23d
00000060: c14d c23d 1946 c23d 5058 c23d 1554 c23d
00000070: d250 c23d 164d c23d e852 c23d 2451 c23d
00000080: d7d8 f9bd 02db f9bd 44e2 f93d 2ef2 f9bd
00000090: 89e7 f9bd c9d8 f93d 42dc f93d 5fea f93d
000000a0: 49e7 f9bd 9aec f93d d1dc f93d 19de f93d
000000b0: b2da f93d 1ce5 f93d 0edd f9bd 5ce4 f9bd
000000c0: 6593 0d3e 1793 0d3e 6d90 0d3e f98c 0d3e
000000d0: 4993 0d3e 1691 0d3e 4291 0d3e 1191 0d3e
000000e0: fe8d 0d3e c089 0d3e ed96 0d3e 3b96 0d3e
000000f0: be90 0d3e 4592 0d3e bc8f 0d3e 3693 0d3e

bias_hh_l0 f4 [64]
0.056760743 0.056756422 0.056754604 0.056734715 0.056763183 0.056757223 0.056756772 0.0567523
0.056758136 0.05676382 0.05675268 0.05678146 0.05675492 0.05677024 0.05676822 0.0567515
0.09493047 0.09488455 0.09488241 0.094853364 0.094881445 0.0948835 0.09488341 0.094881125
0.094882205 0.09485956 0.09488023 0.09489694 0.0948813 0.094874166 0.0948932 0.09487535
-0.12199426 -0.12199956 0.12201278 -0.12204561 -0.122009456 0.121997446 0.12200372 0.12201413
-0.12202166 0.122044064 0.122003525 0.12199772 0.12200972 0.122017674 -0.122003295 -0.12200909
0.13825712 0.13825312 0.13824607 0.13821451 0.13827531 0.13824801 0.13826308 0.13825041
0.1382439 0.13823055 0.13825965 0.13825876 0.13824826 0.13824429 0.13824353 0.13825323
00000000: f47d 683d 6c79 683d 8477 683d a962 683d
00000010: 8380 683d 437a 683d ca79 683d 1a75 683d
00000020: 387b 683d 2e81 683d 8075 683d ad93 683d
00000030: d977 683d e987 683d cb85 683d 4374 683d
00000040: e86a c23d d552 c23d b551 c23d 7b42 c23d
00000050: 3451 c23d 4852 c23d 3c52 c23d 0951 c23d
00000060: 9a51 c23d bb45 c23d 9150 c23d 5459 c23d
00000070: 2151 c23d 634d c23d 5e57 c23d 024e c23d
00000080: 20d8 f9bd e8da f9bd d6e1 f93d 0cf3 f9bd
00000090: 18e0 f9bd ccd9 f93d 16dd f93d 8be2 f93d
000000a0: 7ee6 f9bd 3df2 f93d fcdc f93d f1d9 f93d
000000b0: 3be0 f93d 67e4 f93d dddc f9bd e7df f9bd
000000c0: 4693 0d3e 3a92 0d3e 6190 0d3e 1b88 0d3e
000000d0: 0b98 0d3e e390 0d3e d694 0d3e 8491 0d3e
000000e0: cf8f 0d3e 4f8c 0d3e f093 0d3e b493 0d3e
000000f0: f490 0d3e e98f 0d3e b68f 0d3e 4192 0d3e

weight_ih_l1 f4 [64, 16]
-0.024057787 -0.024084907 0.024105595 -0.024133435 -0.024065716 0.024044331 0.024051385 0.024040796
-0.024037845 0.024049222 0.0241201 0.024158599 0.024050638 0.024038156 -0.02406311 -0.024203228
-0.02461852 -0.024549553 0.024495816 -0.024491454 -0.024569008 0.02450326 0.024515621 0.024517048
-0.024489269 0.024488788 0.024499793 0.024520267 0.024521869 0.024475327 -0.024512663 -0.024548715
-0.024586495 -0.024571704 0.024575263 -0.024556356 -0.024569457 0.024619961 0.02462971 0.024571508
-0.024618808 0.02459889 0.024604538 0.024620054 0.024594212 0.024557872 -0.024577461 -0.024564194
-0.025473444 -0.025472555 0.025474487 -0.025480412 -0.02547642 0.025473708 0.025463 0.025456676
-0.025472991 0.025476724 0.025471712 0.025475396 0.025474774 0.025477368 -0.02547543 -0.025477
-0.025411453 -0.025401967 0.025396878 -0.02540863 -0.025401207 0.02541915 0.025420826 0.025426717
-0.025404105 0.025434569 0.02539659 0.025448062 0.0254025 0.025413288 -0.025410263 -0.0254106
-0.025231106 -0.025202172 0.025193514 -0.025172645 -0.025201913 0.025162077 0.025181863 0.025196252
-0.025179237 0.02520212 0.025160752 0.02524103 0.02516365 0.025154395 -0.025164101 -0.025177496
-0.023444232 -0.023407014 0.023432076 -0.023370113 -0.023389949 0.023413401 0.023404434 0.023468513
-0.023346754 0.023309207 0.023343025 0.023343414 0.023466978 0.023315255 -0.023332728 -0.023325907
-0.026371263 -0.026330747 0.026382241 -0.02639594 -0.02637127 0.026282482 0.02637452 0.026349677
-0.02640149 0.026403585 0.026402188 0.02636329 0.026349923 0.026388027 -0.026398228 -0.02636747
-0.026285818 -0.02628792 0.026284723 -0.02627551 -0.026278561 0.026245076 0.026291007 0.026274137
-0.02629614 0.026302053 0.026296925 0.026287917 0.026259955 0.0262995 -0.026296074 -0.026295483
-0.025916617 -0.025904117 0.02590369 -0.02590014 -0.025906585 0.025908114 0.025918216 0.025908178
-0.025905577 0.025907459 0.025902191 0.02592302 0.02590244 0.025912784 -0.025912795 -0.025901165
-0.02604184 -0.026032705 0.026037248 -0.026051095 -0.026045913 0.026043614 0.026047535 0.026049009
-0.026032373 0.026040858 0.026048483 0.026032165 0.026040487 0.02604252 -0.026026366 -0.026039898
-0.024985718 -0.024961593 0.02495439 -0.025012005 -0.02496234 0.024979947 0.024963567 0.024967343
-0.024943657 0.024934782 0.025038732 0.024969814 0.024953969 0.02500411 -0.024959397 -0.02494168
-0.027425643 -0.027552612 0.027605306 -0.027513439 -0.027548935 0.027509747 0.02756957 0.027602553
-0.027447354 0.027571287 0.027421337 0.027604602 0.027507635 0.027621053 -0.027607266 -0.027604908
-0.026417544 -0.026426272 0.026435234 -0.026429752 -0.02642647 0.026434874 0.026434878 0.026405519
-0.026437229 0.026399385 0.026434097 0.026434999 0.026425561 0.026435887 -0.026434816 -0.026434552
-0.024347702 -0.024341205 0.024304153 -0.024362773 -0.024343954 0.02432051 0.02435828 0.024373412
-0.024356565 0.02437157 0.024328278 0.024310213 0.024323907 0.024340188 -0.024409382 -0.024296997
-0.025051087 -0.024944117 0.024928402 -0.024968458 -0.024941282 0.025019346 0.02496104 0.024931401
-0.02502576 0.024922043 0.02493591 0.024943877 0.024930485 0.024926195 -0.024930844 -0.024936913
00000000: d614 c5bc b64d c5bc 1979 c53c 7bb3 c5bc
00000010: 7725 c5bc 9ef8 c43c 6907 c53c 34f1 c43c
00000020: 04eb c4bc e002 c53c 8497 c53c 41e8 c53c
00000030: d805 c53c abeb c43c 0020 c5bc d945 c6bc
00000040: c7ac c9bc 251c c9bc 73ab c83c 4da2 c8bc
00000050: f244 c9bc 10bb c83c fcd4 c83c fad7 c83c
00000060: b89d c8bc b69c c83c cab3 c83c bade c83c
00000070: 16e2 c83c 7b80 c83c c8ce c8bc 631a c9bc
00000080: 9e69 c9bc 994a c9bc 1052 c93c 692a c9bc
00000090: e345 c9bc cdaf c93c 3fc4 c93c 304a c93c
000000a0: 62ad c9bc 9d83 c93c 758f c93c ffaf c93c
000000b0: cd79 c93c 972d c93c ac56 c9bc d93a c9bc
000000c0: afad d0bc d2ab d0bc dfaf d03c 4cbc d0bc
000000d0: edb3 d0bc 3dae d03c c897 d03c 858a d03c
000000e0: bcac d0bc 90b4 d03c 0daa d03c c7b1 d03c
000000f0: 79b0 d03c eab5 d03c d9b1 d0bc 24b5 d0bc
00000100: ae2b d0bc c917 d0bc 1d0d d03c c225 d0bc
00000110: 3116 d0bc d23b d03c 563f d03c b14b d03c
00000120: 451c d0bc 285c d03c 820c d03c 7478 d03c
00000130: e718 d03c 872f d03c 2f29 d0bc e429 d0bc
00000140: 77b1 cebc c974 cebc a162 ce3c dd36 cebc
00000150: 3e74 cebc b320 ce3c 324a ce3c 5f68 ce3c
00000160: b044 cebc ad74 ce3c ec1d ce3c 47c6 ce3c
00000170: 0024 ce3c 9710 ce3c f224 cebc 0941 cebc
00000180: 1e0e c0bc 11c0 bfbc a0f4 bf3c ae72 bfbc
00000190: 479c bfbc 76cd bf3c a8ba bf3c 0a41 c03c
000001a0: b141 bfbc f3f2 be3c df39 bf3c b03a bf3c
000001b0: d23d c03c a2ff be3c 4724 bfbc f915 bfbc
000001c0: 8c08 d8bc 94b3 d7bc 921f d83c 4c3c d8bc
000001d0: 9008 d8bc 5c4e d73c 610f d83c 47db d73c
000001e0: f047 d8bc 554c d83c 6749 d83c d4f7 d73c
000001f0: cbdb d73c b42b d83c 1941 d8bc 9800 d8bc
00000200: 5b55 d7bc c459 d7bc 0f53 d73c bd3f d7bc
00000210: 2346 d7bc eaff d63c 3d60 d73c dc3c d73c
00000220: 016b d7bc 6777 d73c a66c d73c c259 d73c
00000230: 1e1f d73c 0d72 d73c dd6a d7bc a069 d7bc
00000240: 164f d4bc df34 d4bc fa33 d43c 882c d4bc
00000250: 0c3a d4bc 413d d43c 7052 d43c 633d d43c
00000260: ef37 d4bc e13b d43c d530 d43c 835c d43c
00000270: 5b31 d43c 0c47 d43c 1247 d4bc ae2e d4bc
00000280: b255 d5bc 8a42 d5bc 114c d53c 1b69 d5bc
00000290: 3d5e d5bc 6b59 d53c a461 d53c bb64 d53c
000002a0: d841 d5bc a353 d53c a163 d53c 6841 d53c
000002b0: dc52 d53c 1f57 d53c 3f35 d5bc a051 d5bc
000002c0: d9ae ccbc 417c ccbc 266d cc3c fae5 ccbc
000002d0: d27d ccbc bfa2 cc3c 6580 cc3c 5088 cc3c
000002e0: a456 ccbc 0744 cc3c 071e cd3c 7f8d cc3c
000002f0: 446c cc3c 6bd5 cc3c a677 ccbc 7e52 ccbc
00000300: beab e0bc 04b6 e1bc 8624 e23c dd63 e1bc
00000310: 4eae e1bc 1f5c e13c 94d9 e13c c01e e23c
00000320: 46d9 e0bc 2edd e13c b6a2 e03c 0c23 e23c
00000330: b157 e13c 8c45 e23c a228 e2bc b023 e2bc
00000340: 9b69 d8bc e97b d8bc b48e d83c 3583 d8bc
00000350: 537c d8bc f38d d83c f58d d83c 6350 d83c
00000360: e392 d8bc 8643 d83c 528c d83c 368e d83c
00000370: 6b7a d83c 1390 d83c d48d d8bc 468d d8bc
00000380: d574 c7bc 3567 c7bc 8119 c73c 7094 c7bc
00000390: f96c c7bc ce3b c73c 048b c73c c0aa c73c
000003a0: 6b87 c7bc e3a6 c73c 194c c73c 3626 c73c
000003b0: ee42 c73c 1365 c73c 2ff6 c7bc 7f0a c7bc
000003c0: f037 cdbc 9b57 ccbc a636 cc3c a78a ccbc
000003d0: a951 ccbc 5ff5 cc3c 187b cc3c f03c cc3c
000003e0: d302 cdbc 5029 cc3c 6546 cc3c 1a57 cc3c
000003f0: 043b cc3c 0532 cc3c c53b ccbc 7f48 ccbc

weight_hh_l1 f4 [64, 16]
-0.03089197 0.0309048 -0.030858455 0.030894931 0.030879803 -0.030902302 -0.030872671 0.03090374
0.030919336 0.030925537 -0.030911399 0.030874014 -0.030875761 0.030916648 -0.030871542 -0.030927947
-0.031194758 0.031265475 -0.0311963 0.031171128 0.031183897 -0.031201873 -0.031243319 0.031194614
0.03121776 0.031214502 -0.031198649 0.031169465 -0.031178636 0.03120635 -0.031185424 -0.031209277
-0.031179568 0.031231534 -0.031133015 0.0311581 0.031158857 -0.03118272 -0.03119696 0.031165963
0.031180747 0.031246737 -0.031184414 0.031152476 -0.031148685 0.031166283 -0.031144721 -0.031189939
-0.031565573 0.031557426 -0.03152395 0.031530682 0.031536322 -0.031554572 -0.03153567 0.03154815
0.031561825 0.031573374 -0.031552527 0.03155043 -0.031520657 0.031558733 -0.031518925 -0.031576715
-0.03176414 0.031765457 -0.0317252 0.031739466 0.031737775 -0.03176138 -0.031735804 0.031754795
0.031769894 0.031781483 -0.031764157 0.03173567 -0.03174259 0.031762708 -0.03172578 -0.031780884
-0.03177504 0.031777423 -0.031738803 0.03174867 0.03175543 -0.031768255 -0.03176446 0.03176517
0.03178924 0.03179105 -0.03179599 0.031751305 -0.031740297 0.031776823 -0.031735968 -0.03179948
-0.03017661 0.030225605 -0.030211337 0.030183397 0.030193115 -0.030188642 -0.030151373 0.030297667
0.030219266 0.030224318 -0.030203663 0.030169377 -0.030169837 0.030172933 -0.030182665 -0.030204054
-0.03236271 0.032359067 -0.032326482 0.03233606 0.032317497 -0.03236185 -0.03233355 0.03235076
0.032369886 0.032365743 -0.03234912 0.03232672 -0.032321427 0.032347664 -0.0323111 -0.03237976
-0.032480206 0.03247424 -0.032440294 0.032450482 0.03244998 -0.03247348 -0.03244999 0.032468893
0.032479588 0.032488618 -0.032475535 0.03245055 -0.032437228 0.032483768 -0.032436814 -0.032496817
-0.032285612 0.03227332 -0.032242667 0.03224887 0.0322528 -0.03227309 -0.032257684 0.032272328
0.032279003 0.032277554 -0.032271042 0.032253187 -0.032233335 0.03228068 -0.03223509 -0.032296482
-0.032277655 0.03226427 -0.032236915 0.032242022 0.032237064 -0.03227125 -0.032242037 0.032264147
0.0322792 0.03227091 -0.032259762 0.03224741 -0.03222856 0.032264624 -0.032219302 -0.03229913
-0.03152289 0.031535305 -0.03148808 0.03151274 0.031508405 -0.031525895 -0.03153825 0.03151698
0.03153028 0.03155995 -0.03152643 0.031522308 -0.031497065 0.031553306 -0.03149848 -0.031536315
-0.033077367 0.033067208 -0.033028454 0.033046376 0.033044614 -0.033073507 -0.033035092 0.03305717
0.03307444 0.033084545 -0.033070493 0.03304478 -0.033026624 0.033075042 -0.032988 -0.0330689
-0.03252638 0.032520343 -0.032488957 0.032490093 0.03250159 -0.032527424 -0.032499716 0.03251336
0.032533668 0.03253886 -0.032517012 0.03249973 -0.032482833 0.03250607 -0.03248743 -0.032551967
-0.030866195 0.030866854 -0.030833248 0.030834092 0.03089534 -0.030862797 -0.030843053 0.030852467
0.030869542 0.030906038 -0.030864703 0.030838996 -0.030828347 0.030860784 -0.030824035 -0.030883744
-0.031678837 0.031721905 -0.031676963 0.031668328 0.031649683 -0.031671017 -0.031642 0.03166605
0.031688407 0.031695038 -0.03168163 0.031647693 -0.031657323 0.031687614 -0.03163616 -0.03170591
00000000: 2811 fdbc 102c fd3c dfca fcbc 5e17 fd3c
00000010: a4f7 fc3c d326 fdbc afe8 fcbc d729 fd3c
00000020: 8c4a fd3c 8d57 fd3c e739 fdbc 80eb fc3c
00000030: 2aef fcbc e944 fd3c 51e6 fcbc 9b5c fdbc
00000040: 268c ffbc 3a10 003d 628f ffbc 985a ff3c
00000050: 5f75 ff3c 129b ffbc fdf1 ffbc d98b ff3c
00000060: 63bc ff3c 8eb5 ff3c 4f94 ffbc 1b57 ff3c
00000070: 576a ffbc 76a4 ff3c 9378 ffbc 99aa ffbc
00000080: 4b6c ffbc 46d9 ff3c aa0a ffbc 463f ff3c
00000090: dc40 ff3c e772 ffbc c490 ffbc c34f ff3c
000000a0: c46e ff3c 28f9 ff3c 7576 ffbc 7a33 ff3c
000000b0: 872b ffbc 6f50 ff3c 3723 ffbc 0b82 ffbc
000000c0: e74a 01bd 5c42 013d 421f 01bd 5126 013d
000000d0: 3b2c 013d 5e3f 01bd 8c2b 01bd a238 013d
000000e0: f946 013d 1553 013d 393d 01bd 063b 013d
000000f0: ce1b 01bd bb43 013d fd19 01bd 9656 01bd
00000100: 1d1b 02bd 7f1c 023d 49f2 01bd 3e01 023d
00000110: 78ff 013d 3918 02bd 67fd 01bd 5111 023d
00000120: 2621 023d 4d2d 023d 221b 02bd 43fd 013d
00000130: 8504 02bd 9d19 023d e4f2 01bd ac2c 02bd
00000140: 8b26 02bd 0b29 023d 8c00 02bd e50a 023d
00000150: fb11 023d 6e1f 02bd 731b 02bd 321c 023d
00000160: 6f35 023d 5537 023d 833c 02bd a80d 023d
00000170: 1d02 02bd 6a28 023d 93fd 01bd 2c40 02bd
00000180: f034 f7bc b09b f73c c47d f7bc 2c43 f73c
00000190: 8d57 f73c 2c4e f7bc 0300 f7bc d032 f83c
000001a0: 658e f73c fd98 f73c ac6d f7bc c525 f73c
000001b0: bc26 f7bc 3a2d f73c a341 f7bc 7e6e f7bc
000001c0: c38e 04bd f18a 043d c668 04bd d172 043d
000001d0: 5a5f 043d dc8d 04bd 2f70 04bd 3b82 043d
000001e0: 4996 043d f191 043d 8380 04bd 0669 043d
000001f0: 7963 04bd fc7e 043d a558 04bd a4a0 04bd
00000200: f709 05bd b503 053d 1de0 04bd ccea 043d
00000210: 45ea 043d e902 05bd 48ea 04bd 1afe 043d
00000220: 5109 053d c912 053d 1105 05bd deea 043d
00000230: e6dc 04bd b30d 053d 77dc 04bd 621b 05bd
00000240: eb3d 04bd 0731 043d e310 04bd 6417 043d
00000250: 831b 043d ca30 04bd a220 04bd fd2f 043d
00000260: fd36 043d 7835 043d a42e 04bd eb1b 043d
00000270: 1a07 04bd bf38 043d f108 04bd 5149 04bd
00000280: 9335 04bd 8a27 043d db0a 04bd 3610 043d
00000290: 030b 043d dc2e 04bd 3a10 04bd 6927 043d
000002a0: 3237 043d 802e 043d d022 04bd dc15 043d
000002b0: 1802 04bd e927 043d 63f8 03bd 184c 04bd
000002c0: 251e 01bd 2a2b 013d a5f9 00bd 8113 013d
000002d0: f50e 013d 4c21 01bd 412e 01bd f317 013d
000002e0: e525 013d 0245 013d dc21 01bd 891d 013d
000002f0: 1103 01bd 0a3e 013d 8d04 01bd 392c 01bd
00000300: 227c 07bd 7b71 073d d848 07bd a35b 073d
00000310: ca59 073d 1678 07bd ce4f 07bd f566 073d
00000320: 1079 073d a983 073d ed74 07bd f759 073d
00000330: ed46 07bd b279 073d 6d1e 07bd 4173 07bd
00000340: 623a 05bd 0d34 053d 2413 05bd 5514 053d
00000350: 6320 053d 7a3b 05bd 6c1e 05bd bb2c 053d
00000360: 0642 053d 7847 053d 8f30 05bd 701e 053d
00000370: b80c 05bd 1625 053d 8a11 05bd 3655 05bd
00000380: 1adb fcbc 7cdc fc3c 0296 fcbc c797 fc3c
00000390: 3918 fd3c fad3 fcbc 92aa fcbc 50be fc3c
000003a0: 1fe2 fc3c a92e fd3c f9d7 fcbc 10a2 fc3c
000003b0: bb8b fcbc c1cf fc3c b082 fcbc e8ff fcbc
000003c0: abc1 01bd d4ee 013d b4bf 01bd a6b6 013d
000003d0: 19a3 013d 78b9 01bd 0b9b 01bd 43b4 013d
000003e0: b4cb 013d a8d2 013d 99c4 01bd 03a1 013d
000003f0: 1cab 01bd dfca 013d eb94 01bd 0ede 01bd

bias_ih_l1 f4 [64]
0.033216972 0.03372572 0.033485513 0.033845857 0.034045618 0.034054488 0.03267268 0.034606878
0.03475229 0.034576166 0.03450544 0.033908017 0.035241 0.034770586 0.03325325 0.033995423
0.07243318 0.07259443 0.07260991 0.07269672 0.07305669 0.07308626 0.07140713 0.07364486
0.074124664 0.073886804 0.073536694 0.07296003 0.07427499 0.073998064 0.07203079 0.07349276
-0.05319238 0.0533526 -0.053033553 0.053223524 0.053465173 -0.05327534 -0.05310947 0.053812634
0.05401983 0.05375055 -0.053628117 0.05363467 -0.054501183 0.0539484 -0.052816607 -0.05333584
0.2009064 0.19862671 0.19875927 0.19611435 0.19884238 0.203281 0.19561632 0.19956335
0.2027853 0.20391794 0.20013352 0.19890437 0.19654667 0.2011226 0.19553518 0.20454599
00000000: 850e 083d fb23 0a3d 1b28 093d f4a1 0a3d
00000010: 6b73 0b3d b87c 0b3d cad3 053d f1bf 0d3d
00000020: 6b58 0e3d bd9f 0d3d 9455 0d3d 22e3 0a3d
00000030: de58 103d 9a6b 0e3d 8f34 083d c93e 0b3d
00000040: d957 943d 63ac 943d 81b4 943d 05e2 943d
00000050: bf9e 953d 40ae 953d e73d 923d 1ed3 963d
00000060: acce 973d f751 973d 689a 963d 116c 953d
00000070: 7c1d 983d 4c8c 973d e184 933d 5f83 963d
00000080: 41e0 59bd 4288 5a3d b639 59bd e900 5a3d
00000090: 4cfe 5a3d 3e37 5abd 5189 59bd a36a 5c3d
000000a0: e643 5d3d 8929 5c3d 28a9 5bbd 07b0 5b3d
000000b0: a23c 5fbd fff8 5c3d 3a56 58bd af76 5abd
000000c0: 68ba 4d3e cd64 4b3e 8d87 4b3e 33d2 483e
000000d0: 569d 4b3e e528 503e a54f 483e 565a 4c3e
000000e0: f3a6 4f3e ddcf 503e cdef 4c3e 96ad 4b3e
000000f0: 8843 493e 15f3 4d3e 603a 483e 8174 513e

bias_hh_l1 f4 [64]
0.033222385 0.033647243 0.033596493 0.03385127 0.034084287 0.03405233 0.032714702 0.034596324
0.03475166 0.034566075 0.03450371 0.033852264 0.03524305 0.034771994 0.033203136 0.034030072
0.07245324 0.07259981 0.072640896 0.07269758 0.07306295 0.07308535 0.07137701 0.07365157
0.07412041 0.0738857 0.073539466 0.07294808 0.074256375 0.07399708 0.07203505 0.073492825
-0.053263385 0.05335631 -0.053000245 0.05322409 0.05343805 -0.053320404 -0.053080395 0.05381538
0.05401695 0.0537434 -0.053632345 0.05363491 -0.05450077 0.053935472 -0.052813496 -0.05332417
0.20090401 0.19862801 0.19876033 0.19611393 0.19883539 0.20330748 0.19562733 0.19956307
0.20279267 0.20390318 0.20013352 0.1989015 0.1965464 0.20110911 0.19543833 0.20452926
00000000: 3214 083d b1d1 093d 7a9c 093d a1a7 0a3d
00000010: f79b 0b3d 757a 0b3d daff 053d e0b4 0d3d
00000020: c257 0e3d 2895 0d3d c353 0d3d aca8 0a3d
00000030: 045b 103d 146d 0e3d 0300 083d 1e63 0b3d
00000040: 5d62 943d 36af 943d c0c4 943d 78e2 943d
00000050: 07a2 953d c6ad 953d 1c2e 923d a2d6 963d
00000060: 71cc 973d 6351 973d dc9b 963d ce65 953d
00000070: ba13 983d c88b 973d 1d87 933d 6883 963d
00000080: b52a 5abd 258c 5a3d c916 59bd 8101 5a3d
00000090: dbe1 5a3d 7f66 5abd d46a 59bd 846d 5c3d
000000a0: e140 5d3d 0a22 5c3d 97ad 5bbd 48b0 5b3d
000000b0: 333c 5fbd 71eb 5c3d f752 58bd 726a 5abd
000000c0: c8b9 4d3e 2465 4b3e d487 4b3e 17d2 483e
000000d0: 819b 4b3e d62f 503e 8852 483e 435a 4c3e
000000e0: e2a8 4f3e ffcb 503e cdef 4c3e d6ac 4b3e
000000f0: 7643 493e 8cef 4d3e fc20 483e 1e70 513e

weight_ih_l0 f4 [64, 13]
0.0015886696 0.0023055978 0.00063009205 0.0010958253 0.0009869942 -0.000107273794 0.0016458577 -0.0009657111
-0.0016313642 7.234693e-05 0.0012205587 0.0019531925 -0.0014355569 0.001589436 0.0023177508 0.00062792696
0.0011040492 0.0009898586 -0.00011046337 0.0016547142 -0.0009603706 -0.0016320769 8.250604e-05 0.0012273467
0.001972146 -0.0014333973 0.0015894197 0.0023194607 0.0006279078 0.0011012002 0.0009892996 -0.00011039751
0.0016514999 -0.00096062 -0.0016325696 8.085073e-05 0.0012313226 0.0019701405 -0.0014332203 0.0015905135
0.0023157722 0.0006290102 0.0010888964 0.0009906441 -0.0001095317 0.0016424614 -0.000963135 -0.0016317187
8.219379e-05 0.0012189039 0.0019678033 -0.0014350738 0.0015870663 0.0022831068 0.00062892487 0.0010843284
0.0009866911 -0.00010917407 0.0016458358 -0.0009602262 -0.0016332744 7.8101046e-05 0.0012229884 0.001924312
-0.0014411076 0.0015925094 0.0023295684 0.0006277035 0.0011115315 0.0009932205 -0.000111215326 0.001663544
-0.00095651386 -0.0016310075 8.83786e-05 0.0012415462 0.001979493 -0.0014305697 0.0015881112 0.0023115668
0.0006292603 0.0010993724 0.0009888127 -0.00010933496 0.0016477938 -0.0009612779 -0.0016319336 8.048606e-05
0.001225958 0.0019570151 -0.0014381958 0.0015891871 0.0023154353 0.0006282565 0.0011009331 0.0009899673
-0.00010999375 0.0016522357 -0.00096137903 -0.0016320935 8.0663915e-05 0.001227819 0.0019681733 -0.001433732
0.0015884115 0.0023171469 0.0006288616 0.001094522 0.0009870292 -0.000109326735 0.0016504304 -0.000961043
-0.001633279 8.094807e-05 0.0012273022 0.0019665833 -0.0014331879 0.0015891513 0.0023164933 0.0006287187
0.0011004668 0.0009884055 -0.00010950872 0.0016510385 -0.00096320023 -0.0016322788 7.971031e-05 0.0012282443
0.0019657155 -0.0014356369 0.0015867336 0.002322569 0.000628054 0.00110485 0.0009916106 -0.000110282024
0.0016466584 -0.0009609811 -0.0016329767 8.120785e-05 0.0012329966 0.0019731496 -0.0014320023 0.0015899134
0.0023103405 0.0006286531 0.001102538 0.0009903933 -0.0001097487 0.0016528801 -0.00096111494 -0.0016317996
7.91067e-05 0.0012306696 0.0019680504 -0.0014341173 0.0015866476 0.0023152607 0.0006297135 0.0010930389
0.0009894073 -0.000108928914 0.0016524832 -0.0009588899 -0.0016315 8.1292135e-05 0.0012311798 0.0019651803
-0.0014329203 0.0015875965 0.0023191723 0.0006280183 0.0011036491 0.000991004 -0.00011013399 0.0016541868
-0.00096264825 -0.0016318635 8.083126e-05 0.0012284378 0.00196941 -0.0014324121 0.0015839778 0.0023038487
0.000627811 0.0010890169 0.0009811695 -0.00010883703 0.0016348305 -0.00096800417 -0.0016345093 6.741041e-05
0.0012088864 0.0019412168 -0.0014393849 0.0015909092 0.0023187066 0.0006294941 0.0010976125 0.0009909457
-0.00010869863 0.0016513885 -0.0009637947 -0.0016308724 7.4856885e-05 0.0012305407 0.0019531383 -0.0014324889
0.0042966227 0.0053553744 0.0027991268 0.0030912915 0.0030797808 0.0016072751 0.0038552072 7.9716265e-05
-0.00057906576 0.0015284678 0.0030543737 0.004330694 -4.4082262e-06 0.0042979876 0.005359369 0.0027966476
0.0030988844 0.003085823 0.0016033888 0.003860314 7.850538e-05 -0.0005868163 0.0015303664 0.0030625795
0.00434033 -1.8176892e-05 0.004297781 0.0053588287 0.0027967412 0.003097269 0.0030854195 0.0016031343
0.003858029 7.9038444e-05 -0.00058620767 0.0015306751 0.0030638862 0.0043403953 -1.7301398e-05 0.0042979885
0.0053578108 0.0027971559 0.003097328 0.0030846742 0.0016035025 0.003855263 7.974899e-05 -0.0005853944
00000000: e83a d03a 8319 173b c32c 253a cca1 8f3a
00000010: 085e 813a 2ef8 e0b8 d2b9 d73a c627 7dba
00000020: 80d3 d5ba f6b8 9738 27fb 9f3a 2201 003b
00000030: 4c29 bcba 9f54 d03a 68e5 173b 779b 243a
00000040: beb5 903a 25be 813a 92a8 e7b8 ffe2 d83a
00000050: 61c1 7bba 6aeb d5ba 1807 ad38 ecde a03a
00000060: 1f3f 013b d5e0 bbba 1354 d03a 1802 183b
00000070: 2e9a 243a 2656 903a 63ab 813a 3685 e7b8
00000080: 2477 d83a 1ed2 7bba f2fb d5ba 688e a938
00000090: 5564 a13a 791d 013b e5da bbba c778 d03a
000000a0: 36c4 173b 29e4 243a 4db9 8e3a 80d8 813a
000000b0: 62b4 e5b8 dc47 d73a e57a 7cba 65df d5ba
000000c0: 745f ac38 a1c3 9f3a 43f6 003b 1619 bcba
000000d0: 1c05 d03a 2da0 153b 6fde 243a 0620 8e3a
000000e0: dc53 813a 62f4 e4b8 16b9 d73a b1b7 7bba
000000f0: 9813 d6ba 2eca a338 ae4c a03a 3239 fc3a
00000100: 8ce3 bcba c0bb d03a acab 183b 788c 243a
00000110: cfb0 913a f32e 823a 463c e9b8 460b da3a
00000120: 8fbe 7aba 88c7 d5ba e657 b938 61bb a23a
00000130: 62ba 013b f481 bbba 2b28 d03a a87d 173b
00000140: f2f4 243a d118 903a 0c9b 813a c24a e5b8
00000150: c9fa d73a 45fe 7bba 9be6 d5ba a0ca a838
00000160: 53b0 a03a 4441 003b d881 bcba 454c d03a
00000170: 8fbe 173b 94b1 243a 2f4d 903a cac1 813a
00000180: 72ac e6b8 d58f d83a 0e05 7cba f8eb d5ba
00000190: 1c2a a938 c5ee a03a 78fc 003b 10ec bbba
000001a0: 3f32 d03a 46db 173b 30da 243a 1076 8f3a
000001b0: 345f 813a 5846 e5b8 4153 d83a 81ee 7bba
000001c0: c013 d6ba aac2 a938 6edd a03a cbe1 003b
000001d0: ced9 bbba 124b d03a 4fd0 173b 99d0 243a
000001e0: 8a3d 903a 638d 813a 0ca8 e5b8 a967 d83a
000001f0: 467f 7cba 30f2 d5ba 262a a738 0afd a03a
00000200: 3cd3 003b fb2b bcba f2f9 cf3a 3e36 183b
00000210: fea3 243a 9dd0 903a eef8 813a 3647 e7b8
00000220: b0d4 d73a 5aea 7bba 9b09 d6ba 224e aa38
00000230: 809c a13a f54f 013b 06b2 bbba a464 d03a
00000240: 1569 173b 32cc 243a 0983 903a 16d0 813a
00000250: e228 e6b8 74a5 d83a 55f3 7bba 1ce2 d5ba
00000260: 16e6 a538 6b4e a13a 68fa 003b fef8 bbba
00000270: 0ff7 cf3a a1bb 173b 5c13 253a 4d44 8f3a
00000280: 00af 813a c470 e4b8 2398 d83a 035e 7bba
00000290: 0ed8 d5ba 627b aa38 8a5f a13a 41ca 003b
000002a0: d4d0 bbba e616 d03a 41fd 173b 98a1 243a
000002b0: 52a8 903a 94e4 813a bcf7 e6b8 4cd1 d83a
000002c0: 3b5a 7cba 41e4 d5ba f483 a938 8803 a13a
000002d0: 3811 013b c6bf bbba 7a9d cf3a 2bfc 163b
000002e0: af93 243a 58bd 8e3a 969a 803a 703f e4b8
000002f0: cf47 d63a a9c1 7dba 083d d6ba b05e 8d38
00000300: 7f73 9e3a 6d70 fe3a bea9 bcba 0e86 d03a
00000310: 71f5 173b a204 253a c4dd 8f3a 9fe2 813a
00000320: 22f5 e3b8 6773 d83a 2ba7 7cba ffc2 d5ba
00000330: 7cfc 9c38 184a a13a 3900 003b 5ac2 bbba
00000340: afca 8c3b 237c af3b 8e71 373b 4497 4a3b
00000350: 26d6 493b 34ab d23a a5a7 7c3b 582d a738
00000360: 72cc 17ba de56 c83a e32b 483b 7fe8 8d3b
00000370: 60ea 93b6 22d6 8c3b a59d af3b f647 373b
00000380: a716 4b3b 853b 4a3b cd28 d23a 52fd 7c3b
00000390: 41a3 a438 93d4 19ba 9396 c83a 8fb5 483b
000003a0: 5439 8e3b 947a 98b7 66d4 8c3b 1d99 af3b
000003b0: 8849 373b 8dfb 4a3b c034 4a3b 4320 d23a
000003c0: fcd6 7c3b 71c1 a538 bbab 19ba efa0 c83a
000003d0: 7bcb 483b e039 8e3b 7822 91b7 24d6 8c3b
000003e0: 9390 af3b 7d50 373b 8afc 4a3b 3f28 4a3b
000003f0: 9e2c d23a 95a8 7c3b ea3e a738 2775 19ba

weight_hh_l0 f4 [64, 16]
-0.03942141 -0.039429657 -0.039421972 0.039402097 -0.03940935 0.03940112 0.039426643 -0.03942783
-0.039403364 -0.039380047 -0.03939112 0.03942353 0.039400302 0.039427932 -0.03942395 0.039422393
-0.0394284 -0.039388243 -0.039427083 0.039427955 -0.039386824 0.039409045 0.0394273 -0.039424527
-0.039428055 -0.039418418 -0.03942811 0.039416905 0.039426044 0.03942761 -0.039419662 0.039413754
-0.039409537 -0.03940893 -0.039428223 0.039422795 -0.039410677 0.03943434 0.03942398 -0.03940484
-0.039427835 -0.039427746 -0.039428536 0.039411012 0.039427873 0.039427605 -0.03942751 0.03940361
-0.039409682 -0.03941447 -0.03939923 0.03941094 -0.039419077 0.03943452 0.039427698 -0.039398897
-0.03942756 -0.039417174 -0.03941029 0.039409313 0.039424136 0.039429225 -0.03941312 0.039403364
-0.039427035 -0.039387055 -0.039429966 0.039424233 -0.03942349 0.03942425 0.039423253 -0.03942423
-0.039421123 -0.039423726 -0.03942542 0.03942807 0.03941386 0.039394315 -0.03941326 0.03940017
-0.039429765 -0.039413426 -0.039423015 0.039430354 -0.039430495 0.03942651 0.03942993 -0.039427593
-0.03941981 -0.039413724 -0.03940597 0.039426897 0.039430194 0.039429847 -0.03940667 0.039397445
-0.03942744 -0.03939425 -0.039429072 0.03941747 -0.03941854 0.039429978 0.039415356 -0.039424915
-0.039425954 -0.039427 -0.039413553 0.03942726 0.03940289 0.03941475 -0.039427362 0.03940841
-0.039426886 -0.03942966 -0.03942807 0.039428856 -0.039415948 0.039431542 0.0393929 -0.039403614
-0.03942868 -0.03941309 -0.039392807 0.039419767 0.039428003 0.039417233 -0.03942738 0.039398137
-0.03940468 -0.039426535 -0.03942768 0.039406687 -0.03942627 0.03942178 0.0394279 -0.039416473
-0.039418656 -0.03940579 -0.0394176 0.039409585 0.039422315 0.039425526 -0.03941243 0.039424308
-0.0394249 -0.03942469 -0.03941688 0.03941377 -0.039411135 0.039433252 0.03942738 -0.039422978
-0.039377175 -0.039426457 -0.039428636 0.039393052 0.039414987 0.03940173 -0.039421614 0.039425906
-0.039416645 -0.03942828 -0.03942838 0.039425362 -0.039427716 0.039414227 0.03939757 -0.0394277
-0.039426357 -0.039420877 -0.03942815 0.039417073 0.03942309 0.03942222 -0.039427772 0.039410904
-0.039394654 -0.039403617 -0.039428134 0.039418474 -0.039426405 0.03943219 0.03941927 -0.03940547
-0.0394045 -0.03942705 -0.0394151 0.039411955 0.039419517 0.03941832 -0.03942116 0.039424144
-0.039427485 -0.03942823 -0.039425083 0.039417077 -0.03940339 0.039433636 0.039425746 -0.03940426
-0.039419863 -0.03942461 -0.039428648 0.039427422 0.039410792 0.039428517 -0.039414585 0.03940744
-0.039428588 -0.039400272 -0.03939487 0.039428882 -0.039427415 0.039394777 0.039395675 -0.039423503
-0.039428238 -0.03942805 -0.03940892 0.039427236 0.039426703 0.039396394 -0.039428245 0.039428093
-0.03941819 -0.03942896 -0.03942802 0.039419115 -0.039389193 0.039432153 0.039407678 -0.03939279
-0.03940449 -0.039423466 -0.039415162 0.039416455 0.03941195 0.039420675 -0.039420545 0.03942575
-0.039388318 -0.03940143 -0.0394275 0.039407454 -0.039422568 0.039434247 0.039413314 -0.03942523
-0.039376926 -0.039415028 -0.039380576 0.03941195 0.039427366 0.039419267 -0.03942591 0.039418515
00000000: 5878 21bd fe80 21bd ef78 21bd 1864 213d
00000010: b36b 21bd 1263 213d d57d 213d 147f 21bd
00000020: 6c65 21bd f94c 21bd 9558 21bd 917a 213d
00000030: 3662 213d 2f7f 213d 027b 21bd 6079 213d
00000040: ad7f 21bd 9155 21bd 4b7e 21bd 357f 213d
00000050: 1454 21bd 616b 213d 857e 213d 9d7b 21bd
00000060: 507f 21bd 3575 21bd 5f7f 21bd 9f73 213d
00000070: 347d 213d d87e 213d 8376 21bd 5170 213d
00000080: e56b 21bd 426b 21bd 7d7f 21bd cc79 213d
00000090: 176d 21bd e785 213d 0a7b 213d f866 21bd
000000a0: 157f 21bd fd7e 21bd d17f 21bd 716d 213d
000000b0: 1f7f 213d d77e 213d be7e 21bd ae65 213d
000000c0: 0c6c 21bd 1171 21bd 1661 21bd 5e6d 213d
000000d0: e675 21bd 1786 213d f07e 213d bd60 21bd
000000e0: cb7e 21bd e773 21bd af6c 21bd a96b 213d
000000f0: 347b 213d 8a80 213d a76f 21bd 6c65 213d
00000100: 3e7e 21bd 5254 21bd 5181 21bd 4e7b 213d
00000110: 877a 21bd 537b 213d 477a 213d 4d7b 21bd
00000120: 0b78 21bd c67a 21bd 8d7c 21bd 547f 213d
00000130: 6d70 213d ef5b 213d cc6f 21bd 1362 213d
00000140: 1b81 21bd f96f 21bd 077a 21bd b981 213d
00000150: df81 21bd b17d 213d 4781 213d d47e 21bd
00000160: ab76 21bd 4970 21bd 2868 21bd 197e 213d
00000170: 8e81 213d 3181 213d e368 21bd 375f 213d
00000180: ab7e 21bd dd5b 21bd 6180 21bd 3774 213d
00000190: 5675 21bd 5481 213d ff71 213d 057c 21bd
000001a0: 1c7d 21bd 357e 21bd 1b70 21bd 7b7e 213d
000001b0: ed64 213d 5c71 213d 967e 21bd b76a 213d
000001c0: 167e 21bd ff80 21bd 547f 21bd 2780 213d
000001d0: 9e72 21bd f882 213d 735a 213d af65 21bd
000001e0: f87f 21bd 9f6f 21bd 5a5a 21bd 9f76 213d
000001f0: 427f 213d f773 213d 9b7e 21bd f15f 213d
00000200: cd66 21bd b87d 21bd eb7e 21bd e868 213d
00000210: 717d 21bd bb78 213d 267f 213d 2b73 21bd
00000220: 7575 21bd f767 21bd 5974 21bd f26b 213d
00000230: 4b79 213d a97c 213d ee6e 21bd 627b 213d
00000240: 017c 21bd c97b 21bd 9873 21bd 5570 213d
00000250: 926d 21bd c384 213d 9b7e 213d fd79 21bd
00000260: f649 21bd a37d 21bd ec7f 21bd 9c5a 213d
00000270: 9c71 213d b563 213d 8f78 21bd 0f7d 213d
00000280: 5973 21bd 8c7f 21bd a77f 21bd 7d7c 213d
00000290: f57e 21bd d070 213d 595f 213d f17e 21bd
000002a0: 887d 21bd c977 21bd 697f 21bd cc73 213d
000002b0: 1b7a 213d 3279 213d 047f 21bd 546d 213d
000002c0: 4a5c 21bd b065 21bd 657f 21bd 4475 213d
000002d0: 957d 21bd a683 213d 1a76 213d a167 21bd
000002e0: 9d66 21bd 427e 21bd ba71 21bd 6e6e 213d
000002f0: 5c76 213d 1b75 213d 1578 21bd 367b 213d
00000300: b77e 21bd 7f7f 21bd 327c 21bd cd73 213d
00000310: 7365 21bd 2a85 213d e47c 213d 5d66 21bd
00000320: b976 21bd b37b 21bd ef7f 21bd a67e 213d
00000330: 366d 213d cc7f 213d 3071 21bd b269 213d
00000340: df7f 21bd 2e62 21bd 845c 21bd 2e80 213d
00000350: a47e 21bd 6b5c 213d 5c5d 213d 8a7a 21bd
00000360: 817f 21bd 4f7f 21bd 3f6b 21bd 747e 213d
00000370: e57d 213d 1d5e 213d 837f 21bd 5a7f 213d
00000380: f874 21bd 4380 21bd 477f 21bd f075 213d
00000390: 9056 21bd 9c83 213d f269 213d 565a 21bd
000003a0: 9a66 21bd 807a 21bd cb71 21bd 2673 213d
000003b0: 6d6e 213d 9377 213d 7077 21bd e57c 213d
000003c0: a555 21bd 6563 21bd bb7e 21bd b669 213d
000003d0: 8f79 21bd ce85 213d db6f 213d 5a7c 21bd
000003e0: b349 21bd a771 21bd 874d 21bd 6d6e 213d
000003f0: 977e 213d 1976 213d 107d 21bd 4f75 213d

bias_ih_l0 f4 [64]
0.058842637 0.058870107 0.058868606 0.058868557 0.058866892 0.058872577 0.058866836 0.05886972
0.058867387 0.058869056 0.058870856 0.058867443 0.058868937 0.058870494 0.058860857 0.058861073
0.09719098 0.097192004 0.09719563 0.09719501 0.09719057 0.09719842 0.097194634 0.0971957
0.0971941 0.09719464 0.09719634 0.09719538 0.097195074 0.09719495 0.09718866 0.097192734
-0.12316446 -0.123173684 -0.12317178 0.12317188 -0.12316875 0.12317159 0.12316756 -0.12317116
-0.12317373 -0.12316982 -0.12317486 0.12316794 0.12316727 0.12317238 -0.12317166 0.123175874
0.14172186 0.14175461 0.14175399 0.14175181 0.14174967 0.14175655 0.14175487 0.14174984
0.141756 0.14175424 0.14175688 0.14175166 0.14175293 0.1417539 0.14175248 0.14175361
00000000: fa04 713d c821 713d 3520 713d 2820 713d
00000010: 691e 713d 5f24 713d 5a1e 713d 6021 713d
00000020: ee1e 713d ae20 713d 9122 713d fd1e 713d
00000030: 8e20 713d 3022 713d 1518 713d 4f18 713d
00000040: 110c c73d 9a0c c73d 810e c73d 2d0e c73d
00000050: d90b c73d f70f c73d fb0d c73d 8a0e c73d
00000060: b30d c73d fc0d c73d e00e c73d 5f0e c73d
00000070: 360e c73d 250e c73d d90a c73d fc0c c73d
00000080: a63d fcbd 7c42 fcbd 7c41 fcbd 8a41 fc3d
00000090: e63f fcbd 6341 fc3d 463f fc3d 2941 fcbd
000000a0: 8242 fcbd 7540 fcbd 1a43 fcbd 793f fc3d
000000b0: 1f3f fc3d cd41 fc3d 6c41 fcbd a243 fc3d
000000c0: 891f 113e 1f28 113e f527 113e 6327 113e
000000d0: d326 113e a128 113e 3028 113e df26 113e
000000e0: 7c28 113e 0628 113e b728 113e 5927 113e
000000f0: ae27 113e ef27 113e 9027 113e dc27 113e

bias_hh_l0 f4 [64]
0.058865666 0.05887035 0.058869936 0.05886734 0.05886764 0.058872096 0.058867376 0.058868933
0.058861528 0.058863252 0.05887056 0.058869056 0.058864504 0.058870092 0.05883036 0.05886623
0.09719097 0.09719372 0.097195685 0.09719484 0.09719222 0.09719805 0.09719546 0.09719596
0.09719378 0.097193636 0.09719486 0.09719455 0.097192824 0.097195126 0.097188264 0.09719319
-0.12316967 -0.123172484 -0.1231721 0.12317509 -0.123169206 0.123172164 0.12317025 -0.123171695
-0.12317312 -0.12317037 -0.12317511 0.12317158 0.123168826 0.123172216 -0.123171404 0.12316625
0.14172679 0.14175361 0.14175168 0.14174597 0.1417217 0.14175628 0.14175442 0.14175388
0.14175598 0.14175412 0.1417549 0.14174977 0.14174739 0.14175385 0.14175287 0.14175044
00000000: 201d 713d 0922 713d 9a21 713d e11e 713d
00000010: 321f 713d de23 713d eb1e 713d 8d20 713d
00000020: c918 713d 981a 713d 4222 713d ae20 713d
00000030: e81b 713d c421 713d 1bf8 703d b71d 713d
00000040: 0f0c c73d 800d c73d 880e c73d 170e c73d
00000050: b70c c73d c50f c73d 6a0e c73d ad0e c73d
00000060: 880d c73d 750d c73d 190e c73d f00d c73d
00000070: 080d c73d 3d0e c73d a40a c73d 390d c73d
00000080: 6140 fcbd db41 fcbd a741 fcbd 3943 fc3d
00000090: 2340 fcbd b041 fc3d af40 fc3d 7141 fcbd
000000a0: 3042 fcbd bf40 fcbd 3b43 fcbd 6241 fc3d
000000b0: f03f fc3d b741 fc3d 4a41 fcbd 963e fc3d
000000c0: d420 113e dc27 113e 5a27 113e db25 113e
000000d0: 7e1f 113e 8f28 113e 1228 113e ee27 113e
000000e0: 7b28 113e fe27 113e 3228 113e da26 113e
000000f0: 3a26 113e ec27 113e aa27 113e 0727 113e
