model.pt (torch, 312162 bytes, 130 tensors)

weight_ih_l0 f4 [64, 13]
0	0xbe2be676	-0.16787133
1	0x3d0d2440	0.0344584
2	0x3e756e12	0.2396777
3	0xbe44c6b4	-0.19216424
4	0x39220000	0.00015449524
5	0x3d7a7ea8	0.061155945
6	0xbc2b2220	-0.010445148
7	0xbe14e61c	-0.14540905
8	0xbdcfcd90	-0.1014663
9	0xbe2a896c	-0.16653985
10	0x3e531728	0.20614302
11	0x3e00cc90	0.12578034
12	0x3e61c390	0.22047257
13	0x3e48d7f4	0.1961363
14	0xbe581d98	-0.21105039
15	0x3e7d049c	0.2470879
16	0x3e8577b3	0.26067886
17	0x3df2bb6a	0.11852153
18	0x3db0ac44	0.08626607
19	0x3e757ecd	0.23974152
20	0x3d832a05	0.06404499
21	0x3dde737f	0.10861873
22	0x3e70558a	0.2347013
23	0xbe73d406	-0.2381135
24	0xbe15a8a7	-0.14615117
25	0xbd776895	-0.06040247
26	0xbe3c9754	-0.18417102
27	0x3e729594	0.23689872
28	0xbda5d664	-0.080975324
29	0xbbc581c0	-0.0060274303
30	0xbda865e4	-0.08222559
31	0xbdacdf38	-0.08441013
32	0x3dd91ff0	0.10601795
33	0x3e5bae5a	0.21453229
34	0xbe3207de	-0.17385814
35	0x3c122140	0.00891906
36	0xbdfa8a50	-0.12233412
37	0xbe18215c	-0.14856476
38	0xbdb870e0	-0.09005904
39	0xbe29ce76	-0.16582665
40	0x3d999f9f	0.075011484
41	0xbd234a87	-0.039865997
42	0xbe5b3ea1	-0.2141061
43	0x3e37ed64	0.17961651
44	0xbdd66143	-0.1046777
45	0x3bccde59	0.006252092
46	0xbdb36256	-0.087589905
47	0xbdae169b	-0.085004054
48	0x3e1b8118	0.15185964
49	0xbe1741ec	-0.14771241
50	0x3dfa72c2	0.122289196
51	0x3cab150a	0.020884056
52	0xbdf92aa8	-0.12166339
53	0xbe792358	-0.24329889
54	0x3ced85d0	0.02899447
55	0x3db6b694	0.08921543
56	0x3e5f983e	0.2183542
57	0x3e306e36	0.17229542
58	0x3e193898	0.14962995
59	0x3c5948c0	0.013261974
60	0x3d8b8444	0.06812337
61	0xbe763cda	-0.2404665
62	0x3d0f2cf8	0.034954995
63	0xbd112950	-0.03543979
64	0x3e596f0e	0.2123377
65	0xbe336e40	-0.17522526
66	0x3d8704d0	0.06592715
67	0x3e2fc5b0	0.17165256
68	0xbe041e80	-0.1290226
69	0x3e107aa0	0.14109278
70	0x3e5ae1d6	0.21375212
71	0xbd841500	-0.06449318
72	0xbe0bbc38	-0.13646019
73	0x3e409616	0.18807253
74	0xbdacb684	-0.084332496
75	0xbdd75b34	-0.105154425
76	0xbdb4bf34	-0.088255316
77	0x3d7a5018	0.06111154
78	0xbe0130da	-0.12616292
79	0xbc036a80	-0.008020997
80	0x3ded3ea8	0.11584216
81	0x3df6c7f0	0.12049854
82	0x3e472b82	0.1945019
83	0x3ce0f5d0	0.027460963
84	0x3dcba718	0.0994398
85	0xbdfd8c20	-0.12380242
86	0x3d1026b0	0.035193145
87	0xbd63c980	-0.055612087
88	0x3e3afe38	0.1826104
89	0xbe15a58c	-0.14613932
90	0x3d804058	0.062622726
91	0xbdbd1db4	-0.09234181
92	0x3daa8784	0.08326629
93	0xbd161050	-0.03663665
94	0xbe7b50e4	-0.24542576
95	0xbd1dd580	-0.038533688
96	0xbc99f340	-0.018792748
97	0xbd961cd4	-0.07329717
98	0x3e396586	0.18105134
99	0xbdd4506c	-0.10366902
100	0x3d494e08	0.049146682
101	0x3e4089bc	0.18802541
102	0x3de7a5d0	0.11310923
103	0xbe59acf0	-0.21257377
104	0x3db8f3f4	0.09030905
105	0x3e0015d4	0.12508327
106	0xbe2c01c4	-0.16797549
107	0xbe22f112	-0.15912274
108	0xbd376178	-0.044770688
109	0x3e5068a4	0.20352417
110	0xbe4b4c78	-0.1985339
111	0xbd97ba2c	-0.07408556
112	0x3d9a4f70	0.07534683
113	0x3de690c0	0.112580776
114	0x3d97d1f8	0.07413095
115	0x3dcf0058	0.101074874
116	0x3dcf625c	0.101261824
117	0xbe6fd624	-0.23421532
118	0xbe2051f4	-0.15656263
119	0x3d942fd8	0.07235688
120	0x3dbcdc70	0.092217326
121	0x3da174c4	0.078835994
122	0x3bbf8480	0.0058446527
123	0xbe07a116	-0.13245043
124	0x3e6d57ce	0.23178026
125	0x3dd94af4	0.10609999
126	0x3da15bb4	0.07878819
127	0xbe1b6966	-0.15176925
128	0xbd7cbf60	-0.061705947
129	0x3e51f496	0.20503458
130	0xbe7776b4	-0.24166375
131	0x3e5f0898	0.21780622
132	0xbdb59254	-0.088658005
133	0x3c205a00	0.009787083
134	0x3e4061a6	0.1878725
135	0xbe3fd5fe	-0.18733975
136	0xbdc86cdc	-0.09786388
137	0x3d3dcb00	0.046336174
138	0xbd702cc8	-0.058636457
139	0xbda77480	-0.081765175
140	0x3e6aa0c0	0.22912884
141	0xbddbc194	-0.107302815
142	0x3e64bab2	0.22336844
143	0xbc5f69a3	-0.013636026
144	0x3e218e8e	0.15777037
145	0xbe1b1b40	-0.15147114
146	0x3df3b188	0.11899096
147	0xbe6ebab2	-0.23313406
148	0xbd8fadcc	-0.07015571
149	0xbe506820	-0.2035222
150	0x3e5464d8	0.20741594
151	0xbe356127	-0.17712842
152	0xbca5d5a4	-0.020243473
153	0x3e063f99	0.13110198
154	0x3d12d5da	0.035848476
155	0x3e155159	0.14581813
156	0x3e3e9452	0.18611267
157	0x3e329e8c	0.17443293
158	0xbdb51eac	-0.08843741
159	0x3bfef480	0.0077806115
160	0x3c298e60	0.010348886
161	0xbe68d2a4	-0.22736603
162	0xbdaff84c	-0.08592281
163	0x3c809700	0.015697002
164	0x3e3c4c9c	0.18388599
165	0xbdd5b4d0	-0.10434878
166	0x3d5ff708	0.054678947
167	0xbd1f96a8	-0.038962036
168	0x3df2c724	0.11854389
169	0x3db40077	0.08789151
170	0xbe043793	-0.12911825
171	0x3d83b3b6	0.064307615
172	0x3dd0c0c0	0.10193014
173	0x3e76e958	0.24112451
174	0x3e2ed01a	0.17071572
175	0xbe48325f	-0.19550465
176	0xbdc1dd16	-0.09465997
177	0xbd63126f	-0.0554375
178	0x3d8cbac8	0.06871563
179	0x3d8d244a	0.06891687
180	0x3d92be79	0.07165236
181	0x3e1eaa97	0.15494762
182	0xbd84bc80	-0.06481266
183	0x3e5f1a70	0.21787429
184	0xbda0cf68	-0.078520596
185	0xbe0ac97a	-0.1355342
186	0xbe560278	-0.20899379
187	0x3d150fe0	0.036392093
188	0x3c84dc60	0.016218364
189	0xbd304028	-0.043029934
190	0x3e5e2052	0.21692017
191	0xbe5f2a36	-0.21793446
192	0x3e608e4e	0.21929285
193	0x3e3624f8	0.1778754
194	0x3d5c1bb8	0.053737372
195	0xbe469a4c	-0.19394797
196	0x3e2755b6	0.1634129
197	0xbe6c8c0c	-0.23100299
198	0x3d7bdd90	0.061490595
199	0x3b634800	0.0034680367
200	0xbd841c74	-0.064507395
201	0xbe1f14b2	-0.15535238
202	0xbb75d680	-0.0037511885
203	0x3e19f5c8	0.15035164
204	0x3dc62f18	0.09676951
205	0x3e2b423e	0.16724488
206	0x3e302158	0.1720022
207	0x3db252f8	0.08707231
208	0xbe034c54	-0.12822086
209	0xbe196a26	-0.14981899
210	0xbe442a32	-0.19156721
211	0x3ceace90	0.02866295
212	0x3e02376c	0.12716454
213	0x3e291a4c	0.16513938
214	0x3dc4ad60	0.09603381
215	0x3e41ef9a	0.18939057
216	0xbd83a644	-0.06428197
217	0x3de20938	0.110369146
218	0xbd4628d0	-0.048378766
219	0x3de98334	0.11401978
220	0xbd8309e8	-0.06398374
221	0xbdbce158	-0.092226684
222	0x3da4a100	0.08038521
223	0x3e65d1b2	0.22443274
224	0xbcd7d8b0	-0.026348442
225	0x3da52f44	0.08065656
226	0xbda7078c	-0.08155736
227	0x3e1b9408	0.15193188
228	0x3dae12ac	0.08499655
229	0x3e493a10	0.19651055
230	0x3e0c281c	0.13687176
231	0xbcaef250	-0.021355778
232	0xbde16118	-0.11004847
233	0x3e0820a8	0.13293707
234	0xbe58e278	-0.21180141
235	0xbe42e5d4	-0.19032985
236	0x3e5a7a36	0.21335682
237	0xbe14a880	-0.14517403
238	0xbe09d1e2	-0.1345897
239	0xbe5247d6	-0.20535216
240	0x3e001eca	0.12511745
241	0x3dfed384	0.12442687
242	0x3e69437a	0.22779647
243	0xbe2bf67e	-0.16793248
244	0x3c508d40	0.012728989
245	0xbe6b93aa	-0.23005548
246	0x3d46feb0	0.048582733
247	0x3e52467a	0.20534697
248	0xbe7dd7fc	-0.24789423
249	0xbbc8c240	-0.006126672
250	0xbe24ae2e	-0.1608207
251	0x3d072448	0.032993585
252	0xbe2763e2	-0.16346696
253	0xbe17d8c0	-0.14828777
254	0xbe0a580c	-0.1351015
255	0xbe646398	-0.22303617

weight_hh_l0 f4 [64, 16]
0	0x3e0ce99a	0.13760987
1	0xbdc6261c	-0.096752375
2	0x3dfa3e7c	0.12218949
3	0x3e60b9f0	0.2194593
4	0x3d790528	0.060795933
5	0xbe19deaa	-0.15026346
6	0xbdf5ac00	-0.11995697
7	0x3cb97b60	0.022641838
8	0x3aa3e700	0.0012504756
9	0x3c5406c0	0.012941062
10	0x3e1b132c	0.15144032
11	0x3dad7778	0.084700525
12	0x3e22a34a	0.15882602
13	0x3e1c64a8	0.15272772
14	0xbe3ff6c2	-0.18746474
15	0x3cd99730	0.02656135
16	0x3e3c968d	0.18416806
17	0xbe54218c	-0.20715922
18	0xbd6288e0	-0.055306315
19	0x3e11ea95	0.14249642
20	0xbdfee8dd	-0.12446759
21	0x3d0b46e8	0.03400317
22	0xbe5803be	-0.21095178
23	0xbb577f00	-0.0032882094
24	0xbc58793d	-0.013212499
25	0x3e121754	0.14266711
26	0xbe030af0	-0.12797141
27	0x3e3b8db4	0.18315774
28	0x3dc008c4	0.09376672
29	0x3e64d7a4	0.22347885
30	0x3d67f7e7	0.056632902
31	0x3e5df47b	0.21675293
32	0xbe4dbe2a	-0.20092073
33	0x3e2093c8	0.15681374
34	0x3d8a00e0	0.06738448
35	0x3de2b8a4	0.11070374
36	0xbe22fa04	-0.15915686
37	0xbe7ba55c	-0.24574798
38	0xbca68120	-0.020325243
39	0xbd4bfd78	-0.049802274
40	0xbca31b10	-0.019910365
41	0x3e55201a	0.20813027
42	0xbe427206	-0.18988809
43	0x3b9b3100	0.004736066
44	0xbd313ea0	-0.043272614
45	0xbe68cc56	-0.22734198
46	0x3e048292	0.12940434
47	0xbd6574b8	-0.056019515
48	0x3e5e8a58	0.21732461
49	0xbe672b90	-0.22575212
50	0xbe181a7c	-0.14853853
51	0x3cc6ab8e	0.024251726
52	0x3b4cf621	0.0031274634
53	0xbd8ec604	-0.06971362
54	0x3e3a565c	0.18197006
55	0x3d6936d0	0.05693704
56	0xbbc4ccfa	-0.0060058804
57	0x3e6867f0	0.22695899
58	0x3d969dd8	0.07354325
59	0xbda0aee9	-0.078458615
60	0xbe3823d0	-0.17982411
61	0x3e37aed2	0.17937782
62	0x3e3404bb	0.1757993
63	0xbe2e0082	-0.16992381
64	0x3dd8c07c	0.105835885
65	0xbdd62058	-0.10455388
66	0x3de98b20	0.11403489
67	0xbe57b006	-0.21063241
68	0xbe1dba2c	-0.1540305
69	0xbe61afaa	-0.22039667
70	0x3dc68a94	0.096944004
71	0xbd09daf0	-0.03365606
72	0x3e06e156	0.13171896
73	0xbd1e1c78	-0.03860137
74	0x3e29a706	0.1656762
75	0xbde98e48	-0.11404091
76	0x3e7f4c0e	0.24931356
77	0x3e156666	0.14589843
78	0x3e610740	0.21975422
79	0xbe65ab4c	-0.22428626
80	0xbe338b5a	-0.17533627
81	0xbd6c0520	-0.057622075
82	0x3e192f8a	0.14959541
83	0xbe5abb36	-0.21360478
84	0x3ba02700	0.0048874617
85	0x3e4dd408	0.20100415
86	0xbc345160	-0.011005729
87	0xbe6ebaa4	-0.23313385
88	0xbdfa50b0	-0.12222421
89	0x3e57c010	0.2106936
90	0x3d34ef00	0.04417324
91	0x3de01b90	0.10942757
92	0xbe36bd70	-0.17845702
93	0x3db79538	0.08964008
94	0x3c265920	0.010153085
95	0xbd08ee90	-0.033430636
96	0xbe7c5668	-0.24642336
97	0x3e682564	0.22670513
98	0xbe13c166	-0.14429244
99	0xbdf1c2b0	-0.11804712
100	0xbe7eb78c	-0.24874705
101	0xbd465ae8	-0.04842654
102	0xbe76b29e	-0.24091575
103	0xbdf806a4	-0.121106416
104	0xbe7b4e7a	-0.24541655
105	0x3e20f210	0.1571734
106	0xbe0b010e	-0.13574621
107	0x3de22000	0.1104126
108	0xbe02431e	-0.12720916
109	0xbcdd38d0	-0.02700463
110	0x3def424c	0.11682567
111	0xbde9a57c	-0.11408517
112	0x3dd16334	0.102239996
113	0x3d9698ac	0.073533386
114	0xbc3ff9c0	-0.01171726
115	0x3d575ab0	0.05257672
116	0x3debf4e8	0.115213215
117	0xbe4e744c	-0.20161551
118	0x3e14a8ca	0.14517513
119	0x3cd19c10	0.025587112
120	0x3da68304	0.08130458
121	0x3e52cd4e	0.2058613
122	0x3e491558	0.19637048
123	0x3df42768	0.11921579
124	0xbe2ccb54	-0.16874439
125	0x3e16d684	0.14730269
126	0x3d4cf810	0.05004126
127	0x3e60e076	0.21960625
128	0xbd39ccb8	-0.04536125
129	0x3e73297e	0.23746297
130	0x3e3584d2	0.17726448
131	0xbe4f63c2	-0.20252898
132	0x3e798944	0.24368769
133	0x3d2916c8	0.04128149
134	0x3e0a1186	0.13483247
135	0x3e050636	0.1299065
136	0xbbdd01c0	-0.0067445934
137	0xbe1bdd4c	-0.15221137
138	0x3e587cb6	0.21141323
139	0xbe5067ac	-0.20352048
140	0x3dc39ab0	0.09550989
141	0x3c65ba20	0.014021426
142	0xbd38b5a0	-0.045095086
143	0xbe23d17c	-0.1599788
144	0x3d5d9ca8	0.054104477
145	0x3e5d9cae	0.216418
146	0xbd3ce270	-0.046114385
147	0x3e40ee88	0.18840992
148	0xbdf043d0	-0.11731684
149	0x3ddcc434	0.1077961
150	0xbd0e9598	-0.034810632
151	0xbe07d6bc	-0.13265508
152	0xbe36a992	-0.17838123
153	0xbe0ec4d0	-0.13942266
154	0x3e1c3fca	0.15258709
155	0x3d780f30	0.06056136
156	0xbe37cfd2	-0.17950371
157	0x3de19cac	0.11016211
158	0x3ca37720	0.019954264
159	0xbc0b87c0	-0.008516252
160	0xbdb0cb28	-0.08632499
161	0x3e624da0	0.22099924
162	0xbe3812ca	-0.17975917
163	0x3dd40694	0.10352817
164	0xbd05e428	-0.03268829
165	0x3c8fc840	0.017551541
166	0x3bd7c5c0	0.006584853
167	0x3ded9a40	0.116016865
168	0xbe563afa	-0.20920935
169	0x3e3f4ebe	0.18682382
170	0xbd3e79b0	-0.04650277
171	0x3d8e3ff8	0.06945795
172	0x3d8966ec	0.06709084
173	0x3e546c78	0.20744503
174	0xbdfcb6d0	-0.12339556
175	0xbe251ff2	-0.16125467
176	0xbe01912f	-0.1265304
177	0x3e5837ed	0.21115084
178	0xbe5298b4	-0.20566064
179	0xbe68b828	-0.227265
180	0xbe25e217	-0.16199528
181	0x3b82a180	0.0039865375
182	0xbe67ade2	-0.22624925
183	0xbe6b4fe2	-0.22979692
184	0x3e5b6033	0.21423416
185	0x3dc58393	0.096442364
186	0x3e19d75a	0.15023556
187	0xbe545a41	-0.20737554
188	0x39d0517c	0.00039733562
189	0x3e2ab435	0.16670306
190	0x3c6e7453	0.014554101
191	0x3e651969	0.22372974
192	0x3c200960	0.00976786
193	0xbe2828dc	-0.16421837
194	0xbe173528	-0.14766371
195	0xbd5707c0	-0.052497625
196	0x3e64c0a8	0.22339118
197	0x3d5af018	0.053451627
198	0xbe2995c4	-0.16561037
199	0x3d6c7168	0.05772534
200	0xbd44e7a8	-0.048072487
201	0xbe67e7c6	-0.22647008
202	0xbe11e8ce	-0.14248964
203	0xbcdff250	-0.027337223
204	0xbcc75690	-0.024333268
205	0x3e0447be	0.12917992
206	0xbca13d70	-0.019682616
207	0x3dbbda2c	0.09172472
208	0xbe28ee0e	-0.1649706
209	0x3e6a0c9b	0.22856371
210	0xbd94170c	-0.07230958
211	0xbe1efd8d	-0.1552641
212	0xbddfda82	-0.10930349
213	0x3df99a24	0.12187603
214	0xbe44445c	-0.19166702
215	0x3e6f8f60	0.23394537
216	0x3e8cb3aa	0.27480823
217	0xbe54dabe	-0.20786569
218	0x3df2b24c	0.11850414
219	0x3e09d18c	0.13458842
220	0x3dc4ca88	0.09608942
221	0x3dc1cdc4	0.09463075
222	0xbd853a36	-0.065052435
223	0x3e105370	0.14094329
224	0x3e611cc8	0.21983635
225	0xbe70dc26	-0.2352148
226	0xbe16c11c	-0.14722103
227	0x3e00641e	0.12538192
228	0xbacfc700	-0.0015852153
229	0x3d91a24c	0.07111034
230	0xbe6d5248	-0.23175919
231	0xbacbca00	-0.0015547872
232	0x3e0c15fa	0.13680258
233	0x3e56c020	0.20971727
234	0xbe119400	-0.14216614
235	0xbe694d9a	-0.22783509
236	0x3bc3fb40	0.005980879
237	0x3db49a2c	0.088184685
238	0xbdbb328c	-0.091405004
239	0xbd9ce254	-0.07660356
240	0xbd4624b0	-0.04837483
241	0xbde6a3c4	-0.112617046
242	0xbe2eb1be	-0.17059991
243	0xbe24d45c	-0.16096634
244	0xbd484578	-0.048894376
245	0x3e525150	0.20538831
246	0xbe32516e	-0.17413875
247	0xbe4bbaa4	-0.19895416
248	0x3e1e92b0	0.15485644
249	0x3d5fe0c8	0.054657727
250	0x3dd26140	0.10272455
251	0xbe26c456	-0.16285834
252	0x3e32889c	0.17434925
253	0x3e4144fe	0.18873975
254	0xbd80a2b4	-0.06281033
255	0x3e217cd2	0.15770271

bias_ih_l0 f4 [64]
0	0x3d746160	0.059663177
1	0xbe4735c9	-0.19454111
2	0xbe7d89a2	-0.24759534
3	0xbd141980	-0.03615713
4	0xbe796480	-0.24354744
5	0x3dc402dc	0.09570858
6	0x3e12c574	0.14333135
7	0x3d9998cc	0.07499847
8	0x3cb7f1a0	0.022454083
9	0xbe00bec4	-0.12572771
10	0x3e09e2d2	0.13465431
11	0x3dff59bb	0.124682866
12	0xbe4397da	-0.19100896
13	0x3dd92275	0.10602275
14	0x3deebb24	0.11656788
15	0xbd424078	-0.047424763
16	0xbe0da1ca	-0.13831249
17	0x3e4d8cbe	0.2007322
18	0xbe71d572	-0.23616579
19	0x3e532c52	0.20622376
20	0x3e339612	0.17537716
21	0xbe7af6d4	-0.2450822
22	0x3d741540	0.059590578
23	0xbe252ea4	-0.16131073
24	0x399fa340	0.00030448474
25	0xbd44aef8	-0.048018426
26	0xbc9a7090	-0.018852502
27	0xbe490a78	-0.196329
28	0xbe22f588	-0.15913975
29	0xbdf847bc	-0.12123057
30	0xbe37fc77	-0.17967401
31	0x3bf8e0f0	0.007595174
32	0xbe097122	-0.13422063
33	0x3e320258	0.17383707
34	0xbe156f86	-0.14593324
35	0x3db050dc	0.08609173
36	0xbe0e6c9a	-0.13908616
37	0xbe20bdd4	-0.15697414
38	0x3ddec3d8	0.10877198
39	0xbe6dd188	-0.23224461
40	0xbe2297ce	-0.15878221
41	0x3e5c0535	0.21486361
42	0x3e4dd8ec	0.2010228
43	0x3df34464	0.11878279
44	0x3dc6665c	0.09687492
45	0xbe4762fe	-0.19471356
46	0x3ddfc73c	0.10926673
47	0x3e44cb54	0.19218189
48	0x3df9f458	0.12204808
49	0x3e0d3cde	0.1379275
50	0x3e38bcf6	0.18040833
51	0xbd2dbf20	-0.0424186
52	0xbe2ab27a	-0.16669646
53	0x3d3c2408	0.0459328
54	0x3e720b0a	0.23637024
55	0x3e2ad474	0.16682607
56	0x3e4db65e	0.20089099
57	0xbe7c2fb4	-0.24627572
58	0x3d9bca74	0.07606974
59	0x3ae0d7d4	0.0017154166
60	0xbe22912e	-0.15875694
61	0xbd400530	-0.046879947
62	0xbc8bb749	-0.01705517
63	0xbd450660	-0.048101783

bias_hh_l0 f4 [64]
0	0xbc2d6f20	-0.010585576
1	0x3d3361b2	0.04379434
2	0xbe653a62	-0.22385553
3	0x3e7432d7	0.23847519
4	0xbdc9dd08	-0.098566115
5	0xbe58c11e	-0.21167418
6	0x3e1f90e8	0.15582621
7	0x3e6ec078	0.23315609
8	0x3e07b9f4	0.13254529
9	0x3d8e5d50	0.06951392
10	0xbe6a960c	-0.22908801
11	0xbe7030aa	-0.23456064
12	0x3d956b44	0.0729585
13	0x3e2ee211	0.17078425
14	0x3e131d8c	0.1436674
15	0xbd60f830	-0.05492419
16	0x3c811130	0.015755266
17	0x3d48c500	0.049016
18	0xbe426bc2	-0.18986419
19	0x3e248838	0.16067588
20	0x3cae85a0	0.021303952
21	0x3df70f4c	0.120634645
22	0xbde594c4	-0.112100154
23	0xbd1c8ec0	-0.038222075
24	0x3da77e82	0.08178426
25	0x3cd352c0	0.025796294
26	0x3b22aa00	0.0024820566
27	0x3d47f168	0.048814207
28	0x3e6c3384	0.23066527
29	0xbc663440	-0.014050543
30	0x3df6c1a2	0.12048651
31	0xbcf27273	-0.02959559
32	0xbe020986	-0.12698945
33	0xbe350476	-0.17677483
34	0xbda867cc	-0.08222923
35	0xbe23e20c	-0.16004199
36	0x3df91580	0.12162304
37	0x3e51f2c4	0.20502764
38	0x3e5fa4e4	0.21840245
39	0xbbe2c7c0	-0.0069207847
40	0xbe353534	-0.17696077
41	0xbe60d791	-0.21957232
42	0x3de38ef0	0.111112475
43	0xbd188a58	-0.03724131
44	0xbe0dfac6	-0.13865194
45	0xbe32ff2a	-0.1748015
46	0x3c41a580	0.011819243
47	0x3c57dd77	0.01317536
48	0x3b96f540	0.004606873
49	0xbdeca00c	-0.11553964
50	0xbcce0ba0	-0.025152028
51	0xbdef20d8	-0.11676186
52	0xbd12b355	-0.035815556
53	0x3db3aec0	0.08773565
54	0x3e054462	0.13014367
55	0xbe227c68	-0.1586777
56	0x3da13df3	0.07873144
57	0x3ddc123b	0.10745665
58	0x3e7985b2	0.24367407
59	0x3e58ca46	0.21170911
60	0x3e6793ce	0.22614977
61	0xbd707a20	-0.058710217
62	0x3e59d845	0.21273907
63	0xbd84b3cb	-0.06479605

weight_ih_l1 f4 [64, 16]
0	0xbe8c7f20	-0.2744074
1	0x3ed23ece	0.4106354
2	0xbe3cfc52	-0.18455628
3	0xbe44691d	-0.19180723
4	0x3e56147c	0.20906252
5	0xbe48c760	-0.19607306
6	0x3dfa1332	0.122106925
7	0x3de20ad8	0.110372245
8	0xbd989c8e	-0.074517354
9	0x3e1a7317	0.15082966
10	0x3e38b42b	0.18037479
11	0xbdecb82c	-0.115585655
12	0xbdc7e42e	-0.09760319
13	0xbd440545	-0.047856588
14	0x3f6d1867	0.9261536
15	0xbd4605d5	-0.048345406
16	0xbe104e87	-0.14092456
17	0xbc87bd8d	-0.016569877
18	0xbc4aac20	-0.012370139
19	0x3dc8e5ee	0.098094806
20	0x3e75df3d	0.2401094
21	0xbca5a0da	-0.020218302
22	0x3af01805	0.0018317705
23	0x3cbd39e0	0.023098886
24	0x3e917b7f	0.28414533
25	0xbe52c7af	-0.20583986
26	0x3ce5c15c	0.028046302
27	0xbdb7cf4d	-0.08975086
28	0x3d5bbb0c	0.05364518
29	0x3d8f38a5	0.06993226
30	0x3f764c15	0.9620984
31	0x3e77a81c	0.24185222
32	0x3d15a193	0.036531042
33	0x3e725774	0.23666173
34	0xbdf46c38	-0.119347036
35	0xbe8b73e9	-0.2723687
36	0x3e516097	0.20447002
37	0x3e7b7449	0.24556078
38	0xbe0cd88c	-0.13754481
39	0x3dc40b18	0.095724285
40	0x3d03221b	0.032014947
41	0xbeb822c1	-0.35964015
42	0x3d809db9	0.06280083
43	0x3e76ed81	0.24114038
44	0x3e881667	0.26579592
45	0x3dc8e192	0.09808649
46	0x3f745588	0.9544301
47	0xbe0aff19	-0.13573875
48	0x3dc3a8b0	0.09553659
49	0x3fdfd4a2	1.7486765
50	0xbd38bed0	-0.045103848
51	0x3df4fdd0	0.119624734
52	0x3e5c88db	0.21536581
53	0x3e00b252	0.12568024
54	0xbd971912	-0.07377829
55	0x3b325c80	0.0027215779
56	0x3ea34b72	0.31893498
57	0xbd5ddb12	-0.054164
58	0xbe4896a9	-0.19588722
59	0x3dac6d2f	0.084192626
60	0xbdd7d369	-0.1053837
61	0x3d87efb2	0.06637515
62	0x3f742f73	0.953849
63	0xbda07738	-0.07835239
64	0x3b64b547	0.0034898089
65	0x3fba9fa7	1.4579972
66	0xbe535a8c	-0.2064001
67	0xbe3455a8	-0.176108
68	0x3e90fe42	0.28318983
69	0xbe41226a	-0.18860784
70	0x3e5fd53a	0.21858683
71	0xbd80d9a0	-0.06291509
72	0x3ecf5c5d	0.40500155
73	0xbda855ad	-0.08219466
74	0xbde7aca2	-0.11312224
75	0x3dcc1225	0.09964398
76	0x3eccd081	0.40002826
77	0x3de7fd89	0.11327655
78	0x3fddf327	1.7339829
79	0x3ecba800	0.3977661
80	0xbcd64a1d	-0.026158387
81	0x3f43db37	0.7650637
82	0x3d4a0688	0.049322635
83	0xbe87a305	-0.26491562
84	0x3ea8f39a	0.32998353
85	0x3e57640e	0.21034262
86	0x3e5e7c60	0.21727133
87	0xbe79129a	-0.24323502
88	0xbd73df60	-0.0595392
89	0xbe327549	-0.17427553
90	0x3e3c875c	0.1841101
91	0x3eb3b6f5	0.35100523
92	0xbd971b09	-0.073782034
93	0x3e87554e	0.2643227
94	0x3f9a25df	1.2042807
95	0x3dd05036	0.10171549
96	0xbe3f7927	-0.1869856
97	0xbce618ed	-0.028088057
98	0xbd25c5a0	-0.040471673
99	0x3ddc43da	0.10755129
100	0x3e43b138	0.19110572
101	0xbd981071	-0.07425011
102	0x3dcd41a8	0.100222886
103	0xbd9c8a80	-0.07643604
104	0xbba93f14	-0.00516499
105	0xbdc55b86	-0.09636597
106	0xbdb9b0cd	-0.09066925
107	0xbe15d2d4	-0.14631206
108	0x3e27b899	0.16379012
109	0x3c6557fa	0.013998026
110	0x3f76120c	0.9612129
111	0x3e3ef9a5	0.1864992
112	0xbdf00870	-0.11720359
113	0x3ed4f0be	0.41589922
114	0xbc033f80	-0.008010745
115	0x3df85289	0.12125117
116	0x3e144c7e	0.14482304
117	0x3e20a8b8	0.15689361
118	0x3d7b44b1	0.061344806
119	0xbe5d97d4	-0.21639949
120	0x3e3b53a0	0.18293619
121	0xbd4fd907	-0.050744083
122	0xbe7556d8	-0.2395891
123	0x3df24d08	0.11831099
124	0xbccb064d	-0.024783278
125	0x3e739e4d	0.23790856
126	0x3f8a2eaf	1.0795497
127	0xbbe09e47	-0.0068548056
128	0xbd1416df	-0.036154624
129	0x3f46d8fa	0.7767483
130	0x3c17bf80	0.009261966
131	0x3d8bfb74	0.0683507
132	0xbbb0321f	-0.0053770686
133	0x3d946116	0.0724508
134	0x3e04d822	0.12973073
135	0xbe63e5b2	-0.2225559
136	0x3d27b8ea	0.040947832
137	0xbdbfd486	-0.093667075
138	0xbe36cb2f	-0.17850946
139	0x3e8e353e	0.27774996
140	0x3eb5d168	0.35511327
141	0x3e866e4d	0.26256028
142	0x3fa5622f	1.2920588
143	0xbd8ab963	-0.06773641
144	0x3de9bef7	0.11413377
145	0x3d5e1a88	0.05422452
146	0x3e031a6e	0.12803051
147	0xbe4325f3	-0.19057445
148	0xbcee8c7a	-0.029119719
149	0x3d094553	0.03351338
150	0x3e8b4784	0.27203
151	0xbe430bf2	-0.19047526
152	0xbc8a7c2f	-0.016904918
153	0xbe49475b	-0.19656126
154	0x3d796a65	0.06089248
155	0x3ea2b57c	0.31779087
156	0xbda25a6e	-0.07927404
157	0x3e7a6f58	0.24456537
158	0x3f8479d8	1.0349684
159	0x3e9bf63e	0.30461305
160	0xbe9ea527	-0.30985376
161	0x3e790340	0.24317646
162	0xbe2d08ac	-0.1689784
163	0xbe9483ec	-0.29006898
164	0x3dd168e6	0.10225086
165	0x3ce0daa9	0.027448015
166	0x3e143729	0.14474167
167	0x3d964bb4	0.07338658
168	0x3e0ba172	0.13635805
169	0xbe6872a4	-0.22699982
170	0x3e1973db	0.14985602
171	0x3e6f337c	0.23359483
172	0x3e71d71b	0.23617212
173	0xbe35ae78	-0.17742336
174	0x3f66fb51	0.9022723
175	0x3e31481e	0.17312667
176	0x3dd08135	0.10180894
177	0x3d3704ca	0.0446823
178	0x3e683e80	0.22680092
179	0xbea11b51	-0.31466153
180	0x3ea6d31c	0.3258294
181	0xbe44ab68	-0.19206011
182	0xbdc12f14	-0.094328076
183	0xbe13aa40	-0.14420414
184	0xbdc74439	-0.09729809
185	0xbe25cefc	-0.1619224
186	0xbe83345d	-0.25625888
187	0x3e71f1ef	0.23627447
188	0x3e979fb6	0.29614037
189	0x3e260910	0.16214395
190	0x3f9232b4	1.1421723
191	0xbd19dd9a	-0.03756485
192	0xbe571453	-0.21003847
193	0x3ed15e8a	0.4089244
194	0x3e528d84	0.20561796
195	0x3db2cba2	0.08730246
196	0xbda66d73	-0.081263445
197	0xbdded04a	-0.10879572
198	0x3ce60f9c	0.028083615
199	0xbe16cc56	-0.14726385
200	0x3ea5858a	0.32328445
201	0xbd216e93	-0.039412092
202	0x3cf97318	0.030450389
203	0x3ead7142	0.3387547
204	0xbdf886fc	-0.12135121
205	0x3b618160	0.003440939
206	0x3f29d391	0.6633845
207	0xbcba1ffe	-0.022720333
208	0xbe044645	-0.1291743
209	0x3f9427f4	1.1574693
210	0x3ddcbc10	0.107780576
211	0xbb7358c5	-0.0037131768
212	0xbdba006f	-0.09082114
213	0xbc61a28d	-0.013771665
214	0x3e42b87a	0.19015685
215	0x3c878800	0.016544342
216	0x3e6737f6	0.22579941
217	0xbe8a36b2	-0.26994854
218	0xbcfd22ae	-0.030900326
219	0xbcb4012d	-0.021973217
220	0xbe279e04	-0.16368872
221	0x3e468f98	0.19390714
222	0x3f91d1cc	1.139215
223	0x3dd0fa45	0.10203985
224	0xbe35adeb	-0.17742126
225	0x3d51de57	0.05123743
226	0x3c456780	0.012048602
227	0x3e53f03c	0.20697111
228	0xbdd05c43	-0.101738475
229	0x3e56f0bc	0.2099027
230	0x3dce264c	0.10065898
231	0x3df20238	0.118168294
232	0x3e46a85d	0.19400163
233	0x3e24a040	0.16076756
234	0x3e66bbd3	0.22532587
235	0x3e1566df	0.14590023
236	0x3e9228ad	0.28546658
237	0x3e8cf388	0.2752955
238	0x3fa4dc89	1.2879802
239	0x3df80065	0.1210945
240	0x3cf6ea9b	0.030141165
241	0x3e9ca466	0.30594176
242	0xbd895a2c	-0.06706652
243	0xbe3fcc7e	-0.18730351
244	0x3e02762b	0.1274039
245	0x3cf12156	0.029434841
246	0x3e817c5c	0.2529019
247	0xbdec02a0	-0.11523938
248	0x3e8eb9e5	0.278762
249	0x3be7ff46	0.0070799915
250	0x3d9d3bd7	0.07677429
251	0x3bf87adc	0.0075830054
252	0xbd5302e4	-0.05151643
253	0x3dac38d7	0.08409279
254	0x3f6e0aa1	0.9298497
255	0x3e99d51b	0.300454

weight_hh_l1 f4 [64, 16]
0	0xbe923df3	-0.28562889
1	0xbda3890e	-0.079851255
2	0xbe2047ae	-0.15652344
3	0xbde02b8b	-0.10945805
4	0x3e992179	0.2990835
5	0x3e2d4425	0.16920526
6	0x3e2fb1a7	0.17157613
7	0xbcb653de	-0.022256788
8	0xbdb5140a	-0.08841713
9	0xbe43dec3	-0.19127946
10	0x3d5886fb	0.052863102
11	0xbce161be	-0.027512427
12	0x3e1397b6	0.14413342
13	0x3e82a53f	0.25516698
14	0x3e88640f	0.2663884
15	0xbdf155b8	-0.11783928
16	0x3ceb3d0b	0.028715631
17	0xbd3858c8	-0.045006543
18	0x3e740f35	0.23833926
19	0x3d31200f	0.043243464
20	0xbd620365	-0.05517902
21	0xbe8f69f3	-0.2801052
22	0x3db919b5	0.09038106
23	0xbd0c2ad7	-0.034220543
24	0xbdad880e	-0.08473216
25	0x3c9e39c8	0.019314662
26	0xbe3b5b4e	-0.18296549
27	0x3ce74ffa	0.028236378
28	0x3da0812c	0.078371376
29	0x3da3975b	0.07987853
30	0xbbe3c256	-0.006950657
31	0x3d948f3e	0.07253884
32	0xbe49cf3a	-0.19707957
33	0xbd75685b	-0.059913974
34	0xbdd770c7	-0.105195574
35	0xbd68a106	-0.05679419
36	0x3e40464b	0.18776815
37	0xbe52626c	-0.20545357
38	0xbdd0ba18	-0.101917446
39	0xbe50e9d2	-0.20401695
40	0x3e51792c	0.2045638
41	0xbea50342	-0.32229048
42	0xbd512ba1	-0.051067
43	0x3b208474	0.002449301
44	0xbe1d76bf	-0.1537733
45	0x3c5a25c2	0.013314666
46	0xbd847899	-0.06468315
47	0xbdce5ceb	-0.100763164
48	0x3d63c6ec	0.05560963
49	0xbe928468	-0.28616643
50	0xbc8fdeab	-0.017562231
51	0xbe855498	-0.26041102
52	0x3da1748a	0.07883556
53	0xbdc6e038	-0.09710735
54	0xbd8f06d1	-0.06983722
55	0xbe92fbde	-0.28707784
56	0x3e8b135c	0.27163208
57	0xbcdca45a	-0.026933838
58	0xbd313bd6	-0.043269955
59	0x3df8bdb2	0.121455565
60	0xbe39c671	-0.18142106
61	0x3de689d9	0.11256761
62	0x3e9ca5fe	0.30595392
63	0xbe6071f6	-0.21918473
64	0x3cd60648	0.026126042
65	0xbd816287	-0.06317621
66	0xbd365322	-0.044512875
67	0xbdcdea97	-0.1005451
68	0x3ea9167c	0.33024967
69	0x3dd2ebc3	0.10298874
70	0xbe2057af	-0.15658449
71	0x3b1bec6d	0.0023792044
72	0x3db184b3	0.086678885
73	0xbbbfe11b	-0.005855692
74	0xbde3b78f	-0.111189954
75	0x3d169faf	0.03677338
76	0x3d67024d	0.05639868
77	0xbd3564d9	-0.04428563
78	0x3e2de116	0.16980395
79	0x3dc3b022	0.09555079
80	0x3d94dc37	0.07268565
81	0x3daf22f8	0.08551592
82	0x3d876758	0.06611508
83	0x3da54546	0.080698535
84	0x3e5592dc	0.20856804
85	0x3e1599c1	0.14609434
86	0x3e8f7386	0.28017825
87	0xbe529350	-0.20564008
88	0xbd017adc	-0.03161131
89	0xbd6c5af0	-0.057703912
90	0xbd880a8c	-0.06642637
91	0x3e228c6d	0.1587388
92	0x3d980a0e	0.07423793
93	0xbddeb2e3	-0.10873964
94	0xbe1ea49d	-0.15492482
95	0x3e2407c5	0.16018589
96	0xbe392737	-0.18081366
97	0xbe863d3c	-0.26218593
98	0xbd6ec932	-0.058297344
99	0x3e2a93a7	0.16657887
100	0x3e2415c3	0.16023926
101	0xbe03b35f	-0.12861393
102	0x3da2869f	0.07935833
103	0x3e31247d	0.17299075
104	0x3e0ebee1	0.13940002
105	0x3d91478a	0.07093723
106	0xbe192535	-0.149556
107	0xbd110f79	-0.035415146
108	0xbb641a55	-0.0034805734
109	0xbcd6326e	-0.026147094
110	0xbe2642b9	-0.1623639
111	0x3dcde2d1	0.100530274
112	0x3d791ced	0.0608186
113	0xbe393daa	-0.18089929
114	0xbd87826a	-0.066166714
115	0x3e06cdf3	0.13164501
116	0x3cd82372	0.02638409
117	0xbdb1dd67	-0.08684807
118	0x3e73aa8f	0.23795532
119	0xbe0136fb	-0.1261863
120	0x3e13dc19	0.1443943
121	0xbdb9aaaf	-0.090657584
122	0xbdfabe5e	-0.12243341
123	0xbe64b580	-0.22334862
124	0x3e2c0b25	0.16801126
125	0x3e48d7ce	0.19613573
126	0x3e99413b	0.2993258
127	0xbe837e11	-0.2568212
128	0xbe4b6e43	-0.1986628
129	0xbd456257	-0.048189487
130	0xbe0aecdd	-0.13566919
131	0x3d49d1af	0.049272235
132	0x3d29247b	0.041294556
133	0xbdb3ca98	-0.08778876
134	0x3e93438d	0.28762475
135	0x3da1e2f7	0.07904618
136	0x3ea15b98	0.31515193
137	0x3c9daf15	0.019248525
138	0xbd4a13f5	-0.04933544
139	0xbea287a2	-0.31744105
140	0xbe7b0dad	-0.24516936
141	0xbdc3d8e2	-0.095628515
142	0xbd933757	-0.071882896
143	0x3d078fe7	0.03309622
144	0xbdeca74a	-0.11555345
145	0xbe6237c5	-0.22091587
146	0xbdbe5488	-0.09293467
147	0xbd22ddeb	-0.03976242
148	0x3d3467fd	0.044044483
149	0x3e06ffec	0.13183564
150	0x3e67fc9d	0.22654958
151	0xbdb5ae4e	-0.088711366
152	0x3e1176f1	0.14205529
153	0xbcc30c28	-0.023809507
154	0x3c2d99cc	0.01059575
155	0xbe3ea9a5	-0.18619402
156	0x3dcd2455	0.100166954
157	0x3e633641	0.22188665
158	0xbdbd96ef	-0.09257304
159	0xbc6fd697	-0.014638565
160	0x3e2bb2e8	0.16767466
161	0xbe0fd4f1	-0.14046074
162	0xbe0869b0	-0.13321567
163	0x3d19297a	0.03739307
164	0x3e8b380b	0.27191195
165	0xbe88f1f8	-0.26747108
166	0x3e059a3f	0.13047121
167	0x3e047f8b	0.12939279
168	0x3e7192f8	0.2359122
169	0x3d64b40e	0.055835776
170	0xbcf31b7a	-0.029676188
171	0x3e078e5f	0.13237904
172	0x3e0ca2f2	0.13734034
173	0xbe1e0d84	-0.15434843
174	0xbe04e634	-0.1297844
175	0xbe8d1359	-0.27553824
176	0x3e19b2ac	0.15009564
177	0xbe406abe	-0.18790719
178	0x3e937436	0.287996
179	0xbe2f1f78	-0.17101848
180	0xbd3ff74e	-0.046866708
181	0xbe7525bd	-0.23940177
182	0x3dde9985	0.10869125
183	0xbe412b97	-0.18864284
184	0x3de629cc	0.11238441
185	0xbd4fdaef	-0.0507459
186	0xbe936334	-0.28786623
187	0x3df3761b	0.11887761
188	0xbd064524	-0.03278078
189	0xbd79087c	-0.060799107
190	0x3e562e8d	0.20916195
191	0xbdd24f68	-0.10269052
192	0xbe620c19	-0.22074927
193	0xbcc4d455	-0.024027029
194	0x3e96b309	0.29433468
195	0x3d229abc	0.039698347
196	0xbdf228b9	-0.118241735
197	0x3e184939	0.14871682
198	0x3e765c4c	0.24058646
199	0x3db84811	0.089981206
200	0xbd758f69	-0.05995122
201	0x3cce5a9b	0.025189688
202	0xbe5895e7	-0.21150933
203	0xbdd30d1d	-0.103052355
204	0xbe9ace43	-0.3023549
205	0x3d23420c	0.03985791
206	0x3e3f787c	0.18698305
207	0xbe70afc7	-0.23504554
208	0x3e2abf27	0.16674481
209	0xbcfb2e92	-0.030661855
210	0x3dca221c	0.09869787
211	0xbe34dd69	-0.17662586
212	0x3e9f9674	0.31169474
213	0xbddef387	-0.10886293
214	0xbe0d401e	-0.1379399
215	0xbe6dce27	-0.23223172
216	0xbdb4675e	-0.08808778
217	0xbc1af87d	-0.009458658
218	0x3e373e84	0.17894942
219	0xbe8febb3	-0.28109512
220	0x3e29a1c1	0.1656561
221	0xbe385931	-0.18002774
222	0xbdd58b03	-0.10426905
223	0xbe7289c9	-0.23685373
224	0xbe3d72c6	-0.18500814
225	0xbdee32b5	-0.11630765
226	0x3e302aec	0.17203873
227	0x3e3ce7a4	0.18447739
228	0x3def30a2	0.11679198
229	0xbe279bed	-0.16368075
230	0xbd11c9c4	-0.03559281
231	0x3d9885c0	0.07447386
232	0x3d154a62	0.03644789
233	0x3d6629da	0.056192257
234	0x3d694a66	0.056955718
235	0xbe5dfe97	-0.2167915
236	0xbe17b65b	-0.14815657
237	0xbe74b0f9	-0.23895635
238	0xbd28af45	-0.041182775
239	0x3e080d03	0.13286214
240	0x3d903027	0.07040434
241	0x3d868ef2	0.065702334
242	0x3dc3c608	0.09559256
243	0xbe3388c9	-0.17532648
244	0xbc0e8fbb	-0.00870126
245	0x3d0bf18e	0.03416591
246	0x3e502faf	0.2033069
247	0x3d7e72c6	0.062121175
248	0xbbd5e8b7	-0.006527986
249	0x3d5be014	0.053680494
250	0x3ce73416	0.028223079
251	0xbd9ee55d	-0.07758591
252	0xbea08d16	-0.3135764
253	0xbdf33bb1	-0.118766196
254	0x3e8ee114	0.27906096
255	0xbe19b522	-0.15010503

bias_ih_l1 f4 [64]
0	0x3e2b3984	0.16721159
1	0x3de317d6	0.11088531
2	0x3ead5609	0.33854702
3	0x3d8e364b	0.06943949
4	0x3d1c2580	0.0381217
5	0x3c8dd40f	0.017313031
6	0xbe117680	-0.1420536
7	0xbdc23e07	-0.09484487
8	0x3d2a5045	0.041580457
9	0x3e9b6cbe	0.303564
10	0xbcdb438f	-0.026765613
11	0x3ea7a3a8	0.32742047
12	0xbcb6e1cc	-0.022324465
13	0xbd3cb61d	-0.046072114
14	0xbd21dbbf	-0.039516207
15	0x3e929a35	0.28633276
16	0x3e0c1cd6	0.13682875
17	0xbd64c18f	-0.055848654
18	0x3e8b5d54	0.2721964
19	0x3df22daa	0.11825116
20	0xbdafbb90	-0.085806966
21	0xbc471562	-0.012151094
22	0xbe26cd4d	-0.16289254
23	0x3e2844cf	0.16432498
24	0x3c1134ee	0.008862717
25	0x3dd81acc	0.10551986
26	0x3c8ea5c2	0.017413024
27	0x3e7a2beb	0.24430816
28	0xbd251158	-0.040299743
29	0xbc983b43	-0.018582946
30	0x3de1c700	0.11024284
31	0xbe0ae1a2	-0.13562635
32	0xbe8beaca	-0.27327567
33	0xbe4922de	-0.19642207
34	0x3e7b3cb3	0.24534874
35	0xbc3e0f98	-0.0116003975
36	0x3e229723	0.15877967
37	0xbe50f76b	-0.20406882
38	0x3e8d6d9f	0.27622697
39	0x3cf88603	0.03033734
40	0x3da7588c	0.08171186
41	0xbd9ba525	-0.07599858
42	0xbe9d03ae	-0.3066687
43	0x3daf06a7	0.08546191
44	0xbdb49505	-0.08817486
45	0xba420175	-0.000740073
46	0xbe00eadc	-0.12589592
47	0xbe94d95e	-0.29072088
48	0x3dae4971	0.085101016
49	0x3e8498bd	0.2589778
50	0x3eab2b9f	0.33431718
51	0x3d9b69a0	0.07588506
52	0x3deb17dc	0.1147916
53	0x3e13fb57	0.14451347
54	0x3df49c9a	0.11943932
55	0x3e549681	0.20760538
56	0x3e0cc62e	0.13747475
57	0xb99341f5	-0.00028087167
58	0x3ce3f949	0.02782883
59	0x3e9c38b7	0.3051202
60	0x3d5fa550	0.054601014
61	0x3df13768	0.11778146
62	0xbdb68e8f	-0.0891391
63	0x3e5aca0a	0.21366134

bias_hh_l1 f4 [64]
0	0x3dfa79a9	0.12230236
1	0x3c362ea3	0.0111195175
2	0xbdbc5100	-0.09195137
3	0xbd81d1eb	-0.06338867
4	0x3e16cf61	0.14727546
5	0xbc8f713b	-0.017510047
6	0x3e65ca5a	0.22440472
7	0x3e43bd24	0.1911512
8	0xbd779d8f	-0.060452994
9	0x3e9a74aa	0.30167133
10	0x3d8eb3e7	0.069679074
11	0x3d6d0e7f	0.057875153
12	0x3ea5372e	0.3226866
13	0x3d99888e	0.07496749
14	0xbd3094bc	-0.043110594
15	0x3e4d98c7	0.20077811
16	0xbcfc7480	-0.03081727
17	0x3d80ab39	0.06282658
18	0x3e09da53	0.1346219
19	0xbc64d95b	-0.013967837
20	0xbd9f1e64	-0.077694684
21	0xbe406547	-0.18788634
22	0x3deed2ce	0.116613016
23	0x3e8dfd4e	0.2773232
24	0xbdd2f9fa	-0.103015855
25	0xbc681d52	-0.014167147
26	0x3e7ee752	0.24892929
27	0x3d73a210	0.059480727
28	0x3de1b5cc	0.11021003
29	0x3e069d86	0.13146028
30	0x3c7af446	0.015317028
31	0x3e4b45e4	0.1985088
32	0x3c406b05	0.011744265
33	0xbc3243da	-0.010880435
34	0x3d503344	0.05083014
35	0x3b4564bf	0.0030119864
36	0x3e84d2ad	0.25941983
37	0x3dadcb68	0.08486062
38	0x3e551738	0.20809639
39	0x3e19e222	0.15027669
40	0x3db87730	0.09007108
41	0xbe69d11b	-0.22833674
42	0x3e06cf9c	0.13165134
43	0xbd8428ab	-0.06453069
44	0xbea86d54	-0.3289591
45	0x3e6fd64c	0.23421592
46	0x3e2a95f1	0.1665876
47	0xbe18128e	-0.14850828
48	0x3e7264ed	0.23671313
49	0x3e14758a	0.14497963
50	0x3df6a8e1	0.1204393
51	0x3dfeccc8	0.12441403
52	0x3f024a45	0.50894576
53	0xbd2afd5f	-0.04174554
54	0x3e0dec53	0.13859682
55	0x3cdea23c	0.027176969
56	0x3d462cdb	0.04838262
57	0x3e44b864	0.19210964
58	0xbdd97f58	-0.10619992
59	0xbd8045b0	-0.06263292
60	0xbd72496c	-0.05915205
61	0x3e6d5712	0.23177746
62	0x3c6df0cd	0.014522743
63	0x3eb451e8	0.3521874

weight_ih_l2 f4 [64, 16]
0	0xbdd6dac4	-0.10490945
1	0xbea835f5	-0.32853666
2	0x3e47d350	0.19514203
3	0xbd1d3241	-0.038378004
4	0x3edf9020	0.43664646
5	0xbd700547	-0.058598783
6	0xbe11b12c	-0.14227742
7	0xbe96d853	-0.29461917
8	0x3db77f73	0.08959856
9	0xbe725586	-0.23665437
10	0xbe19437e	-0.14967152
11	0x3df3c841	0.1190343
12	0xbd95e3c6	-0.07318835
13	0x3e073b27	0.13206159
14	0x3e64c705	0.22341545
15	0xbd209ee9	-0.03921405
16	0xbdf14712	-0.11781134
17	0x3df994bc	0.12186572
18	0x3dfd8d70	0.12380493
19	0xbd822806	-0.0635529
20	0x3ec68b0a	0.38777953
21	0x3d96676c	0.07343945
22	0x3d01b7bc	0.031669363
23	0xbac85092	-0.0015282801
24	0x3dfc8945	0.123308696
25	0xbe31ee8b	-0.17376153
26	0x3d9b466e	0.07581793
27	0xbe4f51c9	-0.20246042
28	0xbe6aa887	-0.2291585
29	0x3eb8ead5	0.36116663
30	0xbd812315	-0.063055195
31	0xbeab7b91	-0.3349271
32	0xbe8dcfd2	-0.27697617
33	0xbe4d2f77	-0.20037638
34	0x3e271a34	0.1631859
35	0xbcc575e1	-0.02410406
36	0x3ed78afc	0.42098224
37	0xbe41feae	-0.18944809
38	0xbdaaa5f1	-0.08332432
39	0x3c9e84d8	0.019350454
40	0x3d4859df	0.048913833
41	0x3dc01f4f	0.09380972
42	0xbe957873	-0.29193458
43	0xbdae8d0c	-0.08522996
44	0xbe659891	-0.2242148
45	0xbcfc3af6	-0.030789834
46	0xbe029f1a	-0.12756005
47	0xbeb4dd1d	-0.35324946
48	0xbe20eb5c	-0.15714782
49	0xbe6776a8	-0.22603858
50	0xbd8eb76a	-0.06968577
51	0xbe9e0590	-0.3086362
52	0x3f1ed5db	0.6204507
53	0xbe8327c7	-0.25616285
54	0x3e74dccc	0.23912352
55	0xbea779dc	-0.3271016
56	0x3ed45f88	0.41479135
57	0xbdde134a	-0.10843523
58	0xbe3bacfb	-0.18327706
59	0xbd0ce549	-0.03439835
60	0xbe84cabd	-0.25935927
61	0xbbe12e21	-0.006871954
62	0x3e56376e	0.20919582
63	0x3b8c4368	0.0042804964
64	0xbe9c0ded	-0.30479375
65	0x3ce6615d	0.028122598
66	0x3d06e72b	0.032935303
67	0x3d8790f7	0.06619447
68	0x3e9769bc	0.29572856
69	0x3dfdb856	0.12388675
70	0x3d9b534d	0.07584248
71	0xbe685395	-0.22688134
72	0x3e033568	0.12813342
73	0x3da17a9d	0.07884715
74	0xbe88ce5b	-0.26719937
75	0xbe30a650	-0.17250943
76	0x3df1e3f2	0.11811055
77	0x3e6f23d7	0.23353516
78	0xbd2b2743	-0.04178549
79	0x3e084518	0.13307607
80	0xbe8983f3	-0.26858482
81	0xbe4af317	-0.19819294
82	0x3e7527b1	0.23940922
83	0xbe8193aa	-0.2530797
84	0x3f6f3904	0.93446374
85	0xbec6198a	-0.3869136
86	0x3e43ec9f	0.19133233
87	0xbec8bb3b	-0.39205346
88	0x3e88ddf0	0.26731825
89	0xbe5f20f3	-0.21789913
90	0xbeb78801	-0.3584595
91	0xbe7b31ac	-0.24530667
92	0x3ce0c082	0.027435545
93	0x3e0ec3ab	0.13941829
94	0x3ef32198	0.47486567
95	0xbd8d9cb7	-0.069146566
96	0xbe65ccda	-0.22441426
97	0x3c9d8392	0.019227777
98	0x3e39cac6	0.18143758
99	0xbe9b037f	-0.30276105
100	0x3eb31e09	0.34983853
101	0xbe6e132c	-0.23249501
102	0x3e76837b	0.24073593
103	0xbcf838e2	-0.030300561
104	0x3d8b3305	0.067968406
105	0xbe9598aa	-0.29218036
106	0x3c81879c	0.015811734
107	0xbcfc8dee	-0.030829396
108	0xbb699f0e	-0.0035647782
109	0x3e5a9ad0	0.21348119
110	0xbdb75def	-0.08953463
111	0x3d4a96f0	0.04946035
112	0xbe73157a	-0.23738661
113	0xbd41c1f7	-0.04730412
114	0x3dac773f	0.08421182
115	0xbe7a10ce	-0.24420473
116	0x3ebbe28f	0.36696288
117	0x3e07930c	0.13239688
118	0xbc5a2f26	-0.013316905
119	0xbe6f43f0	-0.2336576
120	0xbd16da9c	-0.036829576
121	0xbe4517a5	-0.19247301
122	0xbca2635b	-0.019822767
123	0x3d897301	0.067113884
124	0xbde79725	-0.113081254
125	0x3e51687d	0.20450015
126	0x3e7ebe85	0.24877365
127	0x3b9c4d7c	0.004769979
128	0xbebc52df	-0.36781976
129	0xbd860e6f	-0.06545722
130	0x3eb68c04	0.35653698
131	0xbe7fb773	-0.24972324
132	0x3e56deef	0.2098348
133	0xbea9e646	-0.33183497
134	0x3d1dafb1	0.03849763
135	0xbe4c7988	-0.19968235
136	0x3c83f110	0.016106158
137	0xbe95e299	-0.29274443
138	0xbea69c88	-0.325413
139	0xbe5e6d0a	-0.21721283
140	0xbdc3d3f5	-0.09561912
141	0x3ecdf6f3	0.4022747
142	0x3daffd37	0.08593219
143	0xbe59617a	-0.2122859
144	0x3d4a7f37	0.049437728
145	0xbe793ae8	-0.24338877
146	0x3e82b71b	0.25530323
147	0xbeb77530	-0.35831594
148	0x3ee9d543	0.45670518
149	0xbdaeeac8	-0.08540875
150	0x3d60164d	0.054708768
151	0xbe497f19	-0.1967739
152	0x3edf3828	0.4359753
153	0xbe749633	-0.23885421
154	0xbeb49629	-0.35270813
155	0xbeb2d217	-0.3492591
156	0x3be4323a	0.0069639953
157	0x3e9b6d9c	0.30357063
158	0x3d666d0b	0.056256335
159	0xbdc132e7	-0.09433537
160	0xbdbf6474	-0.09345332
161	0x3dce7598	0.10081023
162	0x3ea84a08	0.3286898
163	0xbea44787	-0.3208582
164	0x3eb02268	0.3440125
165	0xbb352c49	-0.0027644804
166	0x3dc108cd	0.09425507
167	0xbe95b545	-0.2923986
168	0x3ea2a1f8	0.31764197
169	0xbeb9f84e	-0.36322254
170	0xbe9122dc	-0.28346908
171	0xbe70010e	-0.23437902
172	0xbc3db6a3	-0.0115791885
173	0x3dd0491a	0.10170193
174	0x3d4f32a7	0.050585415
175	0x3df8ea5d	0.12154076
176	0x3e3e4133	0.18579559
177	0xbe5f096c	-0.21780938
178	0xbc925b4d	-0.017865801
179	0x3e1f8784	0.15579039
180	0x3eb1f6ef	0.34758708
181	0xbde1b392	-0.110205784
182	0x3daeee33	0.08541527
183	0xbe0c4292	-0.1369727
184	0xbe0f65b6	-0.14003643
185	0x3dc4dbb5	0.09612218
186	0xbe691e43	-0.2276545
187	0x3e57fdb6	0.21092877
188	0x3e73d1bc	0.23810476
189	0xbe72bb37	-0.2370423
190	0x3e353146	0.17694578
191	0x3e59d1a1	0.21271373
192	0x3d87e04d	0.06634579
193	0xbe672632	-0.22573164
194	0x3e79f7d9	0.24410953
195	0xbe01696c	-0.12637872
196	0x3ebef37d	0.37295142
197	0xbe7e329c	-0.24823993
198	0x3e6b8148	0.22998536
199	0xbd864466	-0.06556015
200	0xbd4fb885	-0.05071308
201	0xbc9c6abe	-0.019093867
202	0xbe6bfc9b	-0.2304558
203	0x3c8b73b7	0.01702295
204	0xbdf42908	-0.119218886
205	0x3eae3860	0.34027386
206	0x3eab5dee	0.334701
207	0xbe4542f7	-0.19263826
208	0x3dffb948	0.124865115
209	0xbdd4a2da	-0.10382624
210	0xbc3252cc	-0.010883998
211	0xbca74475	-0.020418385
212	0x3f33ec30	0.7028227
213	0xbeb48f12	-0.35265404
214	0x3e4fbd8b	0.20287149
215	0x3d7cac6c	0.06168787
216	0x3d84feb5	0.06493894
217	0xbd2c5ce6	-0.042080782
218	0xbd16f110	-0.03685099
219	0xbd890643	-0.066906475
220	0xbe5ac213	-0.21363096
221	0x3e711d8d	0.23546429
222	0x3ed2cc89	0.41171673
223	0xbd86e62b	-0.0658687
224	0xbc876c8f	-0.016531257
225	0xbc2d72aa	-0.01058642
226	0xbcd6d111	-0.026222738
227	0xbe302b2d	-0.1720397
228	0x3e248a90	0.16068482
229	0xbe87a328	-0.26491666
230	0x3e960992	0.29304177
231	0xbe6056e8	-0.21908152
232	0x3e26ebfa	0.16300955
233	0x3ce8182f	0.028331844
234	0xbd919fcb	-0.07110556
235	0xbd1c3972	-0.03814072
236	0xbe84c9c6	-0.2593519
237	0xbdc8b6c0	-0.09800482
238	0x3e45aab4	0.193034
239	0xbe8ce52a	-0.27518588
240	0xbe9e9093	-0.30969676
241	0xbea4236c	-0.32058275
242	0x3d845bd1	0.06462825
243	0xbd714145	-0.058900137
244	0x3ea7b033	0.32751617
245	0x3c3df14f	0.011593177
246	0x3e651bd7	0.22373901
247	0xbe37f4d7	-0.17964493
248	0x3dcf4053	0.10119691
249	0xbe327ace	-0.17429659
250	0xbe8619a1	-0.26191428
251	0xbdd98168	-0.106203854
252	0xbe0fa49f	-0.14027642
253	0xbdb5bd88	-0.08874041
254	0x3e9a5c7d	0.30148688
255	0xbe695ce1	-0.22789337

weight_hh_l2 f4 [64, 16]
0	0xbe8294a4	-0.2550403
1	0x3e1cf92c	0.15329427
2	0x3d3893a2	0.04506267
3	0x3dfb5717	0.122724704
4	0xbcf3c27d	-0.029755825
5	0x3d905cbe	0.07048939
6	0x3d7b19d3	0.061303925
7	0x3d99ed57	0.07515972
8	0xbd66ba1f	-0.056329843
9	0xbe29d778	-0.16586101
10	0xbdcbc227	-0.09949141
11	0xbde748cc	-0.11293182
12	0xbe065439	-0.13118066
13	0x3c4ce333	0.01250534
14	0xbda2221d	-0.07916663
15	0xbe05bf66	-0.13061294
16	0xbe7887f8	-0.24270618
17	0xbd6881d8	-0.056764454
18	0x3e4f2f28	0.20232832
19	0x3ea39f83	0.31957635
20	0x3da6b511	0.081400044
21	0x3dc954de	0.0983064
22	0xbe258c25	-0.16166742
23	0x3e832b16	0.2561881
24	0x3e157af1	0.1459768
25	0x3e808849	0.25103977
26	0x3e8393d0	0.2569871
27	0x3d4253a2	0.04744304
28	0x3aa44d0c	0.0012535169
29	0x3db9484a	0.09046991
30	0xbe708d39	-0.23491372
31	0xbe51e66c	-0.20498055
32	0xbe916846	-0.28399867
33	0xbb0d3a08	-0.0021549482
34	0xbd76997e	-0.060204975
35	0x3dc8f8fa	0.098131135
36	0xbe55965a	-0.20858136
37	0xbe986e74	-0.2977177
38	0x3e93f114	0.28894866
39	0xbd3c8240	-0.046022654
40	0xbe394656	-0.18093237
41	0x3d51ec8f	0.05125099
42	0x3e19f973	0.15036564
43	0x3d303ac4	0.043024793
44	0x3e7916c3	0.24325089
45	0x3e95de06	0.29270953
46	0x3e1274a6	0.1430231
47	0xbe749ee1	-0.23888732
48	0xbe63ffaf	-0.22265504
49	0x3ea3bf6d	0.31981984
50	0x3e325a18	0.1741718
51	0x3e912c81	0.28354266
52	0xbe5e3dda	-0.21703282
53	0xbd8b0bfa	-0.06789394
54	0x3e2d0628	0.1689688
55	0xbd60b6e2	-0.05486191
56	0x3e0fe38e	0.14051649
57	0x3e159975	0.1460932
58	0xbc9a3372	-0.01882336
59	0xbde2689a	-0.110551074
60	0x3e97df58	0.29662585
61	0x3de16fdf	0.11007666
62	0xbcb536d1	-0.022120865
63	0xbe689f70	-0.2271707
64	0x3d9e6c92	0.07735552
65	0xbe30b53c	-0.17256635
66	0x3e80d5c7	0.251631
67	0x3d24a02d	0.040191818
68	0xbdc99eee	-0.098447666
69	0xbe79efeb	-0.24407928
70	0x3e3996f3	0.18123989
71	0x3e97a113	0.29615077
72	0x3e3bfb4b	0.1835758
73	0x3e6328b6	0.22183499
74	0xbdec2c74	-0.11531916
75	0xbe4531c5	-0.19257267
76	0x3bdb44c4	0.006691547
77	0xbe0a9fda	-0.13537541
78	0x3e4086d2	0.1880143
79	0xbcb97e9d	-0.022643382
80	0xbe966602	-0.293747
81	0xbde53b02	-0.111928955
82	0xbc972f51	-0.01845518
83	0x3e9829e1	0.2971945
84	0x3dab8ff3	0.083770655
85	0xbe550cab	-0.20805614
86	0x3e82f097	0.2557418
87	0x3e575221	0.21027423
88	0xbdcd3d06	-0.10021405
89	0x3e310950	0.17288709
90	0x3cf22120	0.02955681
91	0xbe45f73a	-0.1933259
92	0xbe1d987c	-0.153902
93	0xbd8182fa	-0.0632381
94	0xbe608564	-0.21925884
95	0xbd919b0f	-0.07109653
96	0x3dbdb1a0	0.09262395
97	0xbe1a6d80	-0.15080833
98	0x3ea71a7a	0.32637388
99	0x3e615136	0.22003636
100	0xbe7b49c2	-0.24539855
101	0xbe92e614	-0.2869116
102	0x3e133511	0.14375712
103	0x3ea55c34	0.32296908
104	0xbe9709c7	-0.29499647
105	0xbcf301e4	-0.029663987
106	0x3e1adfa3	0.15124373
107	0xbdd9f724	-0.106428415
108	0x3e8f499b	0.27985844
109	0x3e506a74	0.20353109
110	0x3d57f4dc	0.05272375
111	0xbe540567	-0.20705186
112	0xbd9a229c	-0.075261325
113	0xbe2c3421	-0.1681676
114	0xbc6c3875	-0.014417757
115	0x3da7736b	0.08176311
116	0x3e377e98	0.17919385
117	0x3b712f2a	0.0036801794
118	0x3d37f747	0.044913556
119	0x3e94f44c	0.29092634
120	0x3e321899	0.17392196
121	0xbdeb92f7	-0.11502641
122	0x3e8b6eb6	0.27232903
123	0xbd47ce85	-0.048780937
124	0x3e420c08	0.18949902
125	0x3e809367	0.2511246
126	0xbda898b8	-0.08232254
127	0x3d908e8b	0.07058438
128	0xbe33ed42	-0.17570975
129	0xbd4ffcee	-0.050778322
130	0x3e1e4208	0.15454876
131	0xbe181639	-0.14852227
132	0x3db4594a	0.08806093
133	0xbe345e44	-0.17614084
134	0x3bfb440a	0.007668023
135	0x3e829e3b	0.25511345
136	0xbe10175c	-0.14071411
137	0xbdb48aa6	-0.088155076
138	0xbe0f1916	-0.13974413
139	0x3dd011b4	0.101596266
140	0x3e2793e2	0.16365007
141	0x3e4ee1bf	0.20203303
142	0xbdb568f7	-0.08857911
143	0x3baecdc6	0.0053345887
144	0x3d97bfb0	0.07409608
145	0x3e0c1580	0.13680077
146	0xbc55e389	-0.013054737
147	0x3e59e007	0.21276866
148	0xbe37ce95	-0.17949899
149	0xbe6b6d60	-0.22990942
150	0xbdb0e589	-0.0863753
151	0xbe25bbae	-0.16184875
152	0xbc7de789	-0.015497097
153	0x3e8e1f03	0.27758035
154	0xbc80e223	-0.01573283
155	0x3d8f7e43	0.070065044
156	0x3e83af30	0.25719595
157	0x3e67e078	0.22644222
158	0xbd6ce253	-0.057833027
159	0x3e3745f3	0.17897777
160	0xbe8df2ce	-0.27724308
161	0xbc89b727	-0.016810967
162	0xbe05a5d7	-0.13051544
163	0x3e0bc360	0.13648748
164	0xbe8b9369	-0.27260903
165	0xbe9935a8	-0.2992375
166	0x3e048076	0.12939629
167	0x3e6424f6	0.22279724
168	0xbe2038d6	-0.15646681
169	0x3e855c9d	0.2604722
170	0xbdfb2bd8	-0.12264222
171	0x3da6707d	0.08126924
172	0x3e7fc8c7	0.24978934
173	0x3dc5ef1a	0.09664746
174	0xbe5557c6	-0.20834264
175	0x3d37885e	0.044807784
176	0x3e13b057	0.14422737
177	0xbdca53e0	-0.09879279
178	0x3e3fb7a0	0.18722391
179	0x3e3ddd90	0.1854155
180	0xbe069cf1	-0.13145806
181	0xbe6435c3	-0.22286133
182	0x3aaf1fa1	0.0013360867
183	0x3e3ccf97	0.18438564
184	0xbe2795d7	-0.16365753
185	0xbe75e33c	-0.24012464
186	0xbd8858c8	-0.06657559
187	0xbdc5026b	-0.09619602
188	0xbe585e20	-0.21129656
189	0x3e0a719a	0.13519898
190	0x3cae8f34	0.021308519
191	0x3e6b0472	0.22950915
192	0xbe884fd5	-0.26623407
193	0xbd29b367	-0.041430857
194	0x3e9b591d	0.30341426
195	0xbe254fd8	-0.16143739
196	0xbda8ce09	-0.08242423
197	0x3c9fbc95	0.019499103
198	0x3e350f9c	0.17681736
199	0x3e1808fa	0.14847174
200	0xbe7f9b6d	-0.24961634
201	0x3e9417f0	0.28924513
202	0x3d97c52b	0.07410654
203	0x3e481485	0.19539078
204	0xbe015942	-0.12631705
205	0xbd2e0e19	-0.042493913
206	0x3d36f867	0.04467049
207	0xbe85c067	-0.26123354
208	0xbe9a2ac8	-0.30110765
209	0x3e0039c5	0.12522037
210	0x3cd0ff83	0.025512462
211	0x3e7042f1	0.23463036
212	0x3d7e1b7e	0.062037937
213	0xbe662eda	-0.2247881
214	0x3ea71848	0.32635713
215	0x3dd7f891	0.10545457
216	0xbe4224cb	-0.18959348
217	0x3d9d207c	0.076722115
218	0xbe1a30ef	-0.15057729
219	0xbe26ff69	-0.16308369
220	0xbd0e43e1	-0.034732703
221	0x3e9646ea	0.29350978
222	0xbe66619f	-0.22498177
223	0xbd179d2d	-0.03701513
224	0xbe71b6bd	-0.23604865
225	0xbd6a7f65	-0.0572504
226	0x3d2739d3	0.04082663
227	0xbe25dc01	-0.16197206
228	0x3d062a02	0.032754906
229	0x3dd0a2fd	0.101873375
230	0x3e88b0c9	0.26697376
231	0xbcd24def	-0.025671927
232	0x3d966174	0.073428065
233	0x3d35ad0a	0.044354476
234	0x3ea4728b	0.3211864
235	0x3e4d3fe8	0.2004391
236	0x3e87faef	0.26558635
237	0x3de9eb5c	0.11421844
238	0xbe236d14	-0.15959579
239	0x3dca60ba	0.098817304
240	0xbd45c1ab	-0.0482804
241	0x3e8c408f	0.27393004
242	0xbd81ffd7	-0.06347626
243	0xbd5437c4	-0.051810995
244	0xbe708666	-0.23488769
245	0xbe721c16	-0.23643526
246	0xbc964f42	-0.01834834
247	0x3e5b3044	0.2140513
248	0xbe6f8a2d	-0.23392554
249	0x3e8303be	0.25588793
250	0x3e3de23a	0.1854333
251	0x3d2fd0b6	0.04292365
252	0x3e7ad317	0.24494587
253	0xbd63806b	-0.05554239
254	0x3e2ab2b0	0.16669726
255	0x3d2b1f3e	0.04177784

bias_ih_l2 f4 [64]
0	0xbd05cba3	-0.032664906
1	0xbcea3f79	-0.02859472
2	0xbdd1f911	-0.10252584
3	0xbc81c168	-0.015839294
4	0x3daa74cc	0.083230585
5	0x3e302fba	0.17205706
6	0x3e9552f8	0.29164863
7	0xbe03656c	-0.12831658
8	0x3dd9571f	0.1061232
9	0x3e4c1c90	0.1993277
10	0x3e43f4c9	0.19136347
11	0x3db1ad4f	0.08675634
12	0x3e7d0d93	0.2471221
13	0x3e6ab116	0.22919115
14	0x3e303dbf	0.17211054
15	0x3d564e78	0.052320927
16	0x3da4331f	0.08017563
17	0x3e4e99d1	0.20175864
18	0x3e8dd10b	0.2769855
19	0xbda7fb97	-0.08202284
20	0x3e5ae827	0.21377622
21	0x3e90eced	0.2830576
22	0xbdbc0eb9	-0.091824956
23	0x3cf28ff7	0.029609663
24	0x3e6b570c	0.22982424
25	0xbd29eeb5	-0.041487414
26	0x3e463cce	0.19359133
27	0xbc41af45	-0.011821573
28	0xbe1131c9	-0.14179148
29	0xbe282ce9	-0.16423382
30	0xbbafafcf	-0.005361534
31	0xbe2a386d	-0.16623087
32	0xbeac9fb7	-0.33715603
33	0x3ea419fd	0.32051077
34	0x3d9562d6	0.07294242
35	0xbd8cbe63	-0.06872251
36	0xbb972489	-0.0046125096
37	0xbdd042ed	-0.10169015
38	0x3ea30abd	0.3184413
39	0x3e7daffe	0.24774167
40	0xbe64dd18	-0.22349966
41	0x3e8cce72	0.27501255
42	0x3e959377	0.2921407
43	0x3e34fec2	0.17675307
44	0x3e67f373	0.22651462
45	0x3d82936f	0.06375777
46	0xbe20c937	-0.15701757
47	0xbe8fd7e6	-0.28094405
48	0x3e1a4177	0.15064035
49	0xbb77097b	-0.003769486
50	0xbe0ecc2b	-0.13945071
51	0xbd70dc0c	-0.058803603
52	0x3e3cf6fb	0.1845359
53	0x3c9c6261	0.01908988
54	0x3eb57501	0.3544083
55	0xbdfa3be1	-0.12218452
56	0x3e7d8373	0.24757175
57	0x3ea8e9b7	0.3299081
58	0x3df8a366	0.12140541
59	0x3e4ba7c8	0.19888222
60	0x3e266996	0.16251215
61	0x3e8f5f1a	0.28002244
62	0x3e514b0f	0.20438789
63	0xbd92180f	-0.07133495

bias_hh_l2 f4 [64]
0	0xbddd94b2	-0.10819377
1	0x3e2b9948	0.16757691
2	0x3e7115dd	0.23543496
3	0x3da0909d	0.07840083
4	0x3c14feb5	0.00909393
5	0x3ecf918a	0.40540725
6	0x3e1dadf0	0.15398383
7	0x3eb27aea	0.348594
8	0x3eaed5a1	0.3414736
9	0x3d74013d	0.059571493
10	0x3e74f995	0.23923333
11	0x3d96f008	0.07370001
12	0xbc27325e	-0.01020488
13	0x3e1fa9e8	0.15592158
14	0xbbe26d62	-0.006910012
15	0x3e031d75	0.12804206
16	0x3d952f04	0.07284358
17	0xbdfb5b3f	-0.12273263
18	0xbdf80f59	-0.12112302
19	0x3e52763c	0.20552915
20	0x3e8efaf1	0.27925828
21	0x3e7e13cb	0.24812238
22	0xbd0c027c	-0.034182057
23	0xbde16789	-0.11006076
24	0x3e6f708a	0.23382774
25	0xbe3c4993	-0.18387441
26	0xbc65ef04	-0.014034037
27	0xbe13c798	-0.14431608
28	0x3e103143	0.14081292
29	0x3e2a8bb7	0.1665486
30	0x3d9f61e5	0.07782344
31	0xbd3e6287	-0.04648068
32	0x3c9af1ec	0.018914185
33	0x3e289976	0.1646479
34	0x3d884c6e	0.06655203
35	0x3e95560f	0.2916722
36	0xbe84e4c5	-0.25955787
37	0xbdae0948	-0.08497864
38	0xbd4a8031	-0.04943866
39	0x3d53a5cf	0.0516718
40	0x3d30c1a8	0.043153435
41	0x3e9dbc23	0.308076
42	0x3e2562af	0.16150926
43	0xbce0e752	-0.027454052
44	0x3e272f41	0.1632662
45	0x3e201056	0.15631232
46	0xbe3c64a1	-0.18397762
47	0xbe98929c	-0.29799354
48	0x3e4cdfa1	0.20007183
49	0x3e473c5f	0.19456623
50	0x3cf68c2c	0.030096136
51	0x3e92c7be	0.28668016
52	0x3e18dcb1	0.14927937
53	0x3e7eee97	0.24895702
54	0xbd150621	-0.036382798
55	0x3e1e6aaf	0.15470384
56	0x3df67fd2	0.120360985
57	0xbb3db5b2	-0.002894741
58	0x3e1335c0	0.14375973
59	0xbd29d5c4	-0.04146363
60	0x3e877c17	0.2646186
61	0x3d9c47c5	0.076308765
62	0x3e382785	0.17983826
63	0x3e643b20	0.2228818
