model.pt (torch, 180068 bytes, 34 tensors)

weight_ih_l0 f4 [64, 112]
000000 b9 31 86 3b 99 bc 70 3b ca 7d 19 3b 4e 3c df bb
       0.004095283 0.0036733507 0.0023420923 -0.006812609
000010 7a 33 dc 3b ca 71 9e 3b 07 21 b0 3a 7b 7e ad 3a
       0.0067200037 0.004835342 0.0013437577 0.0013236547
000020 c3 c7 33 3a b2 63 8f 3b 57 f1 47 3c 0f 97 fe bb
       0.0006858075 0.0043758983 0.012203536 -0.0077694724
000030 28 47 30 3c 99 33 4b 3b be 99 85 3c dc a4 84 ba
       0.0107591525 0.0031006096 0.016308662 -0.0010119933
000040 84 17 d2 3a d8 14 08 3c f8 ce 02 3d 05 ed 98 3b
       0.0016028737 0.008305751 0.031935662 0.004666927
000050 1d e1 da 3b e7 b1 dd 3a b1 7d 23 bc ba e9 49 3c
       0.0066796676 0.0016913981 -0.009978698 0.012323791
000060 57 6f 1d bb fc de 6b 3b b4 0d 99 bc 11 ed e1 bb
       -0.0024022663 0.0035991063 -0.018683292 -0.0068947156
000070 c2 5a 3d 3c 93 65 b0 3c 15 a6 c9 3c 71 9a f5 3c
       0.011557283 0.02153281 0.024615327 0.02998087
000080 49 bf 5d 3a 5f cd df 3b c5 fc 39 3a 79 7c ca bb
       0.00084589847 0.006829902 0.00070948555 -0.006179389
000090 9b 08 26 3c 59 cd 28 3c 8e 3c 72 3b ed 22 bb 3b
       0.010133888 0.010302865 0.0036962363 0.0057109506
0000a0 04 cf d2 3b e6 05 70 3b aa 60 a5 3c fe 03 11 3a
       0.0064333696 0.003662461 0.020187695 0.0005531906
0000b0 3f 8a c8 3b ff 37 e8 ba 20 11 2b bc 65 db b4 3b
       0.006119996 -0.0017716883 -0.010441095 0.005519318
0000c0 aa 21 42 3c e9 a9 9e 3c 52 35 50 3c e2 51 16 3c
       0.011848846 0.019368129 0.012708025 0.009174796
0000d0 48 4d be 3a 6d 5b d2 3b 59 9c 14 3c be cb 21 3c
       0.0014518881 0.00641959 0.009070479 0.009875236
0000e0 18 ac fd 3b e6 44 bf bb 22 d2 c1 3b 58 d0 eb bb
       0.0077414624 -0.0058370708 0.0059149424 -0.0071964674
0000f0 78 a2 f4 3b f9 87 62 3c f9 d7 35 3c 48 d6 a0 3c
       0.007465657 0.013826364 0.011098855 0.019633427
000100 88 8a 08 bc 9b c1 97 3c a6 48 11 bb c5 8a 8d 39
       -0.00833381 0.018524935 -0.0022168546 0.00026997007
000110 c1 2e 12 3a 0d ff b9 39 85 4f d2 38 d8 03 2b 37
       0.0005576425 0.00035475977 0.00010028392 1.0193289e-05
000120 70 bb e1 bb 9b e8 ee 3b 41 76 9f bb 2a 77 98 bb
       -0.0068887994 0.0072909123 -0.004866392 -0.0046528773
000130 0c 7c cd 3a c3 53 70 bb af f2 89 bb 06 25 b5 bb
       0.0015677228 -0.003667102 -0.0042098383 -0.005528095
000140 be 52 aa bb 65 c1 0c bc 33 b4 81 3b f9 da bf 3a
       -0.005197852 -0.008591031 0.003958249 0.0014637402
000150 32 8f f4 3b b5 63 1d bc 09 6f 95 3c ed e0 fa 3a
       0.0074633593 -0.009606292 0.018241422 0.001914052
000160 58 0a 41 3c 87 df a3 3a 10 4a ac 38 04 69 3c 3b
       0.011782251 0.001250253 8.215394e-05 0.0028749118
000170 f2 4d d5 3a 5e fc d1 3b 58 b1 a1 38 94 b3 c0 3a
       0.001627384 0.0064082583 7.710111e-05 0.0014701956
000180 18 ed a0 ba 82 a2 b4 3b 80 0e 1f 35 e5 71 15 bc
       -0.0012277691 0.0055125365 5.9253216e-07 -0.009121393
000190 0e d6 95 ba 19 16 81 bb 52 f1 bc 3b 57 53 2f 3c
       -0.0011431591 -0.003939402 0.0057660723 0.010701022
0001a0 4f 7d 8c 3b 6c c7 e8 ba c9 1b 96 39 c4 3f be 3b
       0.004287399 -0.0017759628 0.0002863093 0.0058059413
0001b0 a8 1b eb bb a6 8d 01 3b b4 70 d1 bb da 38 e5 bb
       -0.0071749277 0.0019768267 -0.006391609 -0.0069953026
0001c0 b4 ae 88 3b 3e b8 2e 3b 55 5d dd 3a be bf 14 bc
       0.004171217 0.002666011 0.0016888777 -0.009078918
0001d0 60 e2 09 3c b5 77 a6 3b ed 74 2e 3a 60 bc 22 37
       0.008415788 0.005080188 0.00066549965 9.699812e-06
0001e0 43 d1 73 39 27 ba 95 3b 09 ed 73 3c 57 0b 4f bc
       0.00023252242 0.00456931 0.014888057 -0.012636981
0001f0 58 98 2b 3c c1 c3 41 3b 1a 21 9f 3c 58 13 60 bb
       0.010473333 0.0029566141 0.019424964 -0.0034191217
000200 b6 f1 c1 39 91 72 97 3b bf e5 14 3d eb 6f 6e 3b
       0.00036991917 0.0046218117 0.036351915 0.0036382626
000210 e4 72 cb 3b 71 c1 ed 3a 7f 1b 4e bc 3c 27 54 3c
       0.0062087644 0.0018139315 -0.012579798 0.012948807
000220 3a 0d b4 bb 8f e6 00 3a 57 9f c0 bc 64 c1 09 bc
       -0.005494741 0.00049171684 -0.02351348 -0.008407924
000230 cc 6f 44 3c 88 40 d7 3c ed ed 02 3d ad 56 19 3d
       0.011989545 0.026275888 0.031965185 0.037436176
000240 e1 c8 c9 ba f4 64 e0 3b b0 e1 f8 b9 13 0f ee bb
       -0.001539495 0.006847972 -0.00047470396 -0.0072649806
000250 c8 14 40 3c a1 ae 61 3c f0 ab 3b 3b d3 bd b4 3b
       0.011723705 0.013774545 0.0028636418 0.005515793
000260 27 d7 ab 3b 76 02 19 3b dd 7e bc 3c 89 18 1e 3a
       0.005244154 0.0023347414 0.023009712 0.00060308777
000270 6e d0 00 3c 2a 37 b3 bb 5d 93 3c bc 1d 64 c6 3b
       0.0078621935 -0.0054692226 -0.0115097435 0.006054415
000280 97 e0 5f 3c 84 65 c2 3c 7c c2 75 3c a0 0d 27 3c
       0.013664386 0.023730047 0.014999982 0.01019612
000290 35 ec f3 3a fc ce ff 3b 36 d2 23 3c 68 51 3a 3c
       0.0018609824 0.007806657 0.009998849 0.011371948
0002a0 3e 64 fd 3b 53 c5 f3 bb b0 10 ed 3b 1b a8 2f bc
       0.007732897 -0.0074392944 0.0072346553 -0.010721232
0002b0 c5 a8 1b 3c 91 5f 86 3c 65 04 65 3c bf de c6 3c
       0.009500687 0.016402991 0.0139780985 0.024276135
0002c0 65 d8 f1 bb 77 53 b5 3c 02 ee 70 bb 23 1c e8 ba
       -0.0073805326 0.022134526 -0.0036762957 -0.0017708581
0002d0 aa 7e 0e ba d6 13 6c ba 78 f0 f6 ba b5 40 d1 ba
       -0.00054357445 -0.00090056413 -0.0018839976 -0.0015964719
0002e0 1e b8 22 bc 0b 95 0f 3c 1c 6e ef bb f1 8f db bb
       -0.009931592 0.008763562 -0.007306827 -0.0067005088
0002f0 e7 82 c3 38 e1 9e b8 bb 18 02 f5 bb 31 05 22 bc
       9.322707e-05 -0.005634174 -0.0074770562 -0.009888933
000300 b2 93 10 bc de 76 5c bc d1 e4 bf 3b 24 1f c1 39
       -0.008824276 -0.0134560745 0.0058561345 0.0003683503
000310 5b 11 f6 3b 50 f0 44 bc fd c2 b9 3c 97 f8 d3 3a
       0.007509393 -0.012020186 0.022675985 0.0016172108
000320 a6 39 5a 3c 88 67 a9 b9 bf 9f 0e bb fa 85 03 3b
       0.0133194085 -0.0003231133 -0.0021762697 0.002006887
000330 9b c0 bf 3a d8 3a fc 3b 10 d2 4b b8 16 f9 2a 3b
       0.0014629544 0.0076974444 -4.8594608e-05 0.0026088408
000340 d0 92 26 bb 0a 2c 8b 3b 92 56 e3 ba 9b da 54 bc
       -0.0025417097 0.004247193 -0.0017344526 -0.012991573
000350 a0 1c ff ba 5c 22 e0 bb 8b 19 c5 3b 93 5f 45 3c
       -0.0019463487 -0.0068400335 0.006015008 0.012046712
000360 d2 71 83 3b 3a 65 1c bb cf 0d 63 39 4d 93 02 3c
       0.004011371 -0.0023864047 0.00021653551 0.00796969
000370 a1 65 2a bc 10 bc a4 3a 16 83 0f bc 53 57 31 bc
       -0.010400207 0.0012568254 -0.008759281 -0.010824042
000380 3c a5 88 3b c2 b3 2e 3b a6 11 de 3a 2d a8 14 bc
       0.004170088 0.0026657437 0.0016942516 -0.009073299
000390 dc b7 09 3c d5 3a a6 3b f2 c1 2d 3a 18 5b 2f 37
       0.008405652 0.0050729313 0.00066283264 1.0452022e-05
0003a0 db 87 72 39 7f a7 95 3b c6 8d 73 3c 15 b5 4e bc
       0.00023129529 0.004567086 0.014865344 -0.0126164155
0003b0 bf 8e 2b 3c 77 95 41 3b 5d 0e 9f 3c 0e ce 5f bb
       0.010471045 0.002953855 0.019416029 -0.0034149918
0003c0 aa 68 c3 39 0a eb 97 3b 46 d1 14 3d 8b 4a 6e 3b
       0.0003727128 0.004636173 0.03633239 0.003636035
0003d0 7b 64 cb 3b 89 43 ed 3a 6a f9 4d bc cf 14 54 3c
       0.0062070466 0.0018101792 -0.012571672 0.012944414
0003e0 4e cd b3 bb a1 8d 04 3a 74 91 c0 bc 0f d9 09 bc
       -0.0054871207 0.0005056505 -0.023506857 -0.008413567
0003f0 67 87 44 3c 4a 29 d7 3c c3 d2 02 3d 89 3d 19 3d
       0.011995173 0.026264805 0.03193928 0.0374122

weight_hh_l0 f4 [64, 16]
000000 71 bb 77 3c a4 b6 98 bc e6 97 98 bc 7b 94 98 bc
       0.015120373 -0.018641777 -0.018627118 -0.018625489
000010 8e 8d 98 bc 25 6a 77 bc 81 44 78 bc da 79 98 bc
       -0.018622186 -0.01510099 -0.015153051 -0.01861279
000020 4a 7e 98 bc 09 94 77 3c 4c 91 98 3c f8 bc 98 bc
       -0.018614907 0.015110978 0.01862397 -0.018644795
000030 6e 9b 98 3c 61 41 78 3c 58 eb 77 3c fe 80 98 bc
       0.018628802 0.015152306 0.015131794 -0.018616196
000040 42 e0 91 3c 22 45 b5 bc 0a 20 b5 bc f4 19 b5 bc
       0.01780713 -0.022127692 -0.022110004 -0.022107102
000050 13 11 b5 bc 74 ad 91 bc 0d 38 92 bc 1c f9 b4 bc
       -0.022102868 -0.017782904 -0.017848993 -0.02209144
000060 f9 00 b5 bc 1a c6 91 3c 96 15 b5 3c f6 4b b5 bc
       -0.02209519 0.017794657 0.02210502 -0.022130948
000070 0a 20 b5 3c 8f 26 92 3c e6 fa 91 3c 76 02 b5 bc
       0.022110004 0.017840652 0.017819833 -0.0220959
000080 c1 cd 91 3c 96 31 b5 bc f0 0c b5 bc f8 05 b5 bc
       0.017798306 -0.022118371 -0.022100896 -0.022097573
000090 f8 fc b4 bc e9 9e 91 bc bc 1e 92 bc 27 e6 b4 bc
       -0.022093281 -0.01777597 -0.01783692 -0.022082401
0000a0 cb eb b4 bc cf c4 91 3c d2 03 b5 3c 5f 39 b5 bc
       -0.022085091 0.017794041 0.022096548 -0.022122083
0000b0 f8 0d b5 3c e6 16 92 3c 66 f0 91 3c 67 ec b4 bc
       0.022101387 0.017833184 0.017814826 -0.022085382
0000c0 2f d9 91 3c 37 30 b5 bc 04 07 b5 bc bd 04 b5 bc
       0.017803757 -0.022117717 -0.022098072 -0.022096986
0000d0 bc f9 b4 bc 87 9c 91 bc e0 1a 92 bc 31 e3 b4 bc
       -0.022091739 -0.017774833 -0.01783508 -0.02208099
0000e0 d9 e6 b4 bc b5 bc 91 3c 45 fe b4 3c a0 34 b5 bc
       -0.022082733 0.017790178 0.022093901 -0.02211982
0000f0 3a 0a b5 3c 5d 14 92 3c 17 e9 91 3c c0 eb b4 bc
       0.022099603 0.017831976 0.017811341 -0.02208507
000100 46 cd 91 3c 9c 2a b5 bc f0 03 b5 bc ef ff b4 bc
       0.017798077 -0.022115044 -0.022096604 -0.022094695
000110 5e f7 b4 bc 3f 99 91 bc 3d 1e 92 bc ab df b4 bc
       -0.02209061 -0.017773269 -0.017836684 -0.02207931
000120 cd e3 b4 bc 03 b3 91 3c 7d fb b4 3c e8 33 b5 bc
       -0.02208128 0.017785555 0.022092575 -0.022119477
000130 a8 05 b5 3c fc 15 92 3c 15 e7 91 3c 3e e6 b4 bc
       0.022097424 0.017832749 0.017810384 -0.022082444
000140 b5 63 77 3c dd 7c 98 bc 06 5e 98 bc 98 5a 98 bc
       0.015099456 -0.018614227 -0.018599521 -0.018597886
000150 0d 55 98 bc 7e 11 77 bc 50 ec 77 bc e6 3f 98 bc
       -0.018595243 -0.015079854 -0.015132025 -0.018585157
000160 6d 44 98 bc d1 3c 77 3c 9f 58 98 3c 1b 82 98 bc
       -0.018587315 0.015090183 0.018596945 -0.018616727
000170 a1 5f 98 3c c7 e8 77 3c af 93 77 3c 71 47 98 bc
       0.018600287 0.015131182 0.015110894 -0.018588753
000180 d8 3c 78 3c 79 0d 99 bc c4 ee 98 bc 02 eb 98 bc
       0.015151225 -0.018683182 -0.01866854 -0.018666748
000190 b2 e5 98 bc 05 eb 77 bc 4e c8 78 bc 50 d0 98 bc
       -0.018664215 -0.015131717 -0.015184475 -0.018654019
0001a0 ae d4 98 bc 0b 15 78 3c 71 e7 98 3c cf 13 99 bc
       -0.018656101 0.015141736 0.018665047 -0.018686203
0001b0 22 f0 98 3c 52 c1 78 3c 31 6d 78 3c 56 d7 98 bc
       0.018669192 0.01518281 0.015162752 -0.018657368
0001c0 5b c3 91 3c 56 1a b5 bc 63 f4 b4 bc 43 ef b4 bc
       0.017793348 -0.022107285 -0.022089189 -0.022086745
0001d0 3d ea b4 bc 08 96 91 bc e7 09 92 bc 07 cf b4 bc
       -0.02208435 -0.017771736 -0.017826987 -0.022071375
0001e0 4a d7 b4 bc d7 a6 91 3c d8 ea b4 3c 58 21 b5 bc
       -0.022075314 0.01777975 0.022084638 -0.022110626
0001f0 9a f5 b4 3c 1d 06 92 3c 90 db 91 3c e7 d5 b4 bc
       0.022089768 0.01782518 0.01780489 -0.022074653
000200 3d c4 91 3c 0a 20 b5 bc 51 fb b4 bc 24 f7 b4 bc
       0.017793769 -0.022110004 -0.022092493 -0.022090502
000210 99 ef b4 bc 23 90 91 bc 5b 15 92 bc 72 d3 b4 bc
       -0.022086905 -0.017768925 -0.017832449 -0.022073481
000220 9e d9 b4 bc 7c aa 91 3c 89 f1 b4 3c cf 26 b5 bc
       -0.022076424 0.017781489 0.02208783 -0.022113232
000230 8f fb b4 3c 9c 09 92 3c 84 de 91 3c 98 db b4 bc
       0.022092609 0.017826848 0.017806299 -0.022077367
000240 2c 8c 77 3c ed 97 98 bc ef 78 98 bc 7a 75 98 bc
       0.015109103 -0.018627131 -0.018612353 -0.018610705
000250 e0 6e 98 bc 63 39 77 bc 91 14 78 bc 43 5b 98 bc
       -0.018607557 -0.015089366 -0.015141622 -0.018598204
000260 db 5f 98 bc 1a 65 77 3c 20 72 98 3c 26 9d 98 bc
       -0.018600395 0.015099788 0.018609107 -0.018629622
000270 8f 7a 98 3c e1 10 78 3c 8a bb 77 3c a8 61 98 bc
       0.018613128 0.015140743 0.015120396 -0.018601254
000280 86 cc 91 3c 5e 2a b5 bc 9c 02 b5 bc b5 00 b5 bc
       0.01779772 -0.022114929 -0.02209597 -0.022095064
000290 1a f5 b4 bc ab a0 91 bc 69 18 92 bc 89 dc b4 bc
       -0.02208953 -0.017776808 -0.017833905 -0.022077816
0002a0 20 e3 b4 bc 11 af 91 3c 7a fa b4 3c 2a 30 b5 bc
       -0.022080958 0.017783673 0.022092093 -0.022117693
0002b0 1c 04 b5 3c c9 0e 92 3c 18 e7 91 3c e2 e4 b4 bc
       0.022096686 0.017829316 0.01781039 -0.022081796
0002c0 35 e0 91 3c a3 48 b5 bc f0 21 b5 bc 4b 1d b5 bc
       0.017807106 -0.022129362 -0.02211091 -0.022108695
0002d0 8e 15 b5 bc 6a b3 91 bc c1 3a 92 bc a3 fb b4 bc
       -0.022105005 -0.017785747 -0.017850282 -0.022092646
0002e0 d1 02 b5 bc 6b cb 91 3c fd 18 b5 3c 7a 4f b5 bc
       -0.02209607 0.017797193 0.022106642 -0.022132624
0002f0 f2 23 b5 3c 92 28 92 3c b9 fd 91 3c fa 03 b5 bc
       0.022111867 0.017841611 0.01782118 -0.022096623
000300 d3 c5 91 3c 5d 2d b5 bc cc 07 b5 bc 12 02 b5 bc
       0.017794525 -0.022116357 -0.022098444 -0.022095714
000310 d8 f5 b4 bc 02 9e 91 bc 3f 22 92 bc 5a dd b4 bc
       -0.022089884 -0.01777554 -0.017838595 -0.022078205
000320 84 e7 b4 bc ff ae 91 3c 89 fa b4 3c 0a 31 b5 bc
       -0.022083052 0.01778364 0.02209212 -0.02211811
000330 0a 05 b5 3c 46 1a 92 3c 79 e3 91 3c ab e6 b4 bc
       0.02209713 0.017834794 0.017808663 -0.022082647
000340 41 2f 78 3c 1c 06 99 bc 30 e6 98 bc f4 e2 98 bc
       0.015147985 -0.018679671 -0.01866445 -0.018662907
000350 11 dd 98 bc 4a dc 77 bc 3e b9 78 bc e3 c7 98 bc
       -0.0186601 -0.015128205 -0.015180884 -0.01865
000360 6f cc 98 bc 43 07 78 3c bc df 98 3c c3 0b 99 bc
       -0.018652169 0.01513845 0.018661372 -0.018682366
000370 aa e7 98 3c 78 b2 78 3c 97 5e 78 3c a4 cf 98 bc
       0.018665154 0.015179269 0.015159271 -0.018653698
000380 ff e1 77 3c 6c d0 98 bc 99 b1 98 bc 33 ae 98 bc
       0.015129565 -0.01865407 -0.018639373 -0.018637752
000390 09 a7 98 bc ae 8e 77 bc 9e 6a 78 bc 5b 94 98 bc
       -0.018634336 -0.015109701 -0.015162138 -0.018625429
0003a0 13 98 98 bc ca b9 77 3c d2 aa 98 3c 40 d6 98 bc
       -0.018627202 0.015119979 0.018636141 -0.01865685
0003b0 75 b5 98 3c ea 65 78 3c 23 11 78 3c 16 9a 98 bc
       0.018641213 0.015161017 0.015140804 -0.018628161
0003c0 de bd 91 3c 5e 20 b5 bc ae f9 b4 bc 24 f3 b4 bc
       0.017790731 -0.02211016 -0.022091713 -0.022088595
0003d0 bc e9 b4 bc 38 90 91 bc 6a 11 92 bc f6 d3 b4 bc
       -0.02208411 -0.017768964 -0.01783057 -0.022073727
0003e0 f3 d6 b4 bc 84 ac 91 3c f3 ef b4 3c cd 24 b5 bc
       -0.022075152 0.017782457 0.022087073 -0.022112275
0003f0 ea f8 b4 3c 76 0a 92 3c dc e1 91 3c 75 dc b4 bc
       0.022091348 0.017827254 0.017807893 -0.022077778

bias_ih_l0 f4 [64]
000000 27 96 2f 3d ba cd 5c 3d 44 a0 5c 3d af 9b 5c 3d
       0.042867806 0.053907134 0.05386378 0.05385941
000010 a3 8e 5c 3d f6 48 2f 3d 1c 12 30 3d 08 76 5c 3d
       0.053846966 0.04279419 0.04298602 0.0538235
000020 1f 7a 5c 3d 10 70 2f 3d d5 95 5c 3d d6 d5 5c 3d
       0.0538274 0.04283148 0.05385383 0.053914867
000030 63 9f 5c 3d 7b 0d 30 3d 4a bd 2f 3d ad 7f 5c 3d
       0.05386294 0.042981606 0.04290513 0.0538327
000040 fe c2 35 3d 27 47 78 3d b8 00 78 3d 84 f7 77 3d
       0.044375412 0.06061473 0.06054756 0.060538784
000050 93 e6 77 3d e3 61 35 3d 19 69 36 3d e0 bd 77 3d
       0.060522627 0.044282805 0.044533823 0.060483813
000060 a0 c7 77 3d 21 90 35 3d f9 f1 77 3d e6 53 78 3d
       0.06049311 0.044326905 0.060533497 0.060626887
000070 85 06 78 3d 6d 5d 36 3d f0 01 36 3d 8e cc 77 3d
       0.060553093 0.04452269 0.04443544 0.060497813
000080 1f e5 ca 3d 91 c1 f0 bd 2a 96 f0 bd 4d 91 f0 bd
       0.09906983 -0.1175567 -0.117473915 -0.11746464
000090 60 87 f0 bd 9d b0 ca bd 7a 34 cb bd a4 6d f0 bd
       -0.11744571 -0.098969676 -0.099221185 -0.11739662
0000a0 74 73 f0 bd 61 cb ca 3d e9 93 f0 3d cd c9 f0 bd
       -0.11740771 0.09902073 0.117469616 -0.117572404
0000b0 36 98 f0 3d 05 2e cb 3d bd 00 cb 3d af 75 f0 bd
       0.11747782 0.09920887 0.0991225 -0.11741196
0000c0 f1 f1 90 3d a6 58 bb 3d 93 26 bb 3d 4a 21 bb 3d
       0.07077397 0.09147768 0.09138217 0.09137209
0000d0 35 17 bb 3d 96 b3 90 3d 02 52 91 3d 23 f9 ba 3d
       0.09135286 0.07065503 0.0709572 0.0912955
0000e0 64 ff ba 3d 52 d2 90 3d 1a 1d bb 3d 87 60 bb 3d
       0.09130743 0.070713654 0.0913641 0.091492705
0000f0 54 2b bb 3d b3 52 91 3d 37 15 91 3d af 03 bb 3d
       0.091391236 0.07095852 0.070841245 0.09131562

bias_hh_l0 f4 [64]
000000 89 8f 2f 3d 90 ca 5c 3d 16 a2 5c 3d a8 9b 5c 3d
       0.042861495 0.053904116 0.053865515 0.053859383
000010 82 92 5c 3d d1 49 2f 3d b8 0d 30 3d 57 75 5c 3d
       0.05385066 0.042795006 0.042981833 0.05382284
000020 75 7c 5c 3d 69 6e 2f 3d 50 94 5c 3d 4e d6 5c 3d
       0.05382963 0.042829905 0.05385238 0.053915314
000030 41 a3 5c 3d fd 0b 30 3d c8 bf 2f 3d 3d 7f 5c 3d
       0.05386663 0.042980183 0.042907506 0.05383228
000040 a3 c4 35 3d d6 48 78 3d 97 ff 77 3d 43 f5 77 3d
       0.04437698 0.060616337 0.060546484 0.060536634
000050 60 e7 77 3d b0 5f 35 3d ce 68 36 3d 51 be 77 3d
       0.06052339 0.044280708 0.044533543 0.060484234
000060 e2 c6 77 3d 61 93 35 3d aa ef 77 3d ca 52 78 3d
       0.060492404 0.044330005 0.060531296 0.06062583
000070 24 02 78 3d 48 61 36 3d b4 fd 35 3d 1a cb 77 3d
       0.060548916 0.04452637 0.044431403 0.060496427
000080 14 e5 ca 3d 7a bf f0 bd 7a 96 f0 bd 5f 91 f0 bd
       0.099069744 -0.11755271 -0.11747451 -0.11746477
000090 e6 86 f0 bd 9f b0 ca bd 83 34 cb bd 59 6b f0 bd
       -0.1174448 -0.09896969 -0.09922125 -0.11739225
0000a0 69 73 f0 bd 7e cb ca 3d 56 8d f0 3d 1a ca f0 bd
       -0.11740763 0.09902094 0.11745708 -0.11757298
0000b0 4d 99 f0 3d 04 2e cb 3d 8c 00 cb 3d f2 76 f0 bd
       0.1174799 0.09920886 0.09912214 -0.11741437
0000c0 04 ef 90 3d a4 58 bb 3d 9b 26 bb 3d 4e 21 bb 3d
       0.070768386 0.09147766 0.09138223 0.09137212
0000d0 17 17 bb 3d 98 b3 90 3d 2e 54 91 3d 8b f9 ba 3d
       0.091352634 0.07065505 0.07096134 0.09129628
0000e0 54 ff ba 3d 4d d3 90 3d 65 1d bb 3d 81 60 bb 3d
       0.09130731 0.070715524 0.09136466 0.09149266
0000f0 4f 2b bb 3d d5 52 91 3d b0 17 91 3d 8c 02 bb 3d
       0.0913912 0.07095877 0.07084596 0.09131345

weight_ih_l1 f4 [64, 16]
000000 10 61 16 3d 95 44 2e bd b3 63 2e bd 8e 5f 2e bd
       0.03671366 -0.042545874 -0.04257555 -0.042571597
000010 3f 60 2e bd 7f 4c 16 bd 07 cd 16 bd 44 4e 2e bd
       -0.042572256 -0.036694046 -0.036816623 -0.04255511
000020 cb 56 2e bd 1c 70 16 3d ab 33 2e 3d 7b 5e 2e bd
       -0.04256324 0.03672801 0.042529743 -0.042570572
000030 fa 28 2e 3d 77 ed 16 3d 96 86 16 3d ff 30 2e bd
       0.042519547 0.036847558 0.036749445 -0.042527195
000040 5d 12 1c 3d 09 6b 33 bd 5f 4f 33 bd 77 58 33 bd
       0.03810345 -0.04380325 -0.043776866 -0.04378554
000050 f4 30 33 bd 28 d4 1b bd d7 7a 1c bd eb 47 33 bd
       -0.043747857 -0.038044125 -0.038203087 -0.04376976
000060 c0 36 33 bd 6b ef 1b 3d c6 30 33 3d 30 41 33 bd
       -0.043753386 0.038070124 0.043747686 -0.04376334
000070 84 48 33 3d 57 8e 1c 3d 6b 1f 1c 3d 3d 51 33 bd
       0.04377033 0.038221683 0.0381159 -0.043778647
000080 20 ad 1e 3d 2d 46 35 bd 41 60 35 bd ec 63 35 bd
       0.038739324 -0.044256378 -0.044281248 -0.044284746
000090 ea 60 35 bd 7c 72 1e bd 13 0f 1f bd ca 57 35 bd
       -0.044281878 -0.0386834 -0.038832735 -0.044273175
0000a0 61 3c 35 bd 44 95 1e 3d 93 4f 35 3d 68 6c 35 bd
       -0.044247035 0.03871657 0.04426534 -0.044292837
0000b0 41 43 35 3d c2 08 1f 3d 4c 9b 1e 3d ba 32 35 bd
       0.04425359 0.03882671 0.03872232 -0.04423783
0000c0 83 f5 0f 3d 16 56 21 bd 4f 3b 21 bd f4 37 21 bd
       0.035146248 -0.03938874 -0.0393632 -0.03936
0000d0 b9 43 21 bd 26 c3 0f bd 96 3b 10 bd 1c 35 21 bd
       -0.039371226 -0.035098217 -0.035213076 -0.03935729
0000e0 0b 3c 21 bd 39 c6 0f 3d 2d 1f 21 3d e0 54 21 bd
       -0.039363902 0.03510115 0.039336372 -0.039387584
0000f0 ca 43 21 3d 76 45 10 3d be d5 0f 3d 80 3c 21 bd
       0.03937129 0.035222493 0.03511595 -0.039364338
000100 c9 96 1f 3d 4d 2f 34 bd b5 25 34 bd 9d 11 34 bd
       0.03896216 -0.043990422 -0.043981273 -0.04396211
000110 0d 13 34 bd d7 3c 1f bd 44 ee 1f bd c2 09 34 bd
       -0.04396348 -0.03887638 -0.039045587 -0.04395462
000120 d9 07 34 bd 3f 7a 1f 3d e9 01 34 3d 35 e2 33 bd
       -0.043952797 0.038934942 0.043947134 -0.0439169
000130 3e 18 34 3d c6 11 20 3d 42 9b 1f 3d 99 19 34 bd
       0.04396843 0.03907945 0.038966425 -0.043969724
000140 69 92 15 3d 98 f9 2b bd 53 2b 2c bd f9 21 2c bd
       0.03651658 -0.041986078 -0.042033505 -0.042024586
000150 f8 1c 2c bd 66 b6 15 bd 0a 24 16 bd bf 12 2c bd
       -0.042019814 -0.0365509 -0.036655463 -0.042010065
000160 6d 15 2c bd 08 90 15 3d c0 1c 2c 3d f8 21 2c bd
       -0.04201262 0.036514312 0.042019606 -0.042024583
000170 f6 22 2c 3d eb 4f 16 3d 9d dd 15 3d c9 15 2c bd
       0.04202553 0.03669731 0.0365883 -0.042012963
000180 34 ec 1b 3d 75 9d 2f bd d5 c7 2f bd 28 f2 2f bd
       0.038067058 -0.042874772 -0.042915184 -0.042955548
000190 40 d9 2f bd 9b f8 1b bd 68 ce 1c bd a6 ca 2f bd
       -0.042931795 -0.038078886 -0.03828278 -0.04291787
0001a0 ae c8 2f bd f0 12 1c 3d 27 cc 2f 3d 46 bb 2f bd
       -0.042915992 0.038103998 0.042919304 -0.042903207
0001b0 e3 ab 2f 3d 42 bc 1c 3d e2 0c 1c 3d ef a6 2f bd
       0.042888533 0.038265474 0.038098224 -0.04288381
0001c0 50 f9 1d 3d e6 85 34 bd 83 71 34 bd df 18 34 bd
       0.03856784 -0.044073008 -0.044053566 -0.04396903
0001d0 3e 81 34 bd 41 ce 1d bd 82 79 1e bd a8 3e 34 bd
       -0.044068567 -0.038526777 -0.038690098 -0.044005066
0001e0 bd 29 34 bd 89 e4 1d 3d 93 5e 34 3d f6 6c 34 bd
       -0.043985117 0.038548026 0.044035506 -0.044049226
0001f0 98 65 34 3d 86 43 1e 3d f5 ed 1d 3d d8 70 34 bd
       0.0440422 0.038638614 0.03855701 -0.04405293
000200 b2 c1 1d 3d fa e4 33 bd 5d ef 33 bd 2a c6 33 bd
       0.0385148 -0.04391954 -0.043929446 -0.043890156
000210 44 f3 33 bd 16 84 1d bd 44 2a 1e bd 76 d5 33 bd
       -0.043933168 -0.038456045 -0.038614526 -0.043904744
000220 f0 e6 33 bd a1 9a 1d 3d 9b cd 33 3d f9 e8 33 bd
       -0.04392141 0.038477544 0.043897253 -0.043923352
000230 49 ce 33 3d de 33 1e 3d 16 b4 1d 3d 44 b0 33 bd
       0.0438979 0.038623683 0.03850182 -0.043869272
000240 bf 4e 10 3d 29 5b 1f bd 3f 51 1f bd 8b 4a 1f bd
       0.035231348 -0.038905296 -0.03889584 -0.03888945
000250 ea 16 1f bd a5 19 10 bd f1 69 10 bd 49 45 1f bd
       -0.038840212 -0.035180707 -0.035257284 -0.038884435
000260 f7 28 1f bd 2c 11 10 3d f1 32 1f 3d df 21 1f bd
       -0.038857426 0.035172626 0.03886694 -0.03885066
000270 d3 46 1f 3d 7f 7b 10 3d 9b 39 10 3d a7 25 1f bd
       0.038885903 0.035274025 0.035211187 -0.038854267
000280 5f 0a 1a 3d 5e 3f 31 bd a5 3a 31 bd 85 1f 31 bd
       0.037607547 -0.043273322 -0.04326882 -0.04324295
000290 0f 35 31 bd b0 e6 19 bd 60 5c 1a bd 14 22 31 bd
       -0.04326349 -0.037573516 -0.037685752 -0.04324539
0002a0 21 2c 31 bd e5 de 19 3d 61 23 31 3d f0 48 31 bd
       -0.043254975 0.037566084 0.04324663 -0.04328245
0002b0 7a 31 31 3d 02 77 1a 3d b2 1a 1a 3d 0b 1c 31 bd
       0.043260075 0.03771115 0.037623115 -0.043239634
0002c0 95 2d 19 3d c1 c0 32 bd be da 32 bd c8 dd 32 bd
       0.037396986 -0.043640856 -0.04366564 -0.04366854
0002d0 5a cc 32 bd 83 40 19 bd d2 ec 19 bd f5 b2 32 bd
       -0.043651916 -0.03741504 -0.037579365 -0.043627698
0002e0 18 a0 32 bd a0 43 19 3d c0 a9 32 3d b9 af 32 bd
       -0.04360971 0.037418008 0.043618917 -0.043624613
0002f0 db a6 32 3d 03 d5 19 3d e7 6d 19 3d 75 c8 32 bd
       0.043616157 0.03755666 0.037458327 -0.043648202
000300 78 ab 22 3d a3 88 3b bd eb 6b 3b bd c6 8d 3b bd
       0.039714307 -0.045784604 -0.045757215 -0.045789503
000310 20 5a 3b bd 4c 78 22 bd 24 31 23 bd dd 7d 3b bd
       -0.045740247 -0.039665505 -0.039841786 -0.04577433
000320 23 76 3b bd 14 a4 22 3d a5 5a 3b 3d db 73 3b bd
       -0.04576696 0.03970726 0.045740742 -0.045764785
000330 25 4b 3b 3d d0 3a 23 3d e2 c5 22 3d e3 68 3b bd
       0.04572596 0.03985101 0.039739497 -0.045754325
000340 ea 17 13 3d f1 66 28 bd 23 67 28 bd 77 64 28 bd
       0.035911478 -0.041113798 -0.041113984 -0.041111436
000350 29 52 28 bd 19 0c 13 bd c5 b0 13 bd dc 4f 28 bd
       -0.04109398 -0.03590021 -0.036057252 -0.041091785
000360 4e 5e 28 bd f0 33 13 3d fb 0b 28 3d 14 63 28 bd
       -0.04110556 0.035938203 0.04102705 -0.041110113
000370 71 4d 28 3d 80 b8 13 3d ac 46 13 3d 47 4f 28 bd
       0.04108948 0.036064625 0.03595607 -0.04109123
000380 0b 12 23 3d e1 65 3a bd 0d 56 3a bd ec 3d 3a bd
       0.03981213 -0.045507316 -0.04549222 -0.04546921
000390 39 4f 3a bd 7f e0 22 bd 44 88 23 bd d1 41 3a bd
       -0.04548571 -0.039764877 -0.039924875 -0.045472924
0003a0 bd 41 3a bd 80 ea 22 3d 9e 1c 3a 3d 33 61 3a bd
       -0.04547285 0.039774418 0.045437448 -0.045502853
0003b0 85 37 3a 3d 53 8b 23 3d 6d 20 23 3d d6 24 3a bd
       0.045463104 0.03992779 0.039825846 -0.045445286
0003c0 52 63 12 3d 32 e4 29 bd 44 c5 29 bd a7 c5 29 bd
       0.03573925 -0.04147739 -0.041447893 -0.04144826
0003d0 50 c9 29 bd d4 24 12 bd 80 ac 12 bd e8 bc 29 bd
       -0.041451752 -0.035679653 -0.03580904 -0.04143992
0003e0 e1 c0 29 bd f6 4b 12 3d fc bb 29 3d 72 dd 29 bd
       -0.04144371 0.035716973 0.04143904 -0.041470952
0003f0 cb ad 29 3d ef c1 12 3d 0d 54 12 3d 66 c2 29 bd
       0.041425508 0.03582948 0.03572469 -0.04144516

weight_hh_l1 f4 [64, 16]
000000 e4 18 4f bd fa 4f 4e bd ca 86 4e bd 6a ec 4d 3d
       -0.050560847 -0.05036924 -0.050421514 0.05027429
000010 7c 41 4f bd 5a 81 4e bd de 29 4f 3d ef 5d 4f bd
       -0.05059956 -0.050416328 0.050577037 -0.05062669
000020 f8 40 4f bd 97 c1 4e 3d d8 aa 4e bd 26 29 4f 3d
       -0.05059907 0.05047759 -0.050455898 0.05057635
000030 db 3f 4f bd aa 37 4e 3d f4 e6 4e 3d ad 4d 4f bd
       -0.050598007 0.050346054 0.050513223 -0.050611187
000040 6d ed 3c bd be 06 3c bd 6c 4b 3c bd a4 a2 3b 3d
       -0.046124864 -0.045904867 -0.045970365 0.045809403
000050 84 e2 3c bd 1e 11 3c bd fa bd 3c 3d 4b d4 3c bd
       -0.04611446 -0.04591476 0.046079613 -0.046100896
000060 1c 0d 3d bd 29 f9 3b 3d 4e 10 3c bd 1d df 3c 3d
       -0.04615508 0.045891915 -0.045913987 0.046111215
000070 d5 f6 3c bd b7 89 3b 3d 7e d7 3c 3d 0c 4b 3d bd
       -0.046133835 0.045785632 0.046103947 -0.04621415
000080 4b 63 44 bd 3d 9b 43 bd a0 8c 43 bd 72 14 43 3d
       -0.047946256 -0.04775547 -0.047741532 0.04762692
000090 ed 28 44 bd ef 9a 43 bd ee 2d 44 3d 8c 2a 44 bd
       -0.047890592 -0.047755178 0.047895364 -0.04789214
0000a0 7e 63 44 bd 2e 6c 43 3d b5 94 43 bd bb 59 44 3d
       -0.047946446 0.04771059 -0.04774924 0.047937136
0000b0 9b 3f 44 bd 7e 10 43 3d 59 20 44 3d b3 99 44 bd
       -0.04791222 0.04762315 0.04788241 -0.04799814
0000c0 ec db 2e bd 33 4f 2e bd 57 44 2e bd 82 2a 2d 3d
       -0.042690203 -0.042556 -0.042545643 0.042276867
0000d0 ff da 2e bd 53 27 2e bd b5 95 2e 3d 8b bf 2e bd
       -0.04268932 -0.04251797 0.04262324 -0.04266314
0000e0 44 f4 2e bd 2a 42 2e 3d 49 fc 2d bd 8d ce 2e 3d
       -0.04271342 0.042543568 -0.042476926 0.04267745
0000f0 5d be 2e bd f1 23 2d 3d 23 a9 2e 3d 02 43 2f bd
       -0.042662013 0.042270605 0.04264177 -0.042788513
000100 77 45 3f bd ea 9b 3e bd 18 81 3e bd 07 f1 3d 3d
       -0.046697106 -0.04653541 -0.046509832 0.04637244
000110 6c d0 3e bd 32 59 3e bd d4 e0 3e 3d 07 f3 3e bd
       -0.046585485 -0.046471782 0.04660113 -0.046618488
000120 56 51 3f bd b7 37 3e 3d a9 61 3e bd 7b 2d 3f 3d
       -0.046708427 0.046439853 -0.046479855 0.046674233
000130 7c 08 3f bd 89 9c 3d 3d 60 ea 3e 3d 86 7c 3f bd
       -0.04663895 0.04629186 0.046610236 -0.046749614
000140 13 c3 47 bd 9c e1 46 bd a3 f8 46 bd 4b 78 46 3d
       -0.04877002 -0.048555 -0.048576962 0.048454564
000150 05 9a 47 bd 0c a1 46 bd d7 85 47 3d c0 8a 47 bd
       -0.04873087 -0.04849343 0.048711624 -0.048716307
000160 99 b7 47 bd f4 f6 46 3d fc f5 46 bd 60 99 47 3d
       -0.048759077 0.048575357 -0.048574433 0.048730254
000170 5a a2 47 bd 09 5e 46 3d b2 71 47 3d 9e dc 47 bd
       -0.048738815 0.048429523 0.048692413 -0.04879438
000180 8f 28 40 bd 4b 89 3f bd c3 7b 3f bd 1f 0b 3f 3d
       -0.04691368 -0.046761792 -0.046748888 0.046641465
000190 44 23 40 bd fa 48 3f bd 73 ac 3f 3d 5a eb 3f bd
       -0.046908632 -0.046700455 0.04679532 -0.046855308
0001a0 80 63 40 bd 91 70 3f 3d 4c 49 3f bd e3 06 40 3d
       -0.04696989 0.04673821 -0.04670076 0.046881568
0001b0 e6 0d 40 bd f1 d6 3e 3d 33 01 40 3d 96 6d 40 bd
       -0.046888255 0.046591703 0.046876144 -0.04697951
0001c0 9d 25 4c bd 55 2b 4b bd 6b 38 4b bd 7c 81 4a 3d
       -0.04984056 -0.04960187 -0.04961435 0.049439892
0001d0 61 c5 4b bd 5e 18 4b bd a5 bb 4b 3d 85 ba 4b bd
       -0.049748782 -0.049583785 0.0497395 -0.049738426
0001e0 77 29 4c bd ad fe 4a 3d 90 27 4b bd 1e fe 4b 3d
       -0.04984423 0.049559284 -0.049598277 0.049802892
0001f0 98 dc 4b bd 73 87 4a 3d 48 ab 4b 3d 2e 3d 4c bd
       -0.04977092 0.04944558 0.049723893 -0.049863033
000200 50 02 43 bd ef 38 42 bd 27 60 42 bd 73 94 41 3d
       -0.047609627 -0.047417577 -0.04745498 0.047260713
000210 a3 c4 42 bd 54 26 42 bd 9c e2 42 3d 35 d8 42 bd
       -0.04755081 -0.047399834 0.047579393 -0.047569472
000220 34 d3 42 bd 49 03 42 3d 96 36 42 bd ce f8 42 3d
       -0.0475647 0.047366414 -0.04741534 0.04760056
000230 6c fe 42 bd cf 9a 41 3d 15 ba 42 3d e3 37 43 bd
       -0.047605917 0.047266778 0.047540743 -0.04766072
000240 ad 9f 34 bd 15 12 34 bd 31 92 33 bd 0e c8 32 3d
       -0.04409759 -0.043962557 -0.04384059 0.04364782
000250 37 3f 34 bd d0 80 33 bd 5a f5 33 3d c6 35 34 bd
       -0.0440056 -0.043824017 0.043935157 -0.043996595
000260 ca a6 34 bd 20 20 33 3d 44 58 33 bd 07 5f 34 3d
       -0.044104375 0.04373181 -0.04378535 0.044035938
000270 9e 32 34 bd 52 ab 32 3d 90 2e 34 3d ae cc 34 bd
       -0.043993585 0.043620415 0.043989718 -0.04414051
000280 ce 42 4b bd a4 47 4a bd 36 57 4a bd 94 d2 49 3d
       -0.049624257 -0.049384728 -0.049399577 0.04927309
000290 40 d9 4a bd a0 43 4a bd f2 d1 4a 3d b2 cc 4a bd
       -0.049523592 -0.0493809 0.049516626 -0.04951162
0002a0 4d 29 4b bd a0 20 4a 3d 2e 1d 4a bd be f8 4a 3d
       -0.049599934 0.04934752 -0.049344234 0.049553625
0002b0 46 ed 4a bd 1f cc 49 3d 14 c2 4a 3d 18 55 4b bd
       -0.049542688 0.04926693 0.049501494 -0.0496417
0002c0 96 9d 46 bd 2e cf 45 bd 2a e6 45 bd b9 4d 45 3d
       -0.04849013 -0.048293285 -0.048315205 0.048169825
0002d0 83 68 46 bd a7 b7 45 bd 98 43 46 3d 1f 62 46 bd
       -0.048439514 -0.048270848 0.048404306 -0.04843342
0002e0 0b c3 46 bd e0 bf 45 3d 97 c2 45 bd 64 39 46 3d
       -0.04852585 0.04827869 -0.04828128 0.048394576
0002f0 b9 6f 46 bd 16 57 45 3d 62 5b 46 3d 95 b6 46 bd
       -0.04844639 0.048178755 0.048426993 -0.048513968
000300 c3 c8 4c bd 5c b1 4b bd dd e3 4b bd 29 54 4b 3d
       -0.04999615 -0.04972969 -0.049777854 0.04964081
000310 97 47 4c bd e0 be 4b bd 40 45 4c 3d 77 48 4c bd
       -0.04987296 -0.04974258 0.04987073 -0.049873795
000320 d6 a8 4c bd e6 73 4b 3d e2 c9 4b bd 57 7e 4c 3d
       -0.049965702 0.049671076 -0.049753077 0.049925175
000330 ce 51 4c bd 14 55 4b 3d 7a 44 4c 3d fa c2 4c bd
       -0.049882703 0.049641684 0.04986999 -0.04999063
000340 6b 51 45 bd 2f c8 44 bd 2c d1 44 bd 4a 36 44 3d
       -0.04817335 -0.048042472 -0.048051044 0.047903337
000350 ae 75 45 bd 58 a2 44 bd 8b 35 45 3d 37 5b 45 bd
       -0.04820793 -0.048006386 0.048146766 -0.048182692
000360 96 5e 45 bd 23 d8 44 3d 22 a4 44 bd 4d 65 45 3d
       -0.048185907 0.048057687 -0.04800809 0.04819231
000370 7f 58 45 bd c8 ea 43 3d b7 1c 45 3d 1b b4 45 bd
       -0.0481801 0.047831327 0.048123088 -0.048267465
000380 73 7d 3e bd 8a ca 3d bd 95 e9 3d bd 60 5e 3d 3d
       -0.046506356 -0.046335734 -0.04636534 0.04623258
000390 26 4c 3e bd db ad 3d bd 22 45 3e 3d 98 46 3e bd
       -0.04645934 -0.04630838 0.04645265 -0.046454042
0003a0 22 85 3e bd 2d 87 3d 3d e6 b0 3d bd 30 6d 3e 3d
       -0.046513684 0.04627149 -0.04631128 0.046490848
0003b0 6e 6b 3e bd 42 1f 3d 3d 46 1f 3e 3d 54 c5 3e bd
       -0.04648917 0.046172388 0.046416543 -0.046574906
0003c0 a3 ad 3a bd 49 1c 3a bd f4 39 3a bd be 7e 39 3d
       -0.04557575 -0.04543713 -0.045465425 0.045286886
0003d0 9d cd 3a bd 3b f6 39 bd 2c 8c 3a 3d f9 93 3a bd
       -0.045606244 -0.04540084 0.045543835 -0.045551274
0003e0 0b f4 3a bd 0a 2b 3a 3d cc ee 39 bd 83 ba 3a 3d
       -0.045642894 0.0454512 -0.04539375 0.045588028
0003f0 cd c7 3a bd 8f 87 39 3d 66 b6 3a 3d df c5 3a bd
       -0.0456007 0.045295294 0.045584105 -0.04559886

bias_ih_l1 f4 [64]
000000 bf dc 96 3d a0 f0 8d 3d fb 3c 90 3d 17 27 87 3d
       0.07366323 0.06930661 0.07042881 0.06599253
000010 38 82 8f 3d 6d de 91 3d 24 20 8f 3d 17 34 95 3d
       0.07007259 0.071225025 0.06988552 0.07285326
000020 d9 52 91 3d 25 53 8d 3d 06 ba 92 3d 12 67 92 3d
       0.0709588 0.06900624 0.071643874 0.07148565
000030 91 f0 93 3d 05 bc 90 3d ea 9a 8e 3d 5e af 8d 3d
       0.07223619 0.07067112 0.06963141 0.06918214
000040 74 89 c3 3d a8 6e b9 3d 46 37 bc 3d 97 9e af 3d
       0.095477015 0.09054309 0.0919023 0.085751705
000050 16 a6 bb 3d ea a4 bd 3d 47 5d bb 3d 82 bf c2 3d
       0.09162538 0.092599705 0.091486506 0.095091835
000060 69 54 bd 3d 81 58 b7 3d 7b d4 be 3d 76 b2 be 3d
       0.092446156 0.08952428 0.09317871 0.093113825
000070 7f 04 c1 3d 29 c9 bb 3d b1 17 ba 3d 45 0b b9 3d
       0.09424686 0.09169228 0.0908655 0.090353526
000080 35 96 18 be 85 bb 14 be 21 5a 15 be 28 4c 11 3e
       -0.1490105 -0.14524658 -0.14585163 0.14189208
000090 62 99 15 be 41 78 15 be 18 45 13 3e 32 0f 16 be
       -0.14609292 -0.14596654 0.14381826 -0.14654234
0000a0 e2 ae 15 be c2 e3 15 3e bf b5 15 be a1 dd 15 3e
       -0.14617494 0.14637664 -0.14620112 0.14635326
0000b0 99 73 16 be 97 c2 14 3e 28 6a 15 3e 8b a9 14 be
       -0.14692535 0.14527355 0.14591277 -0.145178
0000c0 16 55 4d 3e bc 56 47 3e 94 fa 4a 3e c0 f4 43 3e
       0.20051989 0.1946668 0.1982215 0.19136333
0000d0 78 e2 4c 3e b5 a4 48 3e 98 cc 4b 3e 16 28 4f 3e
       0.20008266 0.19594081 0.19902265 0.20230135
0000e0 db d5 4b 3e a6 e4 49 3e 74 4d 4c 3e b9 36 4c 3e
       0.19905798 0.19716129 0.19951421 0.1994275
0000f0 64 1c 4d 3e 0f 35 4a 3e 0b 20 49 3e 68 84 48 3e
       0.20030361 0.19746803 0.1964113 0.19581759

bias_hh_l1 f4 [64]
000000 c0 d7 96 3d f2 f3 8d 3d f2 3c 90 3d 57 28 87 3d
       0.0736537 0.069312945 0.070428744 0.06599491
000010 5b 82 8f 3d 56 de 91 3d b0 1b 8f 3d 59 34 95 3d
       0.07007285 0.07122485 0.06987703 0.07285375
000020 62 56 91 3d ba 52 8d 3d d7 ba 92 3d 34 66 92 3d
       0.07096554 0.069005445 0.07164543 0.071484
000030 4c ea 93 3d cd bb 90 3d c4 99 8e 3d b6 af 8d 3d
       0.07222423 0.0706707 0.06962922 0.0691828
000040 9a 89 c3 3d 92 70 b9 3d 3d 37 bc 3d 39 9e af 3d
       0.0954773 0.09054674 0.09190223 0.085751005
000050 55 a7 bb 3d f1 a4 bd 3d e8 5b bb 3d ca c0 c2 3d
       0.091627754 0.09259976 0.09148389 0.09509428
000060 6d 54 bd 3d b6 57 b7 3d 7d d4 be 3d 7c ae be 3d
       0.092446186 0.089522764 0.09317873 0.09310624
000070 11 08 c1 3d 81 c9 bb 3d b0 17 ba 3d 0a 0b b9 3d
       0.09425367 0.09169293 0.09086549 0.09035309
000080 13 97 18 be 84 bb 14 be 13 5e 15 be 1a 4f 11 3e
       -0.1490138 -0.14524657 -0.14586668 0.14190331
000090 d8 91 15 be 46 7a 15 be f1 40 13 3e 04 0d 16 be
       -0.14606416 -0.14597425 0.14380242 -0.14653403
0000a0 3e ae 15 be 2f e5 15 3e c0 b5 15 be e6 e4 15 3e
       -0.1461725 0.14638208 -0.14620113 0.14638099
0000b0 f9 73 16 be c5 c4 14 3e 4b 6a 15 3e 28 a9 14 be
       -0.14692678 0.14528187 0.14591329 -0.14517653
0000c0 12 57 4d 3e 9b 58 47 3e 68 fa 4a 3e cf f4 43 3e
       0.20052746 0.19467394 0.19822085 0.19136356
0000d0 62 e2 4c 3e 3a a5 48 3e 6a d1 4b 3e 84 29 4f 3e
       0.20008233 0.19594279 0.19904104 0.2023068
0000e0 a9 d0 4b 3e a9 e4 49 3e 0d 4d 4c 3e a9 30 4c 3e
       0.19903816 0.19716133 0.19951268 0.19940437
0000f0 5d 21 4d 3e a1 33 4a 3e 98 1f 49 3e 8b 84 48 3e
       0.20032258 0.19746257 0.19640958 0.19581811

weight_ih_l0 f4 [64, 112]
000000 95 00 ef 3c 6e f5 99 3c a1 61 c8 bc 0e ac 1a bc
       0.029175082 0.018793788 -0.024460616 -0.009440435
000010 42 e8 e5 bc 46 f4 19 bd 2c 2d 66 3c bf 84 e4 39
       -0.02806485 -0.037586473 0.014048856 0.00043586452
000020 3d 8d 14 3b 8a 21 02 bb 86 3b bb bc bd af 22 3c
       0.0022667192 -0.0019856417 -0.022855531 0.009929595
000030 a9 dd 96 bb 41 f9 d2 bc 91 71 02 3c 65 6b 68 3c
       -0.0046040607 -0.02575362 0.007961647 0.014185761
000040 b1 cf 95 3b 0e d4 b3 3c 7e 8a 46 bc 72 bd 20 39
       0.004571878 0.021951701 -0.01211798 0.00015329363
000050 dd 8f 16 3c cd 90 03 bc 3f 9c 58 3b 73 c0 f0 3b
       0.009189573 -0.008030129 0.0033052114 0.0073471605
000060 bf ae f3 3b 9f 5a 35 bb ad 60 9c bc 80 54 55 b6
       0.007436603 -0.0027672423 -0.019089067 -3.1788659e-06
000070 68 3d 91 3c 57 98 88 3c 36 b3 f7 3c 89 10 89 bb
       0.017729476 0.016674204 0.030236822 -0.0041828793
000080 80 1a 63 b9 c8 7d 1f bd 56 56 c6 39 e8 dd a3 ba
       -0.00021658279 -0.038938314 0.00037829828 -0.0012502046
000090 04 33 79 39 ee f4 14 bb e0 b6 ef bb 9b 80 02 3a
       0.00023765495 -0.0022728997 -0.0073155016 0.000497827
0000a0 11 dc 97 bb 3f 9e b6 bb cf 54 ca 3b 17 5c c5 ba
       -0.0046343883 -0.0055730636 0.0061746608 -0.0015057352
0000b0 e8 7a dd 3b 2c 02 81 3c d5 bd d3 bc 2f 7d c0 ba
       0.0067590363 0.015748106 -0.025847355 -0.0014685745
0000c0 9d be 90 bc d6 24 26 bc c4 45 cb 3c aa 0d 64 bc
       -0.017669016 -0.010140618 0.02481354 -0.013919273
0000d0 c3 2c ba 3b d8 ba cb 3b 4a 77 6e 3c a9 56 c0 3b
       0.0056816055 0.006217342 0.014554808 0.0058697057
0000e0 f8 72 24 bb 96 70 9a bc 01 23 8a 3c 66 4a 11 bc
       -0.002509294 -0.018852513 0.016862394 -0.008867836
0000f0 94 98 45 ba b0 4e b4 bb 43 66 12 3c f8 82 91 3b
       -0.00075376895 -0.0055025443 0.008935514 0.0044406615
000100 d9 f1 d7 bb 1d 7d 81 bb c8 34 ca b9 e9 60 ad 3a
       -0.00659011 -0.0039516822 -0.00038567767 0.0013227734
000110 be 1c 6e bb af 63 49 bb 81 7d 89 bb 2a 0c b1 bb
       -0.003633305 -0.0030729582 -0.0041958694 -0.0054030614
000120 b6 40 54 bc db 73 7f bb 82 64 c1 3b 66 f9 28 3c
       -0.012954881 -0.0038978967 0.005901874 0.0103133675
000130 a8 80 eb ba e4 e6 5d 3c 32 26 89 3b de a2 21 3b
       -0.001796742 0.013543818 0.0041854614 0.0024663727
000140 78 38 79 3a bc 9a 3a bc de 13 d2 3c c6 37 18 3c
       0.00095070107 -0.011389431 0.025644239 0.009290641
000150 fa 5c 1a bc 5b 33 5a bb 1e 15 62 bc 56 c5 5c bc
       -0.009421581 -0.003329477 -0.01379898 -0.013474783
000160 09 1f 68 bb f3 00 60 bc 9b af 1b bc 1b 0d a2 3c
       -0.003541889 -0.013672101 -0.009502317 0.01978164
000170 0f 61 87 3c b9 a3 ea bb cb cb 62 3c d3 b9 24 bb
       0.016525773 -0.0071606305 0.013842533 -0.0025135174
000180 72 1b 9e bc d5 80 ee bb 4a a4 95 bc 6a 97 5d 3b
       -0.019300196 -0.0072785416 -0.018266816 0.0033812174
000190 1e be be 3b de 83 9a bb 35 bb 34 bc 66 5d eb bb
       0.0058210036 -0.004715427 -0.011030962 -0.007182765
0001a0 b4 ac 97 3b d6 e0 c3 3b b1 78 cb ba 43 07 c6 ba
       0.004628742 0.0059777303 -0.001552364 -0.0015108365
0001b0 f6 fb 66 ba f2 fc a9 bb 21 8b 36 bc ff 47 0f bb
       -0.0008811349 -0.005187624 -0.011141569 -0.0021862981
0001c0 2a 16 ef 3c 39 07 9a 3c d2 51 c8 bc a5 dc 1a bc
       0.029185373 0.018802272 -0.024453077 -0.00945202
0001d0 e0 da e5 bc c4 ef 19 bd 35 01 66 3c 0c 8c e8 39
       -0.02805847 -0.037582174 0.014038374 0.0004435483
0001e0 52 7e 14 3b 1e a0 01 bb 81 31 bb bc f7 a6 22 3c
       0.00226583 -0.0019779275 -0.022850754 0.009927503
0001f0 b7 17 97 bb b7 fd d2 bc 8c 8e 02 3c 12 5b 68 3c
       -0.0046109813 -0.025755746 0.007968556 0.014181869
000200 36 52 96 3b 60 d0 b3 3c 34 21 46 bc 70 32 21 39
       0.004587437 0.021949947 -0.012092877 0.00015372946
000210 9f 8d 16 3c fb b8 03 bc 6f 2b 58 3b 64 85 f0 3b
       0.009189039 -0.008039708 0.0032984873 0.00734012
000220 6b 07 f4 3b b8 b5 34 bb 22 64 9c bc c0 85 4c b6
       0.0074471734 -0.0027574133 -0.019090716 -3.0476222e-06
000230 9d 41 91 3c 6d c1 88 3c a4 b8 f7 3c 72 5f 89 bb
       0.017731482 0.016693795 0.03023941 -0.004192286
000240 a5 0c 59 b9 6f 78 1f bd a5 79 c0 39 98 d5 a2 ba
       -0.00020699443 -0.038933214 0.00036711726 -0.0012423275
000250 bc 6e 7d 39 e8 b5 14 bb 5a db ef bb b2 12 02 3a
       0.00024169212 -0.0022691432 -0.00731985 0.0004961892
000260 e0 82 97 bb 28 85 b6 bb 62 77 ca 3b 8f 7a c6 ba
       -0.004623756 -0.0055700727 0.0061787823 -0.0015142726
000270 b5 b6 dd 3b 51 fb 80 3c b2 bb d3 bc c1 92 c0 ba
       0.006766165 0.015744837 -0.025846336 -0.0014692174
000280 1b d5 90 bc a2 2c 26 bc 5e 56 cb 3c 47 2c 64 bc
       -0.017679742 -0.010142477 0.024821457 -0.013926572
000290 77 68 ba 3b 48 db cb 3b d4 76 6e 3c e9 7f c0 3b
       0.0056887227 0.0062212087 0.014554698 0.005874623
0002a0 f0 a8 24 bb c5 6d 9a bc 32 16 8a 3c 13 4b 11 bc
       -0.0025125109 -0.01885117 0.016856287 -0.008867997
0002b0 a4 53 44 ba ae 24 b4 bb 75 78 12 3c 6c b3 91 3b
       -0.000748927 -0.0054975366 0.008939852 0.0044464376
0002c0 2b 09 d8 bb 10 64 81 bb 6c b2 cb b9 86 fa ad 3a
       -0.00659289 -0.003948696 -0.00038852112 0.0013273514
0002d0 25 d0 6d bb fa 26 49 bb 5b 50 89 bb e4 86 b1 bb
       -0.0036287394 -0.0030693398 -0.0041904873 -0.0054176915
0002e0 55 25 54 bc 3b 05 7f bb 32 41 c1 3b 7a 08 29 3c
       -0.012948354 -0.003891303 0.0058976645 0.010316962
0002f0 5b 12 ec ba 08 cf 5d 3c 10 22 89 3b 17 88 20 3b
       -0.0018010841 0.01353813 0.004184969 0.0024495178
000300 09 14 7c 3a 06 91 3a bc 76 14 d2 3c c2 ef 17 3c
       0.00096160226 -0.011387115 0.025644522 0.009273471
000310 55 5c 1a bc f9 69 5a bb f1 35 62 bc c2 d8 5c bc
       -0.009421428 -0.0033327325 -0.013806806 -0.013479413
000320 d2 1b 68 bb 7f 13 60 bc 35 b8 1b bc 51 08 a2 3c
       -0.0035416973 -0.013676523 -0.009504368 0.019779356
000330 2e 51 87 3c 88 ea ea bb a7 ca 62 3c 37 69 24 bb
       0.016518202 -0.0071690716 0.013842261 -0.0025087127
000340 d6 ed 9d bc 65 6c ee bb f7 9b 95 bc f2 9b 5d 3b
       -0.019278448 -0.007276105 -0.018262846 0.0033814874
000350 09 8b be 3b e8 4b 9a bb 68 c6 34 bc c2 a8 eb bb
       0.005814914 -0.0047087558 -0.011033632 -0.0071917484
000360 20 b0 97 3b 07 d1 c3 3b 77 82 cb ba de ce c5 ba
       0.00462915 0.0059758457 -0.0015526552 -0.0015091558
000370 a6 6d 65 ba fb c6 a9 bb c5 86 36 bc bd 25 0f bb
       -0.00087519956 -0.005181191 -0.01114053 -0.0021842562
000380 98 fb ee 3c 9a d0 99 3c 39 32 c8 bc cf b9 1a bc
       0.029172704 0.018776227 -0.02443801 -0.009443714
000390 f8 03 e6 bc 48 fe 19 bd 65 63 66 3c df 8f db 39
       -0.028078064 -0.037596017 0.014061783 0.00041878127
0003a0 4e fe 13 3b 13 8b 01 bb 62 4d bb bc d1 bf 22 3c
       0.0022581997 -0.0019766733 -0.022864047 0.009933428
0003b0 f5 89 96 bb 19 e4 d2 bc 72 7b 02 3c 5b 80 68 3c
       -0.0045940825 -0.025743531 0.007964002 0.014190759
0003c0 59 d7 94 3b 4b ec b3 3c 9f 99 46 bc 92 af 1d 39
       0.004542273 0.02196326 -0.012121587 0.00015038092
0003d0 c4 8f 16 3c f7 6a 03 bc 28 a2 59 3b 0f 26 f1 3b
       0.00918955 -0.008021108 0.0033208225 0.0073592733
0003e0 05 a7 f3 3b 64 66 35 bb a4 59 9c bc 80 4c b8 35
       0.0074356818 -0.0027679438 -0.019085713 1.3731333e-06
0003f0 2d 2f 91 3c fc 58 88 3c ad ac f7 3c 12 80 88 bb
       0.01772269 0.016643994 0.030233705 -0.004165658

weight_hh_l0 f4 [64, 16]
000000 e8 e6 03 bd c2 e6 03 3d 3f e3 03 3d e9 de 03 bd
       -0.03220263 0.03220249 0.03219914 -0.032195006
000010 39 e6 03 3d 70 e6 03 3d a5 e6 03 bd 6f e3 03 bd
       0.03220198 0.032202184 -0.03220238 -0.03219932
000020 fc de 03 3d 12 d7 03 3d 38 e3 03 bd 15 e5 03 bd
       0.032195076 0.03218753 -0.032199115 -0.03220089
000030 b6 e8 03 bd 07 e1 03 3d bf e2 03 3d b2 e5 03 3d
       -0.032204352 0.032197025 0.032198664 0.032201476
000040 c7 e7 03 bd 63 d8 03 3d 37 e8 03 3d 9e e7 03 bd
       -0.032203462 0.032188784 0.03220388 -0.03220331
000050 73 e1 03 3d ea e3 03 3d ec e7 03 bd b7 e6 03 bd
       0.032197427 0.032199778 -0.0322036 -0.03220245
000060 3c dd 03 3d 2e e2 03 3d 3a e7 03 bd f4 e8 03 bd
       0.032193407 0.032198124 -0.032202937 -0.032204583
000070 b8 e8 03 bd ff e8 03 3d 9a e5 03 3d c4 e3 03 3d
       -0.03220436 0.032204624 0.032201387 0.032199636
000080 8d e4 03 bd 71 e3 03 3d cb d6 03 3d b6 e5 03 bd
       -0.032200385 0.032199327 0.032187264 -0.03220149
000090 52 d4 03 3d e5 e0 03 3d dd d5 03 bd 01 d8 03 bd
       0.032184906 0.032196898 -0.032186378 -0.03218842
0000a0 57 e4 03 3d b7 e4 03 3d 8e dc 03 bd bf de 03 bd
       0.032200184 0.03220054 -0.03219276 -0.03219485
0000b0 ed da 03 bd 41 e1 03 3d cb df 03 3d 33 da 03 3d
       -0.032191206 0.03219724 0.032195847 0.032190513
0000c0 05 d8 03 bd 6e e6 03 3d 13 df 03 3d d5 e1 03 bd
       -0.032188434 0.032202177 0.032195162 -0.032197792
0000d0 06 e6 03 3d a4 d8 03 3d e0 d6 03 bd bb de 03 bd
       0.03220179 0.032189026 -0.032187343 -0.032194834
0000e0 49 e5 03 3d 17 e4 03 3d cd d6 03 bd 31 e8 03 bd
       0.032201085 0.032199945 -0.032187272 -0.032203857
0000f0 1b e8 03 bd 77 db 03 3d 4a e6 03 3d 52 e1 03 3d
       -0.032203775 0.03219172 0.032202043 0.032197304
000100 99 e6 03 bd 69 e4 03 3d f1 d8 03 3d b4 e5 03 bd
       -0.032202337 0.03220025 0.032189313 -0.032201484
000110 41 e5 03 3d 66 e2 03 3d 2a e4 03 bd 21 d7 03 bd
       0.032201055 0.032198332 -0.032200016 -0.032187585
000120 70 d6 03 3d 53 d3 03 3d a4 e5 03 bd 97 e4 03 bd
       0.032186925 0.032183956 -0.032201424 -0.032200422
000130 da e5 03 bd 56 e7 03 3d d9 dc 03 3d 00 e4 03 3d
       -0.032201625 0.03220304 0.03219304 0.03219986
000140 a8 e6 03 bd 01 dc 03 3d 0c e5 03 3d 04 d8 03 bd
       -0.032202393 0.032192234 0.032200858 -0.03218843
000150 a5 dd 03 3d 13 e2 03 3d 5c e6 03 bd 04 e5 03 bd
       0.0321938 0.032198023 -0.03220211 -0.03220083
000160 e5 e0 03 3d bd d6 03 3d d1 e5 03 bd 70 e5 03 bd
       0.032196898 0.032187212 -0.032201592 -0.03220123
000170 4a e2 03 bd ee dd 03 3d 56 e2 03 3d a9 e4 03 3d
       -0.032198228 0.03219407 0.032198273 0.03220049
000180 e8 e6 03 bd 7d d8 03 3d 37 df 03 3d 01 d7 03 bd
       -0.03220263 0.03218888 0.032195296 -0.032187466
000190 26 e2 03 3d 0e df 03 3d 63 d2 03 bd c7 da 03 bd
       0.032198094 0.032195143 -0.032183062 -0.032191064
0001a0 b5 e3 03 3d 75 d6 03 3d e4 e5 03 bd 86 e6 03 bd
       0.03219958 0.032186944 -0.032201663 -0.032202266
0001b0 35 de 03 bd cb e2 03 3d 56 da 03 3d bc e3 03 3d
       -0.032194335 0.03219871 0.032190643 0.032199606
0001c0 03 e5 03 bd 92 e3 03 3d a2 e4 03 3d b6 e4 03 bd
       -0.032200824 0.03219945 0.032200463 -0.032200538
0001d0 78 e4 03 3d c5 e4 03 3d c6 e4 03 bd b3 e3 03 bd
       0.032200307 0.032200594 -0.032200597 -0.032199573
0001e0 66 e2 03 3d e9 e1 03 3d 8c d6 03 bd 26 e6 03 bd
       0.032198332 0.032197867 -0.03218703 -0.03220191
0001f0 7d e6 03 bd 8f e4 03 3d f6 de 03 3d 81 e1 03 3d
       -0.032202233 0.032200392 0.032195054 0.03219748
000200 0c e2 03 bd 46 e4 03 3d 65 e4 03 3d cd dc 03 bd
       -0.032197997 0.03220012 0.032200236 -0.032192994
000210 c5 e2 03 3d 55 d8 03 3d e2 e3 03 bd 3d e3 03 bd
       0.032198686 0.032188732 -0.032199748 -0.032199133
000220 31 de 03 3d f8 e2 03 3d b3 e3 03 bd 83 e5 03 bd
       0.03219432 0.032198876 -0.032199573 -0.0322013
000230 12 e5 03 bd d8 e5 03 3d 32 e3 03 3d 29 e1 03 3d
       -0.03220088 0.032201618 0.032199092 0.03219715
000240 07 e6 03 bd f8 db 03 3d 3d e1 03 3d 34 e5 03 bd
       -0.032201793 0.0321922 0.032197226 -0.032201007
000250 74 d7 03 3d ed e2 03 3d 5c e5 03 bd bb e3 03 bd
       0.032187894 0.032198835 -0.032201156 -0.032199603
000260 55 d7 03 3d 0e e0 03 3d 4b d5 03 bd 03 e1 03 bd
       0.03218778 0.032196097 -0.032185834 -0.03219701
000270 76 df 03 bd 45 e7 03 3d f3 df 03 3d 95 e3 03 3d
       -0.03219553 0.032202978 0.032195996 0.03219946
000280 ea e6 03 bd 63 d9 03 3d 40 d9 03 3d 4e e4 03 bd
       -0.03220264 0.032189738 0.032189608 -0.03220015
000290 3c dc 03 3d 07 e6 03 3d c3 d7 03 bd f1 e4 03 bd
       0.032192454 0.032201793 -0.03218819 -0.032200757
0002a0 df da 03 3d dc de 03 3d 67 e3 03 bd cf e0 03 bd
       0.032191154 0.032194957 -0.03219929 -0.032196816
0002b0 54 e6 03 bd c9 df 03 3d 20 e0 03 3d 30 e3 03 3d
       -0.03220208 0.03219584 0.032196164 0.032199085
0002c0 6a de 03 bd 1c e9 03 3d e9 e7 03 3d 89 e8 03 bd
       -0.032194532 0.032204732 0.03220359 -0.032204185
0002d0 47 e8 03 3d 52 e0 03 3d d3 e8 03 bd be e7 03 bd
       0.03220394 0.03219635 -0.03220446 -0.03220343
0002e0 8d e7 03 3d a0 e6 03 3d e2 e3 03 bd c1 e6 03 bd
       0.032203246 0.032202363 -0.032199748 -0.032202486
0002f0 2b e8 03 bd f1 ea 03 3d 61 e6 03 3d 21 e5 03 3d
       -0.032203835 0.03220648 0.03220213 0.032200936
000300 a6 e1 03 bd 34 e7 03 3d 4c e8 03 3d 80 e7 03 bd
       -0.032197617 0.032202914 0.032203957 -0.032203197
000310 a3 d7 03 3d fb db 03 3d 3a e5 03 bd 0e e6 03 bd
       0.03218807 0.03219221 -0.03220103 -0.03220182
000320 40 e6 03 3d 91 e6 03 3d ad e0 03 bd c0 e7 03 bd
       0.032202005 0.032202307 -0.03219669 -0.032203436
000330 98 dd 03 bd a8 e9 03 3d 05 de 03 3d 6e e6 03 3d
       -0.03219375 0.032205254 0.032194156 0.032202177
000340 6a e5 03 bd 64 d9 03 3d d2 e2 03 3d 00 e6 03 bd
       -0.03220121 0.03218974 0.032198735 -0.032201767
000350 ce db 03 3d 6c e5 03 3d 9b e5 03 bd 50 e5 03 bd
       0.032192044 0.032201216 -0.03220139 -0.03220111
000360 d3 df 03 3d 3e e3 03 3d ba e5 03 bd be de 03 bd
       0.032195877 0.032199137 -0.032201506 -0.032194845
000370 ff e8 03 bd 5c e8 03 3d 7b e4 03 3d 0f dd 03 3d
       -0.032204624 0.032204017 0.032200318 0.03219324
000380 6e df 03 bd d3 e6 03 3d f8 e6 03 3d 1e e2 03 bd
       -0.0321955 0.032202553 0.03220269 -0.032198064
000390 3b e2 03 3d 8f df 03 3d c0 de 03 bd 2f e3 03 bd
       0.032198172 0.032195624 -0.032194853 -0.03219908
0003a0 1c e5 03 3d e2 d4 03 3d 0b e4 03 bd df e7 03 bd
       0.032200918 0.032185443 -0.0321999 -0.03220355
0003b0 13 de 03 bd 1f e6 03 3d 13 e6 03 3d 6b e3 03 3d
       -0.03219421 0.032201882 0.032201838 0.032199305
0003c0 50 e3 03 bd 1e e5 03 3d 10 e5 03 3d fe e4 03 bd
       -0.032199204 0.032200925 0.032200873 -0.032200806
0003d0 1f db 03 3d 78 d6 03 3d 16 e3 03 bd 4d e4 03 bd
       0.032191392 0.032186955 -0.032198988 -0.032200146
0003e0 70 dd 03 3d fb e2 03 3d 19 e2 03 bd 0b e7 03 bd
       0.0321936 0.032198887 -0.032198045 -0.03220276
0003f0 31 e6 03 bd 47 e7 03 3d 7b dd 03 3d 83 e3 03 3d
       -0.03220195 0.032202985 0.032193642 0.032199394
