model.pt (torch, 257988 bytes, 66 tensors)

weight_ih_l0 f4 [64, 112]
0	0x2ca95889	4.8130983e-12
1	0xacaab9ea	-4.852331e-12
2	0xad6b52b8	-1.3376571e-11
3	0x3128aba0	2.4544775e-09
4	0x310df6e3	2.065854e-09
5	0x380a6829	3.299877e-05
6	0x37519b6d	1.2493559e-05
7	0xb0f0e133	-1.7526304e-09
8	0xafd60fc4	-3.8937575e-10
9	0xacc52398	-5.6030285e-12
10	0xabb60ddd	-1.2935726e-12
11	0x2d773a9a	1.4053337e-11
12	0xad648eba	-1.2991991e-11
13	0x3080bfb3	9.36771e-10
14	0x2c50ce8e	2.9673239e-12
15	0x30b43670	1.3112196e-09
16	0xaf7fa1ca	-2.3249594e-10
17	0xabe46948	-1.6229596e-12
18	0xb2cc958c	-2.3816732e-08
19	0x2fa5a9de	3.0134023e-10
20	0xb5d379d0	-1.5756177e-06
21	0x2cf75f78	7.0307614e-12
22	0x309a7644	1.1238588e-09
23	0x2dba9f4e	2.1216497e-11
24	0xb2a6e61e	-1.9429589e-08
25	0x32821cf8	1.5147165e-08
26	0x2dad7b1a	1.9722491e-11
27	0xad8e2fda	-1.6164781e-11
28	0x2ee9d380	1.0633183e-10
29	0xb28101fc	-1.5018479e-08
30	0xb194b828	-4.328303e-09
31	0x325bcf03	1.2794547e-08
32	0xad63dc2f	-1.2952347e-11
33	0xb4089bf0	-1.2722717e-07
34	0xb0173cea	-5.5020044e-10
35	0x2fa14ba9	2.933949e-10
36	0xad9de7ac	-1.7951717e-11
37	0xac89efe0	-3.9204057e-12
38	0xb4c23916	-3.617685e-07
39	0x2fc04f08	3.4980752e-10
40	0x3035c20f	6.612319e-10
41	0xaf4549c4	-1.7943252e-10
42	0x800078f1	-4.3386e-41
43	0x0000968e	5.4009e-41
44	0x00003ffa	2.295e-41
45	0x000085a5	4.7943e-41
46	0x000023d1	1.2849e-41
47	0xaf050d08	-1.2100909e-10
48	0x00007c5a	4.4609e-41
49	0x80007281	-4.1076e-41
50	0x8000251d	-1.3314e-41
51	0x0000021f	7.61e-43
52	0x00006b6e	3.8539e-41
53	0x0000758a	4.2165e-41
54	0x000035b3	1.9264e-41
55	0x0000786d	4.32e-41
56	0x00001b2c	9.747e-42
57	0x80007348	-4.1355e-41
58	0x00009446	5.319e-41
59	0x80006a27	-3.808e-41
60	0x00002fd8	1.7163e-41
61	0x800097aa	-5.4407e-41
62	0x2bb8a0c1	1.3118605e-12
63	0x8000b19b	-6.3713e-41
64	0x00002872	1.4509e-41
65	0x2c426e22	2.7630194e-12
66	0x0000797c	4.358e-41
67	0x80004b77	-2.7072e-41
68	0x80001a94	-9.534e-42
69	0x00002afa	1.5417e-41
70	0x80003cba	-2.1785e-41
71	0x8000475c	-2.5599e-41
72	0x8000901e	-5.17e-41
73	0x8000b323	-6.4262e-41
74	0x00003714	1.9758e-41
75	0x0000841f	4.7396e-41
76	0x00006437	3.595e-41
77	0x800030b0	-1.7466e-41
78	0x000069b5	3.792e-41
79	0x0000a5b5	5.9444e-41
80	0x800049c2	-2.646e-41
81	0x0000b242	6.3947e-41
82	0x00001a8d	9.525e-42
83	0x80001772	-8.41e-42
84	0x0000173c	8.335e-42
85	0x00007b2a	4.4183e-41
86	0x8000b89b	-6.6224e-41
87	0x000063a9	3.5751e-41
88	0x00002b2e	1.549e-41
89	0x80005cb8	-3.3261e-41
90	0x000040ff	2.3316e-41
91	0x38fb9eee	0.000119982156
92	0x8000a753	-6.0025e-41
93	0x0000a65c	5.9678e-41
94	0x80003877	-2.0256e-41
95	0x8000b2a3	-6.4083e-41
96	0x80006df8	-3.945e-41
97	0xb500554c	-4.780784e-07
98	0xafb98a6a	-3.3749653e-10
99	0x8000b2fa	-6.4205e-41
100	0x00006be5	3.8705e-41
101	0x00008dd7	5.0883e-41
102	0x800045d1	-2.5045e-41
103	0x80002e6a	-1.665e-41
104	0x00008d46	5.068e-41
105	0x80008a29	-4.9563e-41
106	0x8000213b	-1.1921e-41
107	0x00005a05	3.2293e-41
108	0xaba4bb72	-1.1704927e-12
109	0x00003907	2.0458e-41
110	0x00005c6e	3.3158e-41
111	0x0000439c	2.4254e-41
112	0xacd7c322	-6.1323316e-12
113	0x2d62479c	1.2862513e-11
114	0x3514b6f8	5.540055e-07
115	0xb5a68180	-1.2405653e-06
116	0xb1eba6b8	-6.858354e-09
117	0x33958a98	6.963563e-08
118	0xae977dde	-6.8890435e-11
119	0xb35800b0	-5.0292044e-08
120	0xaae02418	-3.9815438e-13
121	0x2cb93a4c	5.2644885e-12
122	0xb6fa8098	-7.465551e-06
123	0x38e14664	0.00010741947
124	0x337a936c	5.834174e-08
125	0xab93fd2a	-1.0515245e-12
126	0xb63710c2	-2.727888e-06
127	0xb1926fce	-4.26187e-09
128	0xacce1596	-5.8572687e-12
129	0x2e2c0890	3.9115877e-11
130	0x34c87e18	3.7344648e-07
131	0xad9d3946	-1.7874268e-11
132	0xae3e3fc8	-4.3257647e-11
133	0xb2062100	-7.80733e-09
134	0x323ea698	1.1097335e-08
135	0xb23d056c	-1.1002481e-08
136	0xb28a6eec	-1.6115756e-08
137	0x33322539	4.147771e-08
138	0xb04f006c	-7.530676e-10
139	0xb3d50e24	-9.9211576e-08
140	0xb56d85cc	-8.848408e-07
141	0xb35bda88	-5.1188664e-08
142	0x3911e57c	0.00013913767
143	0x33d5af02	9.950419e-08
144	0xb1e24468	-6.5852426e-09
145	0x2df6afcb	2.804503e-11
146	0xb0f5e1c0	-1.7890258e-09
147	0xb795b2f9	-1.7845525e-05
148	0x2d00a4ee	7.312579e-12
149	0x36db70b2	6.539828e-06
150	0xb160d57a	-3.2717637e-09
151	0xb184dc7a	-3.866771e-09
152	0x344caa68	1.9060974e-07
153	0xb3b92480	-8.621373e-08
154	0x000076f8	4.2678e-41
155	0x8000924e	-5.2484e-41
156	0x800058e9	-3.1895e-41
157	0x00003c14	2.1552e-41
158	0x00007cc4	4.4757e-41
159	0x3372254c	5.6378937e-08
160	0x8000211b	-1.1876e-41
161	0x800043b5	-2.4289e-41
162	0x8000932e	-5.2798e-41
163	0x000077df	4.3002e-41
164	0x8000639f	-3.5737e-41
165	0x8000a681	-5.973e-41
166	0x80002f7c	-1.7034e-41
167	0x00000af1	3.925e-42
168	0x00008285	4.6822e-41
169	0x80008e46	-5.1038e-41
170	0x000062ba	3.5416e-41
171	0x00005cbe	3.327e-41
172	0x0000afde	6.3089e-41
173	0x80004015	-2.2988e-41
174	0x35bae857	1.39257e-06
175	0x0000b671	6.5448e-41
176	0x000085a5	4.7943e-41
177	0x80002bdb	-1.5732e-41
178	0x80005af5	-3.2629e-41
179	0x800016bd	-8.157e-42
180	0x0000940c	5.3109e-41
181	0x000052d6	2.9716e-41
182	0x80001e85	-1.0948e-41
183	0x000033b6	1.855e-41
184	0x0000184c	8.716e-42
185	0x000076cf	4.262e-41
186	0x800036a9	-1.9608e-41
187	0x8000695b	-3.7794e-41
188	0x00005983	3.2111e-41
189	0x00000875	3.034e-42
190	0x8000070a	-2.525e-42
191	0x80007b20	-4.4169e-41
192	0x00008e1e	5.0982e-41
193	0x000055c2	3.0764e-41
194	0x8000b61a	-6.5326e-41
195	0x000043a6	2.4268e-41
196	0x00001fe0	1.1435e-41
197	0x0000564e	3.096e-41
198	0x00007f08	4.557e-41
199	0x00001985	9.155e-42
200	0x0000af72	6.2938e-41
201	0x800007cc	-2.797e-42
202	0x80005189	-2.925e-41
203	0x8000c245	-6.9691e-41
204	0x00005fd5	3.4378e-41
205	0x0000403f	2.3047e-41
206	0x00000f29	5.438e-42
207	0x80009586	-5.3639e-41
208	0x00000316	1.107e-42
209	0xb3c80761	-9.314568e-08
210	0x303be908	6.836136e-10
211	0x8000265a	-1.3758e-41
212	0x000053b2	3.0024e-41
213	0x0000a9cb	6.091e-41
214	0x00005895	3.1777e-41
215	0x8000626e	-3.531e-41
216	0x000073fa	4.1605e-41
217	0x0000aeca	6.2703e-41
218	0x80008221	-4.6681e-41
219	0x00007267	4.104e-41
220	0x800010c9	-6.021e-42
221	0x00009f4f	5.7149e-41
222	0xb5ac19f6	-1.2822554e-06
223	0x800076b8	-4.2588e-41
224	0xae953f6f	-6.7870036e-11
225	0x33ad6b98	8.0755115e-08
226	0x35995358	1.1423645e-06
227	0x34db2491	4.0818534e-07
228	0xb132cb08	-2.601782e-09
229	0x34377460	1.708554e-07
230	0xb69605c4	-4.4710196e-06
231	0xb4cc6af0	-3.8075768e-07
232	0xaa825800	-2.31537e-13
233	0x2f470692	1.8101279e-10
234	0x34c5c7ec	3.6839572e-07
235	0xb3801735	-5.964686e-08
236	0xb3c5fd40	-9.219593e-08
237	0x2fb9fb70	3.382996e-10
238	0xb22cb780	-1.0053441e-08
239	0x30257d77	6.0204947e-10
240	0xaee5ad69	-1.0444518e-10
241	0x2e610394	5.1162255e-11
242	0x35de1599	1.6546575e-06
243	0x3475fe17	2.290984e-07
244	0x2e9f75fa	7.25144e-11
245	0xace0ffb0	-6.39485e-12
246	0x36c14550	5.7599173e-06
247	0x302eeabc	6.363441e-10
248	0x2d95a014	1.7010428e-11
249	0xb6bbbeb2	-5.595234e-06
250	0xae84bbd8	-6.036033e-11
251	0x30489654	7.2973205e-10
252	0xb0923de8	-1.0640493e-09
253	0x367192ac	3.5997173e-06
254	0xb449bd20	-1.8788387e-07
255	0x2edfa84c	1.01707615e-10

weight_hh_l0 f4 [64, 16]
0	0xad8065f6	-1.4597195e-11
1	0x2f4861b6	1.8224608e-10
2	0xac0c35fb	-1.9925162e-12
3	0x2a25d89a	1.4730093e-13
4	0xaf30b5fb	-1.6071759e-10
5	0xabfeb570	-1.8098145e-12
6	0xb7308d37	-1.0523297e-05
7	0x35f3fabc	1.8177884e-06
8	0xb1966062	-4.376532e-09
9	0xac3c5703	-2.6764708e-12
10	0x2ec4ca4a	8.948982e-11
11	0xb12b4078	-2.4920421e-09
12	0x2eaf49c2	7.971181e-11
13	0x2cd5eb2d	6.079934e-12
14	0xaaea8f9e	-4.1666404e-13
15	0xb17ad0f0	-3.6498555e-09
16	0xac6e8e5c	-3.390086e-12
17	0x3276278a	1.4328075e-08
18	0x2fa9c101	3.0878058e-10
19	0xaf9807c0	-2.7654146e-10
20	0x37e43fe6	2.7209473e-05
21	0xaf6d3cd6	-2.1576638e-10
22	0x375e060a	1.3233637e-05
23	0xb642b724	-2.9014855e-06
24	0x3760e144	1.3403889e-05
25	0x2d6f07df	1.3587325e-11
26	0xacb30b0a	-5.0887116e-12
27	0x392208f9	0.00015452867
28	0xb46756dd	-2.1545152e-07
29	0xb4f30988	-4.5269212e-07
30	0xb0f4668c	-1.7782482e-09
31	0xb859c090	-5.191617e-05
32	0x30153d26	5.429278e-10
33	0xb403a71a	-1.2261117e-07
34	0x2e82c680	5.946976e-11
35	0x2c10f9b1	2.0602237e-12
36	0x2f83f4aa	2.4002605e-10
37	0x36bb68f8	5.5852543e-06
38	0xad6bd5fa	-1.3405716e-11
39	0xb675e4b0	-3.6640959e-06
40	0x39082c36	0.0001298644
41	0x37e68f37	2.7484826e-05
42	0xb6dc27d2	-6.5611466e-06
43	0x31782353	3.610883e-09
44	0x342376db	1.5223797e-07
45	0xb0ca680c	-1.4727006e-09
46	0xaec32598	-8.874251e-11
47	0x2edffef5	1.01861554e-10
48	0x2e22b4fc	3.6995282e-11
49	0x32aebf86	2.034336e-08
50	0x302df93c	6.3291217e-10
51	0xb3a69dd4	-7.758686e-08
52	0x2c26ae57	2.3686797e-12
53	0xadc83fb4	-2.2765657e-11
54	0x2b6c3ec4	8.393115e-13
55	0x350d5f7a	5.266553e-07
56	0xb69e5514	-4.7186713e-06
57	0xb1320979	-2.5907794e-09
58	0x2f1184be	1.3234833e-10
59	0x31f42766	7.1058137e-09
60	0xae7bd219	-5.7257397e-11
61	0xb1138023	-2.1464153e-09
62	0xad8b0a2e	-1.5806991e-11
63	0xaf652b9a	-2.0842919e-10
64	0x2b1c517e	5.5535427e-13
65	0x2fafd720	3.198517e-10
66	0x318eaab4	4.1521506e-09
67	0x32241c96	9.552556e-09
68	0x2b1442c8	5.267284e-13
69	0xaf09d1e1	-1.2534641e-10
70	0xab2d40dc	-6.1551957e-13
71	0x2a0faa27	1.2759985e-13
72	0xb78fddee	-1.7150272e-05
73	0xb042f8f8	-7.0930595e-10
74	0xb32dd911	-4.0477122e-08
75	0x2dea8463	2.6661512e-11
76	0x32881c8b	1.5845464e-08
77	0x37fb94f8	2.99909e-05
78	0x2d0b150c	7.905909e-12
79	0xac1188c0	-2.068165e-12
80	0x303761d0	6.671401e-10
81	0xaee6d5f8	-1.04971976e-10
82	0xad553150	-1.2118598e-11
83	0xaed4d470	-9.67838e-11
84	0x32c35568	2.2739826e-08
85	0x35154e12	5.562043e-07
86	0x2f6e12eb	2.1652695e-10
87	0xaf501458	-1.8924717e-10
88	0x3809fcbb	3.289872e-05
89	0xaf9fdbc2	-2.907808e-10
90	0xb0bbabf5	-1.3654914e-09
91	0x339d08ef	7.312507e-08
92	0xb84c3cba	-4.8693946e-05
93	0xad3be89d	-1.068137e-11
94	0x2afe40f4	4.5164534e-13
95	0xaea213a2	-7.3703946e-11
96	0x2f6d8b3c	2.160449e-10
97	0x2ee5214a	1.0419628e-10
98	0x2c9aab62	4.3959706e-12
99	0xaffa3f20	-4.5519588e-10
100	0x2c137ae2	2.095817e-12
101	0x2a7983a0	2.2161309e-13
102	0xad914bd4	-1.6518266e-11
103	0x37b93ab2	2.208105e-05
104	0x31066780	1.95584e-09
105	0x322570d4	9.629918e-09
106	0xb87f80ff	-6.0916875e-05
107	0x2eef55d8	1.08837106e-10
108	0xab29dfa8	-6.0351247e-13
109	0xac2da7c8	-2.4677916e-12
110	0xb20144cc	-7.524431e-09
111	0xb2d5d0bf	-2.489139e-08
112	0xb1e858a0	-6.762164e-09
113	0x368f78a9	4.275779e-06
114	0x37482a0c	1.1930719e-05
115	0x30550c26	7.750621e-10
116	0xb1dc67d2	-6.4146457e-09
117	0x35e47f42	1.7024361e-06
118	0xa8ef6192	-2.6576645e-14
119	0xac25bfb0	-2.3554318e-12
120	0xb8488902	-4.7811314e-05
121	0x3709f188	8.222072e-06
122	0x3228c760	9.82422e-09
123	0xac2bf6e8	-2.4437622e-12
124	0x38b2b230	8.5208914e-05
125	0x2dd00212	2.3647782e-11
126	0xabe24688	-1.6077842e-12
127	0x2c216b5e	2.2939077e-12
128	0xb5575248	-8.0213476e-07
129	0x2c831a60	3.726172e-12
130	0xad4b8196	-1.1567988e-11
131	0xae2b0472	-3.8884847e-11
132	0x2c3f4500	2.7181035e-12
133	0x2e716884	5.4889884e-11
134	0xb1588597	-3.1508074e-09
135	0xa9bae722	-8.3001545e-14
136	0x2bebd664	1.675726e-12
137	0xb07c06b0	-9.168657e-10
138	0xb69c31ad	-4.6549453e-06
139	0x3290aa90	1.684137e-08
140	0xb455fbb3	-1.9928738e-07
141	0xac23e655	-2.3291553e-12
142	0x2e555b19	4.8511504e-11
143	0x38c70dbb	9.491617e-05
144	0xb0237615	-5.946686e-10
145	0xacf905b0	-7.077637e-12
146	0xb855a196	-5.0933646e-05
147	0x3961f6fd	0.00021549682
148	0xab94d3be	-1.0574803e-12
149	0x2ea86df7	7.659289e-11
150	0x2c401f12	2.7302089e-12
151	0x35ff7b06	1.9034785e-06
152	0xb26223ba	-1.3163055e-08
153	0x2f3b38c2	1.7027715e-10
154	0x392b9ec7	0.0001636698
155	0x2da8b01a	1.9177594e-11
156	0x2d81fd55	1.4778104e-11
157	0x33c2a4fe	9.063841e-08
158	0xad46858a	-1.12846486e-11
159	0x2fab37c7	3.114435e-10
160	0x322411e0	9.550121e-09
161	0x379b5bec	1.8520244e-05
162	0x38a9785a	8.080965e-05
163	0x2f0bbce4	1.2709084e-10
164	0x329460cb	1.7273484e-08
165	0x300a67a6	5.03514e-10
166	0x2a626e8a	2.0111183e-13
167	0x348da46c	2.638293e-07
168	0x31aae354	4.9734954e-09
169	0xacf49686	-6.9516086e-12
170	0xaf1a944c	-1.4058904e-10
171	0x305f59b0	8.125438e-10
172	0x31030d46	1.9070554e-09
173	0xb549cc53	-7.5175666e-07
174	0xb1ba0aa9	-5.4145244e-09
175	0x2c611fe4	3.1992126e-12
176	0x31bce4a0	5.497512e-09
177	0xb37ebe12	-5.931185e-08
178	0xb2d4b5ec	-2.4762777e-08
179	0x37367846	1.0876049e-05
180	0xae097426	-3.1253354e-11
181	0xb574b75d	-9.116391e-07
182	0xab538e94	-7.5160126e-13
183	0x30d97eb8	1.5824844e-09
184	0xac022528	-1.8494737e-12
185	0x3590f013	1.0798707e-06
186	0xb5febffc	-1.898035e-06
187	0xab7b78a7	-8.934055e-13
188	0x2f212437	1.4655731e-10
189	0x2ac2b1c7	3.458468e-13
190	0x2d9435f0	1.6849605e-11
191	0xb3b9610f	-8.632389e-08
192	0xb31f730c	-3.7124707e-08
193	0xb8b9e7ea	-8.864685e-05
194	0xb2459d54	-1.15026815e-08
195	0x329235a7	1.7021035e-08
196	0x2c82d2cd	3.718226e-12
197	0xb8a1ed3c	-7.7212666e-05
198	0xb8e348e4	-0.000108377804
199	0xb054fcd8	-7.7484463e-10
200	0xac784f3a	-3.52869e-12
201	0xaf949d3f	-2.7032773e-10
202	0xb6a4e0f9	-4.913771e-06
203	0xb6b64e40	-5.433132e-06
204	0x33fcf904	1.177996e-07
205	0x2917faa0	3.3746118e-14
206	0x2d2a7c6a	9.691007e-12
207	0xb3129d4b	-3.413633e-08
208	0x37a610f4	1.9796636e-05
209	0x36c002d4	5.722375e-06
210	0x36d01f68	6.202539e-06
211	0x2c543a6f	3.015945e-12
212	0x2aae66f2	3.0980042e-13
213	0x37553cf9	1.2709986e-05
214	0xb34969c0	-4.689514e-08
215	0xafe74bc8	-4.20725e-10
216	0x3362a07c	5.2765685e-08
217	0x36f20aa0	7.213399e-06
218	0x2f175a3e	1.376543e-10
219	0xb04a5e64	-7.362131e-10
220	0xb3f57c76	-1.1431341e-07
221	0x2b053c70	4.7334966e-13
222	0x34510902	1.9467919e-07
223	0xb0a19e6a	-1.1759316e-09
224	0x2f309da4	1.6063112e-10
225	0xae6f5bb7	-5.4423768e-11
226	0xb2e16078	-2.6237316e-08
227	0xb7d709c9	-2.5634554e-05
228	0xb75d330c	-1.3184512e-05
229	0xac6b349c	-3.3424713e-12
230	0x36af8080	5.230366e-06
231	0x318386b0	3.827914e-09
232	0xb0838fef	-9.572413e-10
233	0xb2af8afc	-2.0435884e-08
234	0x37f856b0	2.960427e-05
235	0xabb11933	-1.2583601e-12
236	0x2c3e0126	2.7001261e-12
237	0x2b485bec	7.118184e-13
238	0x2ec9d1f0	9.177714e-11
239	0x2e266b5a	3.7839377e-11
240	0xb95151e0	-0.00019962294
241	0x361cc9d5	2.3363293e-06
242	0xb3073463	-3.1479782e-08
243	0x37bae112	2.2277734e-05
244	0x37b8a9cc	2.2013577e-05
245	0x2d4b5aa2	1.15593386e-11
246	0x35cad59a	1.5112339e-06
247	0x2d4f4cfc	1.1783682e-11
248	0xb4182513	-1.416959e-07
249	0x2bbed494	1.3559314e-12
250	0x37e52710	2.7317117e-05
251	0x3713d8b6	8.81234e-06
252	0xb59fa8af	-1.1895517e-06
253	0xb5e1dd4c	-1.6828212e-06
254	0xb710627c	-8.605999e-06
255	0xafb162bc	-3.2266267e-10

bias_ih_l0 f4 [64]
0	0x32b6ef08	2.1296287e-08
1	0xb3ed035c	-1.10367836e-07
2	0x2fadaf8e	3.1593256e-10
3	0xaca68e2e	-4.733789e-12
4	0x310fe098	2.0936906e-09
5	0xae452e5a	-4.4833783e-11
6	0x2f3127a6	1.6112142e-10
7	0xafc28e4c	-3.5389502e-10
8	0x2db4102f	2.0470818e-11
9	0x3186475c	3.908026e-09
10	0x35e9bb6b	1.7414399e-06
11	0x30966716	1.0943235e-09
12	0x2fab095c	3.111137e-10
13	0xad7ce3a3	-1.4375087e-11
14	0xaed7a124	-9.8056924e-11
15	0x3410afde	1.3475025e-07
16	0x3092db90	1.0685302e-09
17	0x2ff26495	4.4091011e-10
18	0xb4e93ecb	-4.344532e-07
19	0x2e9d2ffc	7.148057e-11
20	0xb2c2ccf8	-2.2677781e-08
21	0x326dbda1	1.3838332e-08
22	0x37648595	1.3620961e-05
23	0x30731a75	8.844048e-10
24	0xad811220	-1.4673651e-11
25	0x372fe6ae	1.0484522e-05
26	0x382ed9e6	4.1687766e-05
27	0x315c78e4	3.2082932e-09
28	0x2fde0fd8	4.0392822e-10
29	0x31e3b0b4	6.6266583e-09
30	0x35281092	6.260899e-07
31	0x2ff00cd6	4.3664866e-10
32	0x337329d7	5.66159e-08
33	0xb2d8777c	-2.5200045e-08
34	0x341c7982	1.4572836e-07
35	0xb4048566	-1.2341988e-07
36	0x3712e6f4	8.756051e-06
37	0x343aa81c	1.7383758e-07
38	0x32d8c36d	2.5234579e-08
39	0x33a6f758	7.774969e-08
40	0xb71952d0	-9.138792e-06
41	0xb4563700	-1.9950312e-07
42	0x308733c0	9.837251e-10
43	0x326f046a	1.3912635e-08
44	0x333ba5af	4.369002e-08
45	0x33f46861	1.1381122e-07
46	0x36ccc158	6.102182e-06
47	0xb395dbbe	-6.978324e-08
48	0xac9a535c	-4.386198e-12
49	0xb7c6cc5e	-2.3698605e-05
50	0xb019ea96	-5.599444e-10
51	0x303bb732	6.829054e-10
52	0x2fe66888	4.191103e-10
53	0x31cc9dde	5.955129e-09
54	0xb101bbdc	-1.8878756e-09
55	0x35ec410e	1.7602304e-06
56	0x2dd9f1f1	2.4777487e-11
57	0xaaeb9608	-4.184849e-13
58	0xb8deb112	-0.00010618767
59	0x33e85570	1.0818883e-07
60	0x374f54a6	1.235787e-05
61	0x375becf3	1.3108586e-05
62	0xb3a8a701	-7.8534875e-08
63	0xb310da00	-3.3725883e-08

bias_hh_l0 f4 [64]
0	0xb2db788c	-2.5549774e-08
1	0x2f4e4cdc	1.8762897e-10
2	0xaf8faa82	-2.6132702e-10
3	0xb29648d8	-1.7495424e-08
4	0x3383208c	6.106083e-08
5	0xad83c26e	-1.497932e-11
6	0xb93b2a04	-0.00017849362
7	0x3666e86c	3.4407958e-06
8	0x36069727	2.0055538e-06
9	0xb444bddc	-1.8322993e-07
10	0xb7c7c023	-2.381212e-05
11	0x3768ea28	1.3882796e-05
12	0x2da65464	1.8909492e-11
13	0x2f95b23e	2.722959e-10
14	0xb53ed1dc	-7.10859e-07
15	0xae094326	-3.1209833e-11
16	0x2c43fd7e	2.7851883e-12
17	0xad91e4ad	-1.6586144e-11
18	0x32775230	1.43959795e-08
19	0x2e38de62	4.2034272e-11
20	0xad2fa6dc	-9.9846485e-12
21	0xb6ae27d8	-5.1902425e-06
22	0xb4b4c1a6	-3.366851e-07
23	0xb6008bbc	-1.9154822e-06
24	0x31fb1736	7.3077002e-09
25	0x36a217f1	4.8307634e-06
26	0xaf2d0073	-1.5734418e-10
27	0x30e345ed	1.6536298e-09
28	0xb638a168	-2.7512087e-06
29	0xb338229a	-4.287231e-08
30	0xb6f7551c	-7.3710817e-06
31	0xb5fa1f49	-1.8635557e-06
32	0x379356e3	1.7564225e-05
33	0x369ce64b	4.675972e-06
34	0xb4dbf374	-4.0969064e-07
35	0xb68f6670	-4.2736574e-06
36	0x36c9085c	5.99124e-06
37	0x33a2904c	7.56996e-08
38	0x388e7544	6.79293e-05
39	0xb3be22ae	-8.853873e-08
40	0x32dab9d6	2.5463049e-08
41	0x34855658	2.4836004e-07
42	0x3321013e	3.7486863e-08
43	0xb522085e	-6.036188e-07
44	0x330f88f3	3.3419337e-08
45	0xb8443c50	-4.6786212e-05
46	0x36e4d328	6.8195113e-06
47	0x32e1326c	2.6216377e-08
48	0xadd24334	-2.390408e-11
49	0x3621d3b8	2.4114106e-06
50	0xb2c4198c	-2.282902e-08
51	0x34521b59	1.9567723e-07
52	0xb1c8d2ee	-5.844746e-09
53	0xb24b8c66	-1.1848078e-08
54	0x383064f6	4.2055697e-05
55	0x304669e2	7.218245e-10
56	0xb1aa8419	-4.962669e-09
57	0x38a3b575	7.806245e-05
58	0xb2c5ca8d	-2.3025928e-08
59	0xb90722f2	-0.00012887621
60	0x31a31900	4.7467665e-09
61	0xac19b78f	-2.1844503e-12
62	0xad878a02	-1.5409011e-11
63	0x383c0e60	4.483608e-05

weight_ih_l1 f4 [64, 16]
0	0xb536686d	-6.7952243e-07
1	0xae17be1c	-3.4502276e-11
2	0xb0895264	-9.991479e-10
3	0x324bc7b5	1.1861563e-08
4	0x2cea1f5a	6.6541607e-12
5	0xb0882d1b	-9.908122e-10
6	0xb26b3826	-1.3691567e-08
7	0xaf029c63	-1.1878991e-10
8	0xb290d13a	-1.6858952e-08
9	0xb2072183	-7.865654e-09
10	0xb2a82d7b	-1.9578456e-08
11	0xb23170a4	-1.03283675e-08
12	0xb24fc11c	-1.2092894e-08
13	0xb2d40320	-2.468147e-08
14	0xac1cbff4	-2.2275489e-12
15	0x38323903	4.2491603e-05
16	0xb5929e63	-1.0923944e-06
17	0xb0b1b864	-1.2930852e-09
18	0xb80184ec	-3.087979e-05
19	0xad9b31e8	-1.7643623e-11
20	0x32bb5f08	2.181288e-08
21	0x2c7c0788	3.5815535e-12
22	0xb3989f48	-7.107025e-08
23	0x307a7deb	9.112841e-10
24	0xabdfd7d0	-1.5905003e-12
25	0x30c3e8b3	1.4254254e-09
26	0xb8b34423	-8.5480766e-05
27	0xb428460d	-1.5671704e-07
28	0xae4152c1	-4.395662e-11
29	0x32132bf2	8.566518e-09
30	0xb7db8499	-2.616858e-05
31	0xb30f4b5a	-3.3363314e-08
32	0xb26324fc	-1.3221548e-08
33	0xb45f3c1e	-2.0790364e-07
34	0x311dbc01	2.2953375e-09
35	0x34c6da34	3.7039138e-07
36	0x3267cc5e	1.3492437e-08
37	0x2f5e0bc4	2.0194962e-10
38	0xaf199b38	-1.3970414e-10
39	0x38d39c88	0.0001009042
40	0x35c56dc6	1.4709592e-06
41	0xb21b24c6	-9.030549e-09
42	0xb5cec5c0	-1.5405749e-06
43	0xb4378842	-1.7092773e-07
44	0x30a1f190	1.1782948e-09
45	0x354ef0da	7.7091465e-07
46	0x2e60f520	5.1149418e-11
47	0xb7022622	-7.757482e-06
48	0x32363c78	1.0607543e-08
49	0x2db70bca	2.0809927e-11
50	0xb189bef6	-4.0089345e-09
51	0xae20e564	-3.6583528e-11
52	0xb79b3722	-1.8503113e-05
53	0xb12469ec	-2.392535e-09
54	0xb28cdc46	-1.6398314e-08
55	0x31901354	4.193149e-09
56	0xb334ce96	-4.2097405e-08
57	0xb801c863	-3.094262e-05
58	0xac8cf230	-4.0059275e-12
59	0xb21fdf62	-9.3058095e-09
60	0x32e6c7ee	2.6866442e-08
61	0x30e7bbd0	1.6860842e-09
62	0xb5c16aa0	-1.4410653e-06
63	0x3210fcbc	8.439368e-09
64	0x3116cff8	2.194609e-09
65	0xad233e48	-9.2793065e-12
66	0x302cdc9a	6.288673e-10
67	0x33040a4a	3.0743003e-08
68	0x30e2a249	1.6489788e-09
69	0x2ea26840	7.3854256e-11
70	0x2fc562a8	3.590419e-10
71	0xb801a938	-3.0913594e-05
72	0x30a1de55	1.1777482e-09
73	0x30ff0d10	1.8557405e-09
74	0x38286c10	4.0154962e-05
75	0x31af9d36	5.111043e-09
76	0xb461cae2	-2.1028566e-07
77	0x307aae70	9.119736e-10
78	0x31cef693	6.0234213e-09
79	0xae9a0ac0	-7.005019e-11
80	0xb6625da4	-3.373113e-06
81	0x32b222cc	2.0737751e-08
82	0x31ca3454	5.8849228e-09
83	0x34669a3c	2.147653e-07
84	0xb1f53758	-7.1367303e-09
85	0xb6837e8e	-3.918837e-06
86	0xb0b24870	-1.2971793e-09
87	0x2bff9706	1.8160757e-12
88	0x36c3fd0c	5.8409114e-06
89	0x2d799333	1.4186696e-11
90	0x2d0b61d2	7.922956e-12
91	0xb37adcba	-5.840841e-08
92	0xb1e7705d	-6.735759e-09
93	0xb34617f6	-4.612226e-08
94	0x321412fc	8.61905e-09
95	0xae4a5c8c	-4.601168e-11
96	0x300a868c	5.039531e-10
97	0xb6c066ab	-5.733998e-06
98	0xaf77e81c	-2.2546981e-10
99	0x3329f549	3.9571464e-08
100	0xb75148a0	-1.247428e-05
101	0x3089ef4e	1.0036076e-09
102	0xaf1de782	-1.4361315e-10
103	0x2ce5a859	6.527262e-12
104	0x30c6a42a	1.4453054e-09
105	0xb03e4178	-6.9214634e-10
106	0x30bb3e07	1.362367e-09
107	0x33dab76b	1.01847796e-07
108	0xb3a7c210	-7.811843e-08
109	0xb01889c3	-5.549305e-10
110	0x31e6fb7b	6.722471e-09
111	0xb1413ebe	-2.8120861e-09
112	0x2d889b50	1.5530383e-11
113	0x2f7f5c0a	2.3224814e-10
114	0xadc5926e	-2.2461335e-11
115	0x336b252c	5.474901e-08
116	0xaeac47ea	-7.834429e-11
117	0x30d0fb63	1.520544e-09
118	0xad8b91a0	-1.5867141e-11
119	0x2f99efa0	2.8000802e-10
120	0xad99f940	-1.7504775e-11
121	0x2e4f214c	4.7095924e-11
122	0xac7d24df	-3.597393e-12
123	0xb02a0b60	-6.1861805e-10
124	0x31bec807	5.5524683e-09
125	0xb331624b	-4.130042e-08
126	0x35aede2c	1.3028671e-06
127	0xb85fe303	-5.3378764e-05
128	0xaed2922a	-9.575658e-11
129	0xb5b2c3e0	-1.3319041e-06
130	0xae1e9644	-3.6058503e-11
131	0xb0f7cd2a	-1.8029926e-09
132	0x2f8b8db8	2.538465e-10
133	0x2f812e14	2.3497704e-10
134	0xb2f46378	-2.8450572e-08
135	0xb502fe76	-4.8799063e-07
136	0xb30ec150	-3.3237768e-08
137	0xb5601d8d	-8.3489505e-07
138	0x3092e090	1.0686723e-09
139	0xb399f042	-7.16832e-08
140	0xb41d2876	-1.4636484e-07
141	0xb150a360	-3.0360852e-09
142	0x2f18ac30	1.3885493e-10
143	0xafed89d9	-4.3207996e-10
144	0xae71167a	-5.481702e-11
145	0xb801661a	-3.0851086e-05
146	0x3845a1de	4.711921e-05
147	0xb85be798	-5.2429357e-05
148	0xae3d9f48	-4.3115095e-11
149	0x30160aa0	5.458478e-10
150	0xafa9a1fe	-3.0856023e-10
151	0x380611df	3.1964733e-05
152	0x35feed22	1.899349e-06
153	0x2fb66176	3.3174857e-10
154	0x30a985f0	1.2334436e-09
155	0xb785bb85	-1.5942156e-05
156	0x380e6a6a	3.3954544e-05
157	0x320088ce	7.481686e-09
158	0x38ebb62a	0.00011239604
159	0x37b62588	2.1713568e-05
160	0x35fdf314	1.8920714e-06
161	0x393287ba	0.00017025965
162	0xaf9c1170	-2.8388625e-10
163	0xb8101e04	-3.436023e-05
164	0x380df8f9	3.3848894e-05
165	0xb1d035a9	-6.059697e-09
166	0x2fba8bba	3.3932485e-10
167	0x37ed13ec	2.8261878e-05
168	0xb01ae06c	-5.6343796e-10
169	0x3837b892	4.3802494e-05
170	0x3195b722	4.3572905e-09
171	0x375701e1	1.2815436e-05
172	0xae6168e8	-5.1252252e-11
173	0x34f2e475	4.5242237e-07
174	0x2e236478	3.7151143e-11
175	0xae5f35c4	-5.0752083e-11
176	0x363d67c4	2.8223594e-06
177	0xb3ac18db	-8.013895e-08
178	0x3806a654	3.2102995e-05
179	0xb841414c	-4.60756e-05
180	0x37955c48	1.7805156e-05
181	0xad5c9ebb	-1.2540797e-11
182	0xb2c0f0b6	-2.2461204e-08
183	0xb2df20ee	-2.5975591e-08
184	0xb18b41e5	-4.0529238e-09
185	0x366fc1fc	3.572669e-06
186	0x35a6650f	1.2397376e-06
187	0xb7867078	-1.6026417e-05
188	0x2e2fc4b2	3.9965094e-11
189	0x2cacd9da	4.9127204e-12
190	0xb31ef649	-3.7011237e-08
191	0x2e190b20	3.4798053e-11
192	0x32649e9a	1.33074085e-08
193	0xad097dd9	-7.815492e-12
194	0xabb5fb70	-1.2930611e-12
195	0xb42f3090	-1.6315812e-07
196	0xb128c42e	-2.4558733e-09
197	0xb5ce7d57	-1.5384675e-06
198	0x2f717bcd	2.1962805e-10
199	0xb0a5fc7d	-1.2077092e-09
200	0xad87134e	-1.5356296e-11
201	0xae3ac357	-4.2465e-11
202	0xb04749ea	-7.2500816e-10
203	0xb6c66cfc	-5.9135473e-06
204	0x33711024	5.6126865e-08
205	0x3162f598	3.3026932e-09
206	0xadd2de3a	-2.3972924e-11
207	0x2d8af66e	1.579822e-11
208	0xb00d729a	-5.145836e-10
209	0x2c43d8a4	2.7831426e-12
210	0x37a0218b	1.9089106e-05
211	0xafcd6def	-3.7367395e-10
212	0xb33acade	-4.3491006e-08
213	0xb49d0909	-2.9250103e-07
214	0x31c539e6	5.740037e-09
215	0x335b5360	5.106574e-08
216	0xb32d9ea4	-4.0423984e-08
217	0xb211ca7c	-8.4861504e-09
218	0x2f128736	1.3326659e-10
219	0xb79bc112	-1.8567345e-05
220	0xb65ecec4	-3.3200931e-06
221	0xaf2e3cda	-1.5846827e-10
222	0x38adb44c	8.282866e-05
223	0x374df6e0	1.2276432e-05
224	0xb57d33ba	-9.4325117e-07
225	0x30be3ef2	1.384221e-09
226	0x3083115a	9.536436e-10
227	0xb4563505	-1.9949591e-07
228	0xb11d30e7	-2.2874305e-09
229	0x3510b949	5.3913806e-07
230	0xb0250ed4	-6.004772e-10
231	0x330b63ec	3.2454338e-08
232	0x3615d9ed	2.232958e-06
233	0x2e51dfd4	4.7719897e-11
234	0xb7940662	-1.7645947e-05
235	0x30021cf4	4.733487e-10
236	0x2f402bc8	1.7477852e-10
237	0x3530a6f4	6.580806e-07
238	0x3226a42d	9.699801e-09
239	0xb81e8101	-3.779028e-05
240	0x34069546	1.2534028e-07
241	0xb225fb0c	-9.6613455e-09
242	0xb14c126c	-2.9696379e-09
243	0x388a1e29	6.5859706e-05
244	0x32a5ff7e	1.9324712e-08
245	0xac95ad37	-4.2540654e-12
246	0x37a4a250	1.9625906e-05
247	0xb4bdd9a3	-3.5362345e-07
248	0xae6b99ac	-5.3569302e-11
249	0xb44f4202	-1.9302391e-07
250	0x30203f64	5.8297744e-10
251	0x35c17b1a	1.4415448e-06
252	0xb3a28071	-7.567076e-08
253	0x33678794	5.3907186e-08
254	0xb0ab6a22	-1.2472052e-09
255	0xb42a8e20	-1.5884189e-07

weight_hh_l1 f4 [64, 16]
0	0xb860327c	-5.345278e-05
1	0x35b5ef4d	1.3555197e-06
2	0x359f9f21	1.1892736e-06
3	0x382cb63e	4.1177722e-05
4	0xb18fd78a	-4.1863517e-09
5	0x2e88331e	6.193644e-11
6	0x3349a93c	4.6952877e-08
7	0x2e362694	4.1416273e-11
8	0x2b213290	5.726886e-13
9	0x349cbd48	2.9194985e-07
10	0x2e485030	4.5545956e-11
11	0x31725de0	3.5268997e-09
12	0x302af9f5	6.220085e-10
13	0x326277f6	1.3182207e-08
14	0x30cd2a4e	1.4927737e-09
15	0xb87ae99c	-5.982221e-05
16	0x2be3b4cb	1.61795e-12
17	0xb633c74b	-2.6789082e-06
18	0x33f6a14a	1.1484606e-07
19	0x330328a8	3.053779e-08
20	0x2f48c0c7	1.8258382e-10
21	0xb7bb6e5e	-2.234353e-05
22	0xb7b3dd23	-2.1441438e-05
23	0xb316e253	-3.5130437e-08
24	0x37462fcc	1.1812848e-05
25	0xaff0dfa0	-4.381464e-10
26	0xb12c2814	-2.5052076e-09
27	0xb22cec11	-1.0065393e-08
28	0x366a2901	3.4892585e-06
29	0x3795ed00	1.7872546e-05
30	0x334b6f58	4.7365887e-08
31	0x3725f3ea	9.891557e-06
32	0xb7aece94	-2.0838612e-05
33	0xac29540a	-2.4062996e-12
34	0xadb67ff8	-2.0747834e-11
35	0xb788ed52	-1.6322974e-05
36	0xadffd265	-2.9083578e-11
37	0x2dd80cd2	2.456205e-11
38	0x2e1c6880	3.5563108e-11
39	0xb0156b84	-5.4358673e-10
40	0xb7b1ede0	-2.1210813e-05
41	0xb39a0cab	-7.173488e-08
42	0x307c82e3	9.1863067e-10
43	0xb31ff8e8	-3.724645e-08
44	0x3577e02a	9.234087e-07
45	0xb5fb2098	-1.8710443e-06
46	0x31b2a714	5.1994764e-09
47	0xaef4f9b0	-1.1140189e-10
48	0xb4d5c6a0	-3.981886e-07
49	0x36326bec	2.6586886e-06
50	0xaecf1294	-9.41657e-11
51	0x2ecb71b4	9.251569e-11
52	0x2d96faf2	1.7164468e-11
53	0xb125a845	-2.410631e-09
54	0x364e501e	3.0743026e-06
55	0xb48ff0a0	-2.6810903e-07
56	0x2dbb1038	2.1266641e-11
57	0xb4364b82	-1.697754e-07
58	0xabb492ae	-1.2830481e-12
59	0x32043e5a	7.697588e-09
60	0xadb209fe	-2.0240695e-11
61	0xafa8baeb	-3.0691835e-10
62	0xb5025a3c	-4.856008e-07
63	0xb5a170e8	-1.2028295e-06
64	0x2bbcc6ca	1.3413378e-12
65	0x2edc5311	1.0019197e-10
66	0x2c24d744	2.3425298e-12
67	0xafc5cbec	-3.5978986e-10
68	0xb007d478	-4.941465e-10
69	0x31c8e000	5.846232e-09
70	0x2f32251c	1.620219e-10
71	0x35713cd7	8.986803e-07
72	0xb2357c58	-1.0563859e-08
73	0xb781bd6c	-1.5466205e-05
74	0x2ab2935c	3.1721403e-13
75	0x2bf48e87	1.7376802e-12
76	0xb31d7dce	-3.666883e-08
77	0xadf936dc	-2.8332385e-11
78	0xae6d716c	-5.39883e-11
79	0x318b6540	4.0569432e-09
80	0xaad7faa9	-3.8365602e-13
81	0x31ad0f20	5.036682e-09
82	0x36930992	4.3820555e-06
83	0xb6a13d5c	-4.805317e-06
84	0xb39b6849	-7.236719e-08
85	0xaec53788	-8.968387e-11
86	0xae02d5ca	-2.974846e-11
87	0xb1dddc18	-6.4569683e-09
88	0x37f9b304	2.9766474e-05
89	0x31b43816	5.2450657e-09
90	0xaf990272	-2.7832275e-10
91	0x32d7e7d2	2.5134714e-08
92	0x303981d0	6.748708e-10
93	0xacab63a8	-4.8711764e-12
94	0x35b54060	1.3504286e-06
95	0xb2e10c8c	-2.6199153e-08
96	0xae4fe926	-4.7273428e-11
97	0x32d3f820	2.4676467e-08
98	0x2f2eed00	1.5909407e-10
99	0x315c0f88	3.2023042e-09
100	0xaaefd1d5	-4.260053e-13
101	0x373d3752	1.1278158e-05
102	0x2faf452b	3.188146e-10
103	0xaf8e3d91	-2.5873395e-10
104	0x2ffb49ca	4.5709064e-10
105	0xb6557720	-3.1808813e-06
106	0xad2eb280	-9.93039e-12
107	0xb64e6064	-3.0752499e-06
108	0xb514d1ca	-5.543958e-07
109	0x2c46ae28	2.8234168e-12
110	0x3480ae30	2.3968596e-07
111	0xaee3113e	-1.0325828e-10
112	0xb20dce96	-8.254252e-09
113	0xb3f09014	-1.12020786e-07
114	0xb7bac055	-2.226249e-05
115	0x3576f9d4	9.200569e-07
116	0xacb36cea	-5.099578e-12
117	0xb091b7d2	-1.0602383e-09
118	0xb7d87da2	-2.5807709e-05
119	0x319d4c17	4.577952e-09
120	0x2d793320	1.4165363e-11
121	0x35eabe49	1.7489739e-06
122	0x2afe5050	4.5175192e-13
123	0xb21246f0	-8.514448e-09
124	0xaeaccbf2	-7.8578824e-11
125	0x32e8265a	2.7025795e-08
126	0xb33f15f8	-4.4490633e-08
127	0x31d263d8	6.1231553e-09
128	0xb4c96d2f	-3.751861e-07
129	0xb490cc99	-2.6970955e-07
130	0x32ab174e	1.9917618e-08
131	0x2f0df697	1.2911482e-10
132	0x318801a5	3.958308e-09
133	0xb820159a	-3.816709e-05
134	0x355f7144	8.3238797e-07
135	0xb7b6c6ff	-2.1788755e-05
136	0xb7aade2a	-2.0369032e-05
137	0x386bebcf	5.624798e-05
138	0x3085aa22	9.725378e-10
139	0x36c84f1a	5.969673e-06
140	0xb6310e89	-2.6383516e-06
141	0xb4480900	-1.8629726e-07
142	0xada13aa1	-1.8329617e-11
143	0xb825d006	-3.9532802e-05
144	0x2fbf9a85	3.485249e-10
145	0x340ade54	1.2933134e-07
146	0xb0d404fa	-1.5426445e-09
147	0xb496ab4c	-2.8064312e-07
148	0x37dffecc	2.670232e-05
149	0x331e892a	3.691199e-08
150	0xabc1d8d9	-1.3773662e-12
151	0x34b93857	3.4499928e-07
152	0x3201fa4f	7.565702e-09
153	0x33b6da44	8.514738e-08
154	0x334741d6	4.6393176e-08
155	0x378d68e4	1.6857353e-05
156	0xaf8fea90	-2.6178215e-10
157	0x2ec70f8b	9.052233e-11
158	0x3428bc34	1.5714687e-07
159	0xad1a72b8	-8.779359e-12
160	0x325465a0	1.2363131e-08
161	0x32f7acb0	2.8833114e-08
162	0x31af6e54	5.105713e-09
163	0xb16b0ed8	-3.4205438e-09
164	0xb22cfcf8	-1.0069236e-08
165	0x2c4c66fb	2.904731e-12
166	0x310a0fbb	2.0090585e-09
167	0x34e23fec	4.214229e-07
168	0x33bcc2ec	8.789888e-08
169	0xb0b2da28	-1.3013208e-09
170	0x309dc0fc	1.1478103e-09
171	0x36f4209c	7.275563e-06
172	0x333d7c87	4.411825e-08
173	0xb6c30654	-5.8121896e-06
174	0x37e6025e	2.7419239e-05
175	0xb5a26d89	-1.210182e-06
176	0xae4e3f79	-4.6895352e-11
177	0xb4886d53	-2.5411518e-07
178	0x35ee7781	1.7767162e-06
179	0x30e78500	1.6845263e-09
180	0x2cc8e9e3	5.7103085e-12
181	0x37991970	1.8250867e-05
182	0x382ec9ef	4.1672898e-05
183	0xb34e1e0d	-4.7990444e-08
184	0xb868e64f	-5.5527602e-05
185	0x2c48ab6a	2.8516863e-12
186	0xb4c79824	-3.7177335e-07
187	0xb7816988	-1.542714e-05
188	0xb88d69e6	-6.743129e-05
189	0xb26f895c	-1.3942863e-08
190	0xb8a53116	-7.876956e-05
191	0xaea28877	-7.391148e-11
192	0x36a40d0e	4.8891006e-06
193	0xb2b6c2f8	-2.127625e-08
194	0xac6b22b2	-3.3414768e-12
195	0x2d8c4792	1.5947941e-11
196	0x34105898	1.3443275e-07
197	0x329869ef	1.7743302e-08
198	0xb7730a79	-1.4486367e-05
199	0xaef0f7cc	-1.0957954e-10
200	0xb5afb2fa	-1.3090605e-06
201	0x2fd7df87	3.9267098e-10
202	0xac56df4a	-3.053518e-12
203	0xb2f032ab	-2.7962718e-08
204	0xb4316a60	-1.6523109e-07
205	0x31c35eab	5.6860094e-09
206	0x3063da40	8.289227e-10
207	0x33242260	3.821549e-08
208	0x2cc699f0	5.644589e-12
209	0xafa1e811	-2.9450622e-10
210	0xb40428a9	-1.230825e-07
211	0x32ec4b60	2.7508293e-08
212	0x37b7ae8e	2.1896583e-05
213	0x30f337b5	1.769641e-09
214	0x2d597b80	1.2362444e-11
215	0x32deb6b4	2.5927285e-08
216	0xb201d510	-7.557233e-09
217	0xb12879dc	-2.4516487e-09
218	0x2a39f21e	1.6515302e-13
219	0xb3509374	-4.856288e-08
220	0xac6378a8	-3.2325618e-12
221	0xb7b4b7f2	-2.1543328e-05
222	0x35d00920	1.5499863e-06
223	0xb34b871b	-4.73875e-08
224	0xaf29f6d0	-1.5458146e-10
225	0x35749a29	9.1121416e-07
226	0xb43058f8	-1.6423644e-07
227	0xb39bd0b9	-7.2557164e-08
228	0xb26c3e7c	-1.3751215e-08
229	0x3625628c	2.4644278e-06
230	0xb331eb62	-4.1425103e-08
231	0x3272beac	1.4129608e-08
232	0x35029ba4	4.865526e-07
233	0x2cd9c0be	6.1889096e-12
234	0xad9c77a6	-1.7788281e-11
235	0xb6bd0350	-5.6330246e-06
236	0xb3185f68	-3.547703e-08
237	0xb3dc8598	-1.0268849e-07
238	0xb0868406	-9.787307e-10
239	0x2e557332	4.8532907e-11
240	0x2d2a5881	9.683033e-12
241	0xaad6ce26	-3.815708e-13
242	0xb1191b46	-2.2279933e-09
243	0x3454f8b2	1.9834513e-07
244	0xb5c9d62a	-1.5037997e-06
245	0x36464e10	2.9549738e-06
246	0xb612eb72	-2.1892743e-06
247	0xac89ecce	-3.920065e-12
248	0xb1019560	-1.885688e-09
249	0x300806fe	4.948645e-10
250	0xb39372af	-6.866082e-08
251	0xb124b65c	-2.39688e-09
252	0xb2c5fba4	-2.3048251e-08
253	0xabd8ea10	-1.5412688e-12
254	0x36fe9257	7.586826e-06
255	0x2d43e82a	1.11360175e-11

bias_ih_l1 f4 [64]
0	0x30ef1f2a	1.7398396e-09
1	0xb7882385	-1.6229003e-05
2	0x320a2b2e	8.042475e-09
3	0x34ce1c0e	3.8390903e-07
4	0x3416e527	1.4053204e-07
5	0xb64bbbf4	-3.035876e-06
6	0x369964e6	4.5715014e-06
7	0xb20ca54e	-8.1866585e-09
8	0xb47ed464	-2.373286e-07
9	0xb01d5f74	-5.7251914e-10
10	0x34f6ce8d	4.5971356e-07
11	0x325db8d8	1.2905922e-08
12	0xb1b05782	-5.1322226e-09
13	0x365eaa95	3.317987e-06
14	0x33b432c8	8.39114e-08
15	0xb420e806	-1.4985571e-07
16	0xb27fd64e	-1.4891681e-08
17	0x338f4360	6.671212e-08
18	0x37206b3a	9.561709e-06
19	0x343ef94e	1.7785825e-07
20	0x34e7bf86	4.3166455e-07
21	0xb7a5b5c8	-1.9754181e-05
22	0xb1ae5ece	-5.0748445e-09
23	0x3415fb25	1.3968072e-07
24	0xb382cee4	-6.09123e-08
25	0xb0489e02	-7.298412e-10
26	0xb67cc581	-3.7665889e-06
27	0x3057555a	7.8337836e-10
28	0x304633e5	7.2105727e-10
29	0xb50e1809	-5.29341e-07
30	0x32f553bc	2.8559832e-08
31	0x3216be58	8.774428e-09
32	0xb5f42b64	-1.8192045e-06
33	0x360a4d7d	2.0608707e-06
34	0x37a5f82e	1.97851e-05
35	0x37ecb26b	2.8216475e-05
36	0x387c0884	6.0089413e-05
37	0xb2301c7b	-1.0251024e-08
38	0x35e5c643	1.7119531e-06
39	0xb2097b52	-8.002489e-09
40	0xb57279f0	-9.032947e-07
41	0x341503a5	1.3878032e-07
42	0x32106ce8	8.406666e-09
43	0x32c2751a	2.2637824e-08
44	0x3493beb0	2.7519627e-07
45	0xb7989290	-1.818806e-05
46	0xb68f955b	-4.2791194e-06
47	0x36f77ef4	7.375953e-06
48	0x359db270	1.1749344e-06
49	0xb87ab118	-5.9769576e-05
50	0x3737dd4a	1.0959173e-05
51	0x33165ebe	3.5010764e-08
52	0xb63e9f92	-2.8405088e-06
53	0x343e1ecc	1.7706333e-07
54	0xb562ef3c	-8.453969e-07
55	0x36819789	3.8621406e-06
56	0xb400c241	-1.1991598e-07
57	0x379ca322	1.8672614e-05
58	0x3652ebd6	3.1429713e-06
59	0xb7846598	-1.5782934e-05
60	0x32a88e40	1.9622462e-08
61	0x35fe6f02	1.8956782e-06
62	0x38e8b7c4	0.00011096851
63	0xb5478fbe	-7.434245e-07

bias_hh_l1 f4 [64]
0	0xb01a8e22	-5.6226857e-10
1	0x34beab58	3.5514927e-07
2	0x36a883bf	5.0221274e-06
3	0xb75cd55a	-1.3162697e-05
4	0x358fb96e	1.0708297e-06
5	0xb112d5de	-2.1367366e-09
6	0x38818720	6.176368e-05
7	0xb209ba70	-8.0168405e-09
8	0x341cd52e	1.4606186e-07
9	0xad7f9820	-1.452885e-11
10	0xb01e17b0	-5.7513727e-10
11	0xb62e78ff	-2.599845e-06
12	0x31faec76	7.30284e-09
13	0x3412cb7c	1.3671337e-07
14	0xb243d0b0	-1.1397944e-08
15	0xb7d89c84	-2.582209e-05
16	0xb5fbdb43	-1.8764771e-06
17	0xb085a239	-9.72313e-10
18	0x37006fa8	7.6553915e-06
19	0xb4360f23	-1.6955578e-07
20	0x350c0eca	5.2175585e-07
21	0xaf0613f0	-1.2194312e-10
22	0xb407b2be	-1.2637881e-07
23	0x3882c418	6.2354084e-05
24	0x3418bff6	1.4225938e-07
25	0xb181667e	-3.766046e-09
26	0xb5b2e7aa	-1.3329457e-06
27	0xb813a7c1	-3.5203764e-05
28	0x3473aaa4	2.2693217e-07
29	0xb4c51148	-3.6706683e-07
30	0x317fa410	3.7200643e-09
31	0x30b9d25a	1.3520307e-09
32	0xb5f42b5c	-1.8192036e-06
33	0x360a4d79	2.0608697e-06
34	0x37a5f828	1.978509e-05
35	0x37ecb26b	2.8216475e-05
36	0x387c0884	6.0089413e-05
37	0xb2301c5d	-1.0250997e-08
38	0x35e5c650	1.7119546e-06
39	0xb2097b52	-8.002489e-09
40	0xb57279f0	-9.032947e-07
41	0x341503a5	1.3878032e-07
42	0x32106d18	8.406708e-09
43	0x32c27518	2.263782e-08
44	0x3493beb0	2.7519627e-07
45	0xb7989290	-1.818806e-05
46	0xb68f955b	-4.2791194e-06
47	0x36f77ef7	7.3759543e-06
48	0xb29d3908	-1.830314e-08
49	0x335b9a4b	5.113024e-08
50	0xb67de504	-3.7833242e-06
51	0x375db6ec	1.3215216e-05
52	0x37bbb1ba	2.2374898e-05
53	0x31f03f56	6.9921198e-09
54	0xb688f60c	-4.0817595e-06
55	0xb3644fd5	-5.3157994e-08
56	0xb432adb2	-1.6640732e-07
57	0xb717bcbc	-9.0442445e-06
58	0xb83aac78	-4.450648e-05
59	0xb5b32cee	-1.3349616e-06
60	0x343a8300	1.7370257e-07
61	0xb4dc1468	-4.099304e-07
62	0xb554f42c	-7.933147e-07
63	0x38026a4a	3.1093405e-05

weight_ih_l2 f4 [64, 16]
0	0x35f1354e	1.7971413e-06
1	0xb6085ee1	-2.0320806e-06
2	0xb7f15b3a	-2.877192e-05
3	0xb69ea486	-4.72792e-06
4	0xb8902806	-6.87391e-05
5	0x311ec808	2.310573e-09
6	0x356b0408	8.755019e-07
7	0xafecc308	-4.3066728e-10
8	0x373e5e9b	1.134691e-05
9	0xb3a97c54	-7.892291e-08
10	0xb2960738	-1.7465581e-08
11	0x310456f3	1.9257953e-09
12	0x35926140	1.0906151e-06
13	0x360bdb68	2.0840325e-06
14	0xb69bc720	-4.642541e-06
15	0xb6937b77	-4.3953146e-06
16	0x35f13554	1.797142e-06
17	0xb6085f02	-2.032088e-06
18	0xb7f15b34	-2.8771909e-05
19	0xb69ea451	-4.727896e-06
20	0xb890280e	-6.873916e-05
21	0x311ec5a4	2.3104372e-09
22	0x356b0444	8.755053e-07
23	0xafecc444	-4.3067605e-10
24	0x373e5e0b	1.1346779e-05
25	0xb3a97c6e	-7.8923094e-08
26	0xb2960722	-1.7465542e-08
27	0x31045733	1.9258095e-09
28	0x3592615a	1.0906181e-06
29	0x360bdb14	2.0840134e-06
30	0xb69bc7d7	-4.6426244e-06
31	0xb6937b7d	-4.3953173e-06
32	0x35f13556	1.7971422e-06
33	0xb6085ee9	-2.0320824e-06
34	0xb7f15b37	-2.8771914e-05
35	0xb69ea549	-4.7280087e-06
36	0xb89027f2	-6.8738955e-05
37	0x311ec828	2.3105802e-09
38	0x356b0418	8.755028e-07
39	0xafecc49c	-4.306785e-10
40	0x373e5dd9	1.1346733e-05
41	0xb3a97c44	-7.8922795e-08
42	0xb296073f	-1.7465593e-08
43	0x3104573a	1.925811e-09
44	0x35926158	1.0906178e-06
45	0x360bdb28	2.084018e-06
46	0xb69bc844	-4.642674e-06
47	0xb6937b84	-4.3953205e-06
48	0x35f13554	1.797142e-06
49	0xb6085ee2	-2.0320808e-06
50	0xb7f15b3e	-2.8771927e-05
51	0xb69ea41b	-4.7278713e-06
52	0xb89027d2	-6.873872e-05
53	0x311ec770	2.3105393e-09
54	0x356b0408	8.755019e-07
55	0xafecc30c	-4.306674e-10
56	0x373e5dbf	1.13467095e-05
57	0xb3a97c4c	-7.892285e-08
58	0xb296072d	-1.7465561e-08
59	0x3104565e	1.9257622e-09
60	0x35926137	1.0906141e-06
61	0x360bdb50	2.084027e-06
62	0xb69bc794	-4.642594e-06
63	0xb6937b94	-4.395328e-06
64	0x35f13546	1.7971404e-06
65	0xb6085eea	-2.0320826e-06
66	0xb7f15b3c	-2.8771923e-05
67	0xb69ea44a	-4.7278927e-06
68	0xb89027db	-6.873879e-05
69	0x311ec5d0	2.310447e-09
70	0x356b04b0	8.7551143e-07
71	0xafecc2fc	-4.3066695e-10
72	0x373e5dc6	1.1346716e-05
73	0xb3a97c51	-7.892289e-08
74	0xb2960750	-1.7465624e-08
75	0x3104567f	1.9257695e-09
76	0x3592613e	1.0906149e-06
77	0x360bdb00	2.0840089e-06
78	0xb69bc7c4	-4.6426157e-06
79	0xb6937b7f	-4.3953182e-06
80	0x35f13557	1.7971423e-06
81	0xb6085ee8	-2.0320822e-06
82	0xb7f15b39	-2.8771918e-05
83	0xb69ea523	-4.7279914e-06
84	0xb8902806	-6.87391e-05
85	0x311ec768	2.3105375e-09
86	0x356b04c0	8.7551234e-07
87	0xafecc410	-4.306746e-10
88	0x373e5e26	1.1346803e-05
89	0xb3a97c50	-7.892288e-08
90	0xb2960755	-1.7465632e-08
91	0x3104573d	1.9258117e-09
92	0x3592613c	1.0906147e-06
93	0x360bdba8	2.084047e-06
94	0xb69bc7e4	-4.6426303e-06
95	0xb6937b60	-4.395304e-06
96	0x35f13546	1.7971404e-06
97	0xb6085eee	-2.0320836e-06
98	0xb7f15b32	-2.8771905e-05
99	0xb69ea4da	-4.727958e-06
100	0xb890280b	-6.873914e-05
101	0x311ec79c	2.310549e-09
102	0x356b0418	8.755028e-07
103	0xafecc300	-4.3066706e-10
104	0x373e5db7	1.1346702e-05
105	0xb3a97c61	-7.8923e-08
106	0xb296073d	-1.746559e-08
107	0x310457ab	1.9258362e-09
108	0x3592615d	1.0906184e-06
109	0x360bdac0	2.0839943e-06
110	0xb69bc7b3	-4.642608e-06
111	0xb6937b74	-4.395313e-06
112	0x35f1355c	1.7971429e-06
113	0xb6085ef4	-2.032085e-06
114	0xb7f15b4f	-2.8771958e-05
115	0xb69ea485	-4.7279195e-06
116	0xb8902802	-6.873907e-05
117	0x311ec790	2.3105464e-09
118	0x356b04b4	8.7551166e-07
119	0xafecc480	-4.3067772e-10
120	0x373e5dd3	1.1346728e-05
121	0xb3a97c44	-7.8922795e-08
122	0xb2960757	-1.7465636e-08
123	0x3104568b	1.9257722e-09
124	0x35926166	1.0906194e-06
125	0x360bdab4	2.0839916e-06
126	0xb69bc73b	-4.6425534e-06
127	0xb6937b77	-4.3953146e-06
128	0x35f13542	1.7971399e-06
129	0xb6085edc	-2.0320795e-06
130	0xb7f15b32	-2.8771905e-05
131	0xb69ea45a	-4.7279e-06
132	0xb8902810	-6.873917e-05
133	0x311ec630	2.3104683e-09
134	0x356b0454	8.755062e-07
135	0xafecc49c	-4.306785e-10
136	0x373e5db5	1.13467e-05
137	0xb3a97c55	-7.8922916e-08
138	0xb296071c	-1.7465531e-08
139	0x31045654	1.92576e-09
140	0x35926148	1.090616e-06
141	0x360bda60	2.0839725e-06
142	0xb69bc740	-4.6425557e-06
143	0xb6937b8a	-4.3953232e-06
144	0x35f13563	1.7971437e-06
145	0xb6085eed	-2.0320833e-06
146	0xb7f15b3d	-2.8771925e-05
147	0xb69ea394	-4.72781e-06
148	0xb8902808	-6.8739115e-05
149	0x311ec72c	2.3105242e-09
150	0x356b0448	8.755055e-07
151	0xafecc2fc	-4.3066695e-10
152	0x373e5da4	1.1346685e-05
153	0xb3a97c49	-7.892283e-08
154	0xb2960730	-1.7465567e-08
155	0x310456ed	1.925794e-09
156	0x35926146	1.0906158e-06
157	0x360bdadc	2.0840007e-06
158	0xb69bc7a0	-4.6425994e-06
159	0xb6937b92	-4.395327e-06
160	0x35f13554	1.797142e-06
161	0xb6085eef	-2.0320838e-06
162	0xb7f15b38	-2.8771916e-05
163	0xb69ea42e	-4.72788e-06
164	0xb890282f	-6.87394e-05
165	0x311ec8c4	2.3106148e-09
166	0x356b04dc	8.7551393e-07
167	0xafecc290	-4.3066395e-10
168	0x373e5da4	1.1346685e-05
169	0xb3a97c46	-7.892281e-08
170	0xb2960733	-1.7465572e-08
171	0x3104563c	1.9257547e-09
172	0x35926145	1.0906157e-06
173	0x360bdb1c	2.0840153e-06
174	0xb69bc755	-4.6425653e-06
175	0xb6937b63	-4.3953055e-06
176	0x35f1354c	1.7971411e-06
177	0xb6085ef2	-2.0320845e-06
178	0xb7f15b28	-2.8771887e-05
179	0xb69ea545	-4.728007e-06
180	0xb8902808	-6.8739115e-05
181	0x311ec76c	2.3105384e-09
182	0x356b0474	8.75508e-07
183	0xafecc308	-4.3066728e-10
184	0x373e5dc1	1.1346711e-05
185	0xb3a97c48	-7.8922824e-08
186	0xb2960714	-1.7465517e-08
187	0x310456eb	1.9257935e-09
188	0x35926148	1.090616e-06
189	0x360bdb68	2.0840325e-06
190	0xb69bc788	-4.6425885e-06
191	0xb6937b9d	-4.395332e-06
192	0x35f13555	1.7971421e-06
193	0xb6085ee8	-2.0320822e-06
194	0xb7f15b37	-2.8771914e-05
195	0xb69ea433	-4.7278822e-06
196	0xb8902824	-6.873932e-05
197	0x311ec660	2.310479e-09
198	0x356b0458	8.7550643e-07
199	0xafecc3f0	-4.3067372e-10
200	0x373e5e10	1.1346783e-05
201	0xb3a97c52	-7.8922895e-08
202	0xb296072f	-1.7465565e-08
203	0x310456cf	1.9257873e-09
204	0x3592614d	1.0906166e-06
205	0x360bdb00	2.0840089e-06
206	0xb69bc792	-4.642593e-06
207	0xb6937b95	-4.3953282e-06
208	0x35f1356a	1.7971445e-06
209	0xb6085ee0	-2.0320804e-06
210	0xb7f15b2e	-2.8771898e-05
211	0xb69ea42f	-4.7278804e-06
212	0xb890280b	-6.873914e-05
213	0x311ec918	2.3106335e-09
214	0x356b048c	8.755094e-07
215	0xafecc4b8	-4.3067927e-10
216	0x373e5e27	1.1346804e-05
217	0xb3a97c5e	-7.892298e-08
218	0xb296072d	-1.7465561e-08
219	0x3104572a	1.9258075e-09
220	0x3592614d	1.0906166e-06
221	0x360bdaf4	2.0840062e-06
222	0xb69bc7c1	-4.6426144e-06
223	0xb6937b7a	-4.395316e-06
224	0x35f13557	1.7971423e-06
225	0xb6085ee8	-2.0320822e-06
226	0xb7f15b32	-2.8771905e-05
227	0xb69ea458	-4.727899e-06
228	0xb8902824	-6.873932e-05
229	0x311ec8bc	2.310613e-09
230	0x356b04a4	8.7551075e-07
231	0xafecc318	-4.3066772e-10
232	0x373e5e50	1.1346841e-05
233	0xb3a97c53	-7.89229e-08
234	0xb2960743	-1.74656e-08
235	0x310456ea	1.9257933e-09
236	0x3592614f	1.0906168e-06
237	0x360bdaf0	2.0840052e-06
238	0xb69bc80a	-4.6426476e-06
239	0xb6937ba5	-4.3953355e-06
240	0x35f13588	1.7971479e-06
241	0xb6085eea	-2.0320826e-06
242	0xb7f15b41	-2.8771932e-05
243	0xb69ea446	-4.727891e-06
244	0xb8902825	-6.8739326e-05
245	0x311ec7b8	2.3105553e-09
246	0x356b041c	8.75503e-07
247	0xafecc4f4	-4.3068094e-10
248	0x373e5de3	1.1346742e-05
249	0xb3a97c50	-7.892288e-08
250	0xb296074c	-1.7465617e-08
251	0x310456ee	1.9257942e-09
252	0x35926151	1.090617e-06
253	0x360bdac8	2.0839962e-06
254	0xb69bc802	-4.642644e-06
255	0xb6937b8c	-4.395324e-06
